…
I0615 14:05:57.031867 29366 net.cpp:51] Initializing net from parameters: 
name: "MOBILENET"
state {
  phase: TRAIN
  level: 0
  stage: ""
}
layer {
  name: "data"
  type: "ImageData"
  top: "data"
  top: "label"
  include {
    phase: TRAIN
  }
  transform_param {
    mirror: true
    crop_size: 224
    mean_file: "/home/xingzhaolong/caffe_project/caffe/models/caffe-oxford102/imagenet_mean.binaryproto"
  }
  image_data_param {
    source: "/home/xingzhaolong/caffe_project/caffe/models/caffe-oxford102/test.txt"
    batch_size: 50
    new_height: 256
    new_width: 256
  }
}
layer {
  name: "conv1"
  type: "Convolution"
  bottom: "data"
  top: "conv1"
  param {
    lr_mult: 1
    decay_mult: 1
  }
  convolution_param {
    num_output: 32
    bias_term: false
    pad: 1
    kernel_size: 3
    stride: 2
    weight_filler {
      type: "msra"
    }
  }
}
layer {
  name: "conv1/bn"
  type: "BatchNorm"
  bottom: "conv1"
  top: "conv1"
  param {
    lr_mult: 0
    decay_mult: 0
  }
  param {
    lr_mult: 0
    decay_mult: 0
  }
  param {
    lr_mult: 0
    decay_mult: 0
  }
}
layer {
  name: "conv1/scale"
  type: "Scale"
  bottom: "conv1"
  top: "conv1"
  scale_param {
    filler {
      value: 1
    }
    bias_term: true
    bias_filler {
      value: 0
    }
  }
}
layer {
  name: "relu1"
  type: "ReLU"
  bottom: "conv1"
  top: "conv1"
}
layer {
  name: "conv2_1/dw"
  type: "ConvolutionDepthwise"
  bottom: "conv1"
  top: "conv2_1/dw"
  param {
    lr_mult: 1
    decay_mult: 1
  }
  convolution_param {
    num_output: 32
    bias_term: false
    pad: 1
    kernel_size: 3
    group: 32
    stride: 1
    weight_filler {
      type: "msra"
    }
  }
}
layer {
  name: "conv2_1/dw/bn"
  type: "BatchNorm"
  bottom: "conv2_1/dw"
  top: "conv2_1/dw"
  param {
    lr_mult: 0
    decay_mult: 0
  }
  param {
    lr_mult: 0
    decay_mult: 0
  }
  param {
    lr_mult: 0
    decay_mult: 0
  }
}
layer {
  name: "conv2_1/dw/scale"
  type: "Scale"
  bottom: "conv2_1/dw"
  top: "conv2_1/dw"
  scale_param {
    filler {
      value: 1
    }
    bias_term: true
    bias_filler {
      value: 0
    }
  }
}
layer {
  name: "relu2_1/dw"
  type: "ReLU"
  bottom: "conv2_1/dw"
  top: "conv2_1/dw"
}
layer {
  name: "conv2_1/sep"
  type: "Convolution"
  bottom: "conv2_1/dw"
  top: "conv2_1/sep"
  param {
    lr_mult: 1
    decay_mult: 1
  }
  convolution_param {
    num_output: 64
    bias_term: false
    pad: 0
    kernel_size: 1
    stride: 1
    weight_filler {
      type: "msra"
    }
  }
}
layer {
  name: "conv2_1/sep/bn"
  type: "BatchNorm"
  bottom: "conv2_1/sep"
  top: "conv2_1/sep"
  param {
    lr_mult: 0
    decay_mult: 0
  }
  param {
    lr_mult: 0
    decay_mult: 0
  }
  param {
    lr_mult: 0
    decay_mult: 0
  }
}
layer {
  name: "conv2_1/sep/scale"
  type: "Scale"
  bottom: "conv2_1/sep"
  top: "conv2_1/sep"
  scale_param {
    filler {
      value: 1
    }
    bias_term: true
    bias_filler {
      value: 0
    }
  }
}
layer {
  name: "relu2_1/sep"
  type: "ReLU"
  bottom: "conv2_1/sep"
  top: "conv2_1/sep"
}
layer {
  name: "conv2_2/dw"
  type: "ConvolutionDepthwise"
  bottom: "conv2_1/sep"
  top: "conv2_2/dw"
  param {
    lr_mult: 1
    decay_mult: 1
  }
  convolution_param {
    num_output: 64
    bias_term: false
    pad: 1
    kernel_size: 3
    group: 64
    stride: 2
    weight_filler {
      type: "msra"
    }
  }
}
layer {
  name: "conv2_2/dw/bn"
  type: "BatchNorm"
  bottom: "conv2_2/dw"
  top: "conv2_2/dw"
  param {
    lr_mult: 0
    decay_mult: 0
  }
  param {
    lr_mult: 0
    decay_mult: 0
  }
  param {
    lr_mult: 0
    decay_mult: 0
  }
}
layer {
  name: "conv2_2/dw/scale"
  type: "Scale"
  bottom: "conv2_2/dw"
  top: "conv2_2/dw"
  scale_param {
    filler {
      value: 1
    }
    bias_term: true
    bias_filler {
      value: 0
    }
  }
}
layer {
  name: "relu2_2/dw"
  type: "ReLU"
  bottom: "conv2_2/dw"
  top: "conv2_2/dw"
}
layer {
  name: "conv2_2/sep"
  type: "Convolution"
  bottom: "conv2_2/dw"
  top: "conv2_2/sep"
  param {
    lr_mult: 1
    decay_mult: 1
  }
  convolution_param {
    num_output: 128
    bias_term: false
    pad: 0
    kernel_size: 1
    stride: 1
    weight_filler {
      type: "msra"
    }
  }
}
layer {
  name: "conv2_2/sep/bn"
  type: "BatchNorm"
  bottom: "conv2_2/sep"
  top: "conv2_2/sep"
  param {
    lr_mult: 0
    decay_mult: 0
  }
  param {
    lr_mult: 0
    decay_mult: 0
  }
  param {
    lr_mult: 0
    decay_mult: 0
  }
}
layer {
  name: "conv2_2/sep/scale"
  type: "Scale"
  bottom: "conv2_2/sep"
  top: "conv2_2/sep"
  scale_param {
    filler {
      value: 1
    }
    bias_term: true
    bias_filler {
      value: 0
    }
  }
}
layer {
  name: "relu2_2/sep"
  type: "ReLU"
  bottom: "conv2_2/sep"
  top: "conv2_2/sep"
}
layer {
  name: "conv3_1/dw"
  type: "ConvolutionDepthwise"
  bottom: "conv2_2/sep"
  top: "conv3_1/dw"
  param {
    lr_mult: 1
    decay_mult: 1
  }
  convolution_param {
    num_output: 128
    bias_term: false
    pad: 1
    kernel_size: 3
    group: 128
    stride: 1
    weight_filler {
      type: "msra"
    }
  }
}
layer {
  name: "conv3_1/dw/bn"
  type: "BatchNorm"
  bottom: "conv3_1/dw"
  top: "conv3_1/dw"
  param {
    lr_mult: 0
    decay_mult: 0
  }
  param {
    lr_mult: 0
    decay_mult: 0
  }
  param {
    lr_mult: 0
    decay_mult: 0
  }
}
layer {
  name: "conv3_1/dw/scale"
  type: "Scale"
  bottom: "conv3_1/dw"
  top: "conv3_1/dw"
  scale_param {
    filler {
      value: 1
    }
    bias_term: true
    bias_filler {
      value: 0
    }
  }
}
layer {
  name: "relu3_1/dw"
  type: "ReLU"
  bottom: "conv3_1/dw"
  top: "conv3_1/dw"
}
layer {
  name: "conv3_1/sep"
  type: "Convolution"
  bottom: "conv3_1/dw"
  top: "conv3_1/sep"
  param {
    lr_mult: 1
    decay_mult: 1
  }
  convolution_param {
    num_output: 128
    bias_term: false
    pad: 0
    kernel_size: 1
    stride: 1
    weight_filler {
      type: "msra"
    }
  }
}
layer {
  name: "conv3_1/sep/bn"
  type: "BatchNorm"
  bottom: "conv3_1/sep"
  top: "conv3_1/sep"
  param {
    lr_mult: 0
    decay_mult: 0
  }
  param {
    lr_mult: 0
    decay_mult: 0
  }
  param {
    lr_mult: 0
    decay_mult: 0
  }
}
layer {
  name: "conv3_1/sep/scale"
  type: "Scale"
  bottom: "conv3_1/sep"
  top: "conv3_1/sep"
  scale_param {
    filler {
      value: 1
    }
    bias_term: true
    bias_filler {
      value: 0
    }
  }
}
layer {
  name: "relu3_1/sep"
  type: "ReLU"
  bottom: "conv3_1/sep"
  top: "conv3_1/sep"
}
layer {
  name: "conv3_2/dw"
  type: "ConvolutionDepthwise"
  bottom: "conv3_1/sep"
  top: "conv3_2/dw"
  param {
    lr_mult: 1
    decay_mult: 1
  }
  convolution_param {
    num_output: 128
    bias_term: false
    pad: 1
    kernel_size: 3
    group: 128
    stride: 2
    weight_filler {
      type: "msra"
    }
  }
}
layer {
  name: "conv3_2/dw/bn"
  type: "BatchNorm"
  bottom: "conv3_2/dw"
  top: "conv3_2/dw"
  param {
    lr_mult: 0
    decay_mult: 0
  }
  param {
    lr_mult: 0
    decay_mult: 0
  }
  param {
    lr_mult: 0
    decay_mult: 0
  }
}
layer {
  name: "conv3_2/dw/scale"
  type: "Scale"
  bottom: "conv3_2/dw"
  top: "conv3_2/dw"
  scale_param {
    filler {
      value: 1
    }
    bias_term: true
    bias_filler {
      value: 0
    }
  }
}
layer {
  name: "relu3_2/dw"
  type: "ReLU"
  bottom: "conv3_2/dw"
  top: "conv3_2/dw"
}
layer {
  name: "conv3_2/sep"
  type: "Convolution"
  bottom: "conv3_2/dw"
  top: "conv3_2/sep"
  param {
    lr_mult: 1
    decay_mult: 1
  }
  convolution_param {
    num_output: 256
    bias_term: false
    pad: 0
    kernel_size: 1
    stride: 1
    weight_filler {
      type: "msra"
    }
  }
}
layer {
  name: "conv3_2/sep/bn"
  type: "BatchNorm"
  bottom: "conv3_2/sep"
  top: "conv3_2/sep"
  param {
    lr_mult: 0
    decay_mult: 0
  }
  param {
    lr_mult: 0
    decay_mult: 0
  }
  param {
    lr_mult: 0
    decay_mult: 0
  }
}
layer {
  name: "conv3_2/sep/scale"
  type: "Scale"
  bottom: "conv3_2/sep"
  top: "conv3_2/sep"
  scale_param {
    filler {
      value: 1
    }
    bias_term: true
    bias_filler {
      value: 0
    }
  }
}
layer {
  name: "relu3_2/sep"
  type: "ReLU"
  bottom: "conv3_2/sep"
  top: "conv3_2/sep"
}
layer {
  name: "conv4_1/dw"
  type: "ConvolutionDepthwise"
  bottom: "conv3_2/sep"
  top: "conv4_1/dw"
  param {
    lr_mult: 1
    decay_mult: 1
  }
  convolution_param {
    num_output: 256
    bias_term: false
    pad: 1
    kernel_size: 3
    group: 256
    stride: 1
    weight_filler {
      type: "msra"
    }
  }
}
layer {
  name: "conv4_1/dw/bn"
  type: "BatchNorm"
  bottom: "conv4_1/dw"
  top: "conv4_1/dw"
  param {
    lr_mult: 0
    decay_mult: 0
  }
  param {
    lr_mult: 0
    decay_mult: 0
  }
  param {
    lr_mult: 0
    decay_mult: 0
  }
}
layer {
  name: "conv4_1/dw/scale"
  type: "Scale"
  bottom: "conv4_1/dw"
  top: "conv4_1/dw"
  scale_param {
    filler {
      value: 1
    }
    bias_term: true
    bias_filler {
      value: 0
    }
  }
}
layer {
  name: "relu4_1/dw"
  type: "ReLU"
  bottom: "conv4_1/dw"
  top: "conv4_1/dw"
}
layer {
  name: "conv4_1/sep"
  type: "Convolution"
  bottom: "conv4_1/dw"
  top: "conv4_1/sep"
  param {
    lr_mult: 1
    decay_mult: 1
  }
  convolution_param {
    num_output: 256
    bias_term: false
    pad: 0
    kernel_size: 1
    stride: 1
    weight_filler {
      type: "msra"
    }
  }
}
layer {
  name: "conv4_1/sep/bn"
  type: "BatchNorm"
  bottom: "conv4_1/sep"
  top: "conv4_1/sep"
  param {
    lr_mult: 0
    decay_mult: 0
  }
  param {
    lr_mult: 0
    decay_mult: 0
  }
  param {
    lr_mult: 0
    decay_mult: 0
  }
}
layer {
  name: "conv4_1/sep/scale"
  type: "Scale"
  bottom: "conv4_1/sep"
  top: "conv4_1/sep"
  scale_param {
    filler {
      value: 1
    }
    bias_term: true
    bias_filler {
      value: 0
    }
  }
}
layer {
  name: "relu4_1/sep"
  type: "ReLU"
  bottom: "conv4_1/sep"
  top: "conv4_1/sep"
}
layer {
  name: "conv4_2/dw"
  type: "ConvolutionDepthwise"
  bottom: "conv4_1/sep"
  top: "conv4_2/dw"
  param {
    lr_mult: 1
    decay_mult: 1
  }
  convolution_param {
    num_output: 256
    bias_term: false
    pad: 1
    kernel_size: 3
    group: 256
    stride: 2
    weight_filler {
      type: "msra"
    }
  }
}
layer {
  name: "conv4_2/dw/bn"
  type: "BatchNorm"
  bottom: "conv4_2/dw"
  top: "conv4_2/dw"
  param {
    lr_mult: 0
    decay_mult: 0
  }
  param {
    lr_mult: 0
    decay_mult: 0
  }
  param {
    lr_mult: 0
    decay_mult: 0
  }
}
layer {
  name: "conv4_2/dw/scale"
  type: "Scale"
  bottom: "conv4_2/dw"
  top: "conv4_2/dw"
  scale_param {
    filler {
      value: 1
    }
    bias_term: true
    bias_filler {
      value: 0
    }
  }
}
layer {
  name: "relu4_2/dw"
  type: "ReLU"
  bottom: "conv4_2/dw"
  top: "conv4_2/dw"
}
layer {
  name: "conv4_2/sep"
  type: "Convolution"
  bottom: "conv4_2/dw"
  top: "conv4_2/sep"
  param {
    lr_mult: 1
    decay_mult: 1
  }
  convolution_param {
    num_output: 512
    bias_term: false
    pad: 0
    kernel_size: 1
    stride: 1
    weight_filler {
      type: "msra"
    }
  }
}
layer {
  name: "conv4_2/sep/bn"
  type: "BatchNorm"
  bottom: "conv4_2/sep"
  top: "conv4_2/sep"
  param {
    lr_mult: 0
    decay_mult: 0
  }
  param {
    lr_mult: 0
    decay_mult: 0
  }
  param {
    lr_mult: 0
    decay_mult: 0
  }
}
layer {
  name: "conv4_2/sep/scale"
  type: "Scale"
  bottom: "conv4_2/sep"
  top: "conv4_2/sep"
  scale_param {
    filler {
      value: 1
    }
    bias_term: true
    bias_filler {
      value: 0
    }
  }
}
layer {
  name: "relu4_2/sep"
  type: "ReLU"
  bottom: "conv4_2/sep"
  top: "conv4_2/sep"
}
layer {
  name: "conv5_1/dw"
  type: "ConvolutionDepthwise"
  bottom: "conv4_2/sep"
  top: "conv5_1/dw"
  param {
    lr_mult: 1
    decay_mult: 1
  }
  convolution_param {
    num_output: 512
    bias_term: false
    pad: 1
    kernel_size: 3
    group: 512
    stride: 1
    weight_filler {
      type: "msra"
    }
  }
}
layer {
  name: "conv5_1/dw/bn"
  type: "BatchNorm"
  bottom: "conv5_1/dw"
  top: "conv5_1/dw"
  param {
    lr_mult: 0
    decay_mult: 0
  }
  param {
    lr_mult: 0
    decay_mult: 0
  }
  param {
    lr_mult: 0
    decay_mult: 0
  }
}
layer {
  name: "conv5_1/dw/scale"
  type: "Scale"
  bottom: "conv5_1/dw"
  top: "conv5_1/dw"
  scale_param {
    filler {
      value: 1
    }
    bias_term: true
    bias_filler {
      value: 0
    }
  }
}
layer {
  name: "relu5_1/dw"
  type: "ReLU"
  bottom: "conv5_1/dw"
  top: "conv5_1/dw"
}
layer {
  name: "conv5_1/sep"
  type: "Convolution"
  bottom: "conv5_1/dw"
  top: "conv5_1/sep"
  param {
    lr_mult: 1
    decay_mult: 1
  }
  convolution_param {
    num_output: 512
    bias_term: false
    pad: 0
    kernel_size: 1
    stride: 1
    weight_filler {
      type: "msra"
    }
  }
}
layer {
  name: "conv5_1/sep/bn"
  type: "BatchNorm"
  bottom: "conv5_1/sep"
  top: "conv5_1/sep"
  param {
    lr_mult: 0
    decay_mult: 0
  }
  param {
    lr_mult: 0
    decay_mult: 0
  }
  param {
    lr_mult: 0
    decay_mult: 0
  }
}
layer {
  name: "conv5_1/sep/scale"
  type: "Scale"
  bottom: "conv5_1/sep"
  top: "conv5_1/sep"
  scale_param {
    filler {
      value: 1
    }
    bias_term: true
    bias_filler {
      value: 0
    }
  }
}
layer {
  name: "relu5_1/sep"
  type: "ReLU"
  bottom: "conv5_1/sep"
  top: "conv5_1/sep"
}
layer {
  name: "conv5_2/dw"
  type: "ConvolutionDepthwise"
  bottom: "conv5_1/sep"
  top: "conv5_2/dw"
  param {
    lr_mult: 1
    decay_mult: 1
  }
  convolution_param {
    num_output: 512
    bias_term: false
    pad: 1
    kernel_size: 3
    group: 512
    stride: 1
    weight_filler {
      type: "msra"
    }
  }
}
layer {
  name: "conv5_2/dw/bn"
  type: "BatchNorm"
  bottom: "conv5_2/dw"
  top: "conv5_2/dw"
  param {
    lr_mult: 0
    decay_mult: 0
  }
  param {
    lr_mult: 0
    decay_mult: 0
  }
  param {
    lr_mult: 0
    decay_mult: 0
  }
}
layer {
  name: "conv5_2/dw/scale"
  type: "Scale"
  bottom: "conv5_2/dw"
  top: "conv5_2/dw"
  scale_param {
    filler {
      value: 1
    }
    bias_term: true
    bias_filler {
      value: 0
    }
  }
}
layer {
  name: "relu5_2/dw"
  type: "ReLU"
  bottom: "conv5_2/dw"
  top: "conv5_2/dw"
}
layer {
  name: "conv5_2/sep"
  type: "Convolution"
  bottom: "conv5_2/dw"
  top: "conv5_2/sep"
  param {
    lr_mult: 1
    decay_mult: 1
  }
  convolution_param {
    num_output: 512
    bias_term: false
    pad: 0
    kernel_size: 1
    stride: 1
    weight_filler {
      type: "msra"
    }
  }
}
layer {
  name: "conv5_2/sep/bn"
  type: "BatchNorm"
  bottom: "conv5_2/sep"
  top: "conv5_2/sep"
  param {
    lr_mult: 0
    decay_mult: 0
  }
  param {
    lr_mult: 0
    decay_mult: 0
  }
  param {
    lr_mult: 0
    decay_mult: 0
  }
}
layer {
  name: "conv5_2/sep/scale"
  type: "Scale"
  bottom: "conv5_2/sep"
  top: "conv5_2/sep"
  scale_param {
    filler {
      value: 1
    }
    bias_term: true
    bias_filler {
      value: 0
    }
  }
}
layer {
  name: "relu5_2/sep"
  type: "ReLU"
  bottom: "conv5_2/sep"
  top: "conv5_2/sep"
}
layer {
  name: "conv5_3/dw"
  type: "ConvolutionDepthwise"
  bottom: "conv5_2/sep"
  top: "conv5_3/dw"
  param {
    lr_mult: 1
    decay_mult: 1
  }
  convolution_param {
    num_output: 512
    bias_term: false
    pad: 1
    kernel_size: 3
    group: 512
    stride: 1
    weight_filler {
      type: "msra"
    }
  }
}
layer {
  name: "conv5_3/dw/bn"
  type: "BatchNorm"
  bottom: "conv5_3/dw"
  top: "conv5_3/dw"
  param {
    lr_mult: 0
    decay_mult: 0
  }
  param {
    lr_mult: 0
    decay_mult: 0
  }
  param {
    lr_mult: 0
    decay_mult: 0
  }
}
layer {
  name: "conv5_3/dw/scale"
  type: "Scale"
  bottom: "conv5_3/dw"
  top: "conv5_3/dw"
  scale_param {
    filler {
      value: 1
    }
    bias_term: true
    bias_filler {
      value: 0
    }
  }
}
layer {
  name: "relu5_3/dw"
  type: "ReLU"
  bottom: "conv5_3/dw"
  top: "conv5_3/dw"
}
layer {
  name: "conv5_3/sep"
  type: "Convolution"
  bottom: "conv5_3/dw"
  top: "conv5_3/sep"
  param {
    lr_mult: 1
    decay_mult: 1
  }
  convolution_param {
    num_output: 512
    bias_term: false
    pad: 0
    kernel_size: 1
    stride: 1
    weight_filler {
      type: "msra"
    }
  }
}
layer {
  name: "conv5_3/sep/bn"
  type: "BatchNorm"
  bottom: "conv5_3/sep"
  top: "conv5_3/sep"
  param {
    lr_mult: 0
    decay_mult: 0
  }
  param {
    lr_mult: 0
    decay_mult: 0
  }
  param {
    lr_mult: 0
    decay_mult: 0
  }
}
layer {
  name: "conv5_3/sep/scale"
  type: "Scale"
  bottom: "conv5_3/sep"
  top: "conv5_3/sep"
  scale_param {
    filler {
      value: 1
    }
    bias_term: true
    bias_filler {
      value: 0
    }
  }
}
layer {
  name: "relu5_3/sep"
  type: "ReLU"
  bottom: "conv5_3/sep"
  top: "conv5_3/sep"
}
layer {
  name: "conv5_4/dw"
  type: "ConvolutionDepthwise"
  bottom: "conv5_3/sep"
  top: "conv5_4/dw"
  param {
    lr_mult: 1
    decay_mult: 1
  }
  convolution_param {
    num_output: 512
    bias_term: false
    pad: 1
    kernel_size: 3
    group: 512
    stride: 1
    weight_filler {
      type: "msra"
    }
  }
}
layer {
  name: "conv5_4/dw/bn"
  type: "BatchNorm"
  bottom: "conv5_4/dw"
  top: "conv5_4/dw"
  param {
    lr_mult: 0
    decay_mult: 0
  }
  param {
    lr_mult: 0
    decay_mult: 0
  }
  param {
    lr_mult: 0
    decay_mult: 0
  }
}
layer {
  name: "conv5_4/dw/scale"
  type: "Scale"
  bottom: "conv5_4/dw"
  top: "conv5_4/dw"
  scale_param {
    filler {
      value: 1
    }
    bias_term: true
    bias_filler {
      value: 0
    }
  }
}
layer {
  name: "relu5_4/dw"
  type: "ReLU"
  bottom: "conv5_4/dw"
  top: "conv5_4/dw"
}
layer {
  name: "conv5_4/sep"
  type: "Convolution"
  bottom: "conv5_4/dw"
  top: "conv5_4/sep"
  param {
    lr_mult: 1
    decay_mult: 1
  }
  convolution_param {
    num_output: 512
    bias_term: false
    pad: 0
    kernel_size: 1
    stride: 1
    weight_filler {
      type: "msra"
    }
  }
}
layer {
  name: "conv5_4/sep/bn"
  type: "BatchNorm"
  bottom: "conv5_4/sep"
  top: "conv5_4/sep"
  param {
    lr_mult: 0
    decay_mult: 0
  }
  param {
    lr_mult: 0
    decay_mult: 0
  }
  param {
    lr_mult: 0
    decay_mult: 0
  }
}
layer {
  name: "conv5_4/sep/scale"
  type: "Scale"
  bottom: "conv5_4/sep"
  top: "conv5_4/sep"
  scale_param {
    filler {
      value: 1
    }
    bias_term: true
    bias_filler {
      value: 0
    }
  }
}
layer {
  name: "relu5_4/sep"
  type: "ReLU"
  bottom: "conv5_4/sep"
  top: "conv5_4/sep"
}
layer {
  name: "conv5_5/dw"
  type: "ConvolutionDepthwise"
  bottom: "conv5_4/sep"
  top: "conv5_5/dw"
  param {
    lr_mult: 1
    decay_mult: 1
  }
  convolution_param {
    num_output: 512
    bias_term: false
    pad: 1
    kernel_size: 3
    group: 512
    stride: 1
    weight_filler {
      type: "msra"
    }
  }
}
layer {
  name: "conv5_5/dw/bn"
  type: "BatchNorm"
  bottom: "conv5_5/dw"
  top: "conv5_5/dw"
  param {
    lr_mult: 0
    decay_mult: 0
  }
  param {
    lr_mult: 0
    decay_mult: 0
  }
  param {
    lr_mult: 0
    decay_mult: 0
  }
}
layer {
  name: "conv5_5/dw/scale"
  type: "Scale"
  bottom: "conv5_5/dw"
  top: "conv5_5/dw"
  scale_param {
    filler {
      value: 1
    }
    bias_term: true
    bias_filler {
      value: 0
    }
  }
}
layer {
  name: "relu5_5/dw"
  type: "ReLU"
  bottom: "conv5_5/dw"
  top: "conv5_5/dw"
}
layer {
  name: "conv5_5/sep"
  type: "Convolution"
  bottom: "conv5_5/dw"
  top: "conv5_5/sep"
  param {
    lr_mult: 1
    decay_mult: 1
  }
  convolution_param {
    num_output: 512
    bias_term: false
    pad: 0
    kernel_size: 1
    stride: 1
    weight_filler {
      type: "msra"
    }
  }
}
layer {
  name: "conv5_5/sep/bn"
  type: "BatchNorm"
  bottom: "conv5_5/sep"
  top: "conv5_5/sep"
  param {
    lr_mult: 0
    decay_mult: 0
  }
  param {
    lr_mult: 0
    decay_mult: 0
  }
  param {
    lr_mult: 0
    decay_mult: 0
  }
}
layer {
  name: "conv5_5/sep/scale"
  type: "Scale"
  bottom: "conv5_5/sep"
  top: "conv5_5/sep"
  scale_param {
    filler {
      value: 1
    }
    bias_term: true
    bias_filler {
      value: 0
    }
  }
}
layer {
  name: "relu5_5/sep"
  type: "ReLU"
  bottom: "conv5_5/sep"
  top: "conv5_5/sep"
}
layer {
  name: "conv5_6/dw"
  type: "ConvolutionDepthwise"
  bottom: "conv5_5/sep"
  top: "conv5_6/dw"
  param {
    lr_mult: 1
    decay_mult: 1
  }
  convolution_param {
    num_output: 512
    bias_term: false
    pad: 1
    kernel_size: 3
    group: 512
    stride: 2
    weight_filler {
      type: "msra"
    }
  }
}
layer {
  name: "conv5_6/dw/bn"
  type: "BatchNorm"
  bottom: "conv5_6/dw"
  top: "conv5_6/dw"
  param {
    lr_mult: 0
    decay_mult: 0
  }
  param {
    lr_mult: 0
    decay_mult: 0
  }
  param {
    lr_mult: 0
    decay_mult: 0
  }
}
layer {
  name: "conv5_6/dw/scale"
  type: "Scale"
  bottom: "conv5_6/dw"
  top: "conv5_6/dw"
  scale_param {
    filler {
      value: 1
    }
    bias_term: true
    bias_filler {
      value: 0
    }
  }
}
layer {
  name: "relu5_6/dw"
  type: "ReLU"
  bottom: "conv5_6/dw"
  top: "conv5_6/dw"
}
layer {
  name: "conv5_6/sep"
  type: "Convolution"
  bottom: "conv5_6/dw"
  top: "conv5_6/sep"
  param {
    lr_mult: 1
    decay_mult: 1
  }
  convolution_param {
    num_output: 1024
    bias_term: false
    pad: 0
    kernel_size: 1
    stride: 1
    weight_filler {
      type: "msra"
    }
  }
}
layer {
  name: "conv5_6/sep/bn"
  type: "BatchNorm"
  bottom: "conv5_6/sep"
  top: "conv5_6/sep"
  param {
    lr_mult: 0
    decay_mult: 0
  }
  param {
    lr_mult: 0
    decay_mult: 0
  }
  param {
    lr_mult: 0
    decay_mult: 0
  }
}
layer {
  name: "conv5_6/sep/scale"
  type: "Scale"
  bottom: "conv5_6/sep"
  top: "conv5_6/sep"
  scale_param {
    filler {
      value: 1
    }
    bias_term: true
    bias_filler {
      value: 0
    }
  }
}
layer {
  name: "relu5_6/sep"
  type: "ReLU"
  bottom: "conv5_6/sep"
  top: "conv5_6/sep"
}
layer {
  name: "conv6/dw"
  type: "ConvolutionDepthwise"
  bottom: "conv5_6/sep"
  top: "conv6/dw"
  param {
    lr_mult: 1
    decay_mult: 1
  }
  convolution_param {
    num_output: 1024
    bias_term: false
    pad: 1
    kernel_size: 3
    group: 1024
    stride: 1
    weight_filler {
      type: "msra"
    }
  }
}
layer {
  name: "conv6/dw/bn"
  type: "BatchNorm"
  bottom: "conv6/dw"
  top: "conv6/dw"
  param {
    lr_mult: 0
    decay_mult: 0
  }
  param {
    lr_mult: 0
    decay_mult: 0
  }
  param {
    lr_mult: 0
    decay_mult: 0
  }
}
layer {
  name: "conv6/dw/scale"
  type: "Scale"
  bottom: "conv6/dw"
  top: "conv6/dw"
  scale_param {
    filler {
      value: 1
    }
    bias_term: true
    bias_filler {
      value: 0
    }
  }
}
layer {
  name: "relu6/dw"
  type: "ReLU"
  bottom: "conv6/dw"
  top: "conv6/dw"
}
layer {
  name: "conv6/sep"
  type: "Convolution"
  bottom: "conv6/dw"
  top: "conv6/sep"
  param {
    lr_mult: 1
    decay_mult: 1
  }
  convolution_param {
    num_output: 1024
    bias_term: false
    pad: 0
    kernel_size: 1
    stride: 1
    weight_filler {
      type: "msra"
    }
  }
}
layer {
  name: "conv6/sep/bn"
  type: "BatchNorm"
  bottom: "conv6/sep"
  top: "conv6/sep"
  param {
    lr_mult: 0
    decay_mult: 0
  }
  param {
    lr_mult: 0
    decay_mult: 0
  }
  param {
    lr_mult: 0
    decay_mult: 0
  }
}
layer {
  name: "conv6/sep/scale"
  type: "Scale"
  bottom: "conv6/sep"
  top: "conv6/sep"
  scale_param {
    filler {
      value: 1
    }
    bias_term: true
    bias_filler {
      value: 0
    }
  }
}
layer {
  name: "relu6/sep"
  type: "ReLU"
  bottom: "conv6/sep"
  top: "conv6/sep"
}
layer {
  name: "pool6"
  type: "Pooling"
  bottom: "conv6/sep"
  top: "pool6"
  pooling_param {
    pool: AVE
    global_pooling: true
  }
}
layer {
  name: "fc7"
  type: "Convolution"
  bottom: "pool6"
  top: "fc7"
  param {
    lr_mult: 1
    decay_mult: 1
  }
  param {
    lr_mult: 2
    decay_mult: 0
  }
  convolution_param {
    num_output: 102
    kernel_size: 1
    weight_filler {
      type: "msra"
    }
    bias_filler {
      type: "constant"
      value: 0
    }
  }
}
layer {
  name: "loss"
  type: "SoftmaxWithLoss"
  bottom: "fc7"
  bottom: "label"
  top: "loss"
}
I0615 14:05:57.032390 29366 layer_factory.hpp:77] Creating layer data
I0615 14:05:57.032488 29366 net.cpp:84] Creating Layer data
I0615 14:05:57.032521 29366 net.cpp:380] data -> data
I0615 14:05:57.032575 29366 net.cpp:380] data -> label
I0615 14:05:57.032613 29366 data_transformer.cpp:25] Loading mean file from: /home/xingzhaolong/caffe_project/caffe/models/caffe-oxford102/imagenet_mean.binaryproto
I0615 14:05:57.037662 29366 image_data_layer.cpp:38] Opening file /home/xingzhaolong/caffe_project/caffe/models/caffe-oxford102/test.txt
I0615 14:05:57.039911 29366 image_data_layer.cpp:63] A total of 6149 images.
I0615 14:05:57.048498 29366 image_data_layer.cpp:90] output data size: 50,3,224,224
I0615 14:05:57.151716 29366 net.cpp:122] Setting up data
I0615 14:05:57.151796 29366 net.cpp:129] Top shape: 50 3 224 224 (7526400)
I0615 14:05:57.151810 29366 net.cpp:129] Top shape: 50 (50)
I0615 14:05:57.151819 29366 net.cpp:137] Memory required for data: 30105800
I0615 14:05:57.151834 29366 layer_factory.hpp:77] Creating layer conv1
I0615 14:05:57.151883 29366 net.cpp:84] Creating Layer conv1
I0615 14:05:57.151899 29366 net.cpp:406] conv1 <- data
I0615 14:05:57.151938 29366 net.cpp:380] conv1 -> conv1
I0615 14:05:57.373487 29366 net.cpp:122] Setting up conv1
I0615 14:05:57.373555 29366 net.cpp:129] Top shape: 50 32 112 112 (20070400)
I0615 14:05:57.373567 29366 net.cpp:137] Memory required for data: 110387400
I0615 14:05:57.373608 29366 layer_factory.hpp:77] Creating layer conv1/bn
I0615 14:05:57.373639 29366 net.cpp:84] Creating Layer conv1/bn
I0615 14:05:57.373651 29366 net.cpp:406] conv1/bn <- conv1
I0615 14:05:57.373667 29366 net.cpp:367] conv1/bn -> conv1 (in-place)
I0615 14:05:57.374718 29366 net.cpp:122] Setting up conv1/bn
I0615 14:05:57.374742 29366 net.cpp:129] Top shape: 50 32 112 112 (20070400)
I0615 14:05:57.374750 29366 net.cpp:137] Memory required for data: 190669000
I0615 14:05:57.374773 29366 layer_factory.hpp:77] Creating layer conv1/scale
I0615 14:05:57.374795 29366 net.cpp:84] Creating Layer conv1/scale
I0615 14:05:57.374805 29366 net.cpp:406] conv1/scale <- conv1
I0615 14:05:57.374817 29366 net.cpp:367] conv1/scale -> conv1 (in-place)
I0615 14:05:57.374886 29366 layer_factory.hpp:77] Creating layer conv1/scale
I0615 14:05:57.375046 29366 net.cpp:122] Setting up conv1/scale
I0615 14:05:57.375063 29366 net.cpp:129] Top shape: 50 32 112 112 (20070400)
I0615 14:05:57.375072 29366 net.cpp:137] Memory required for data: 270950600
I0615 14:05:57.375087 29366 layer_factory.hpp:77] Creating layer relu1
I0615 14:05:57.375105 29366 net.cpp:84] Creating Layer relu1
I0615 14:05:57.375115 29366 net.cpp:406] relu1 <- conv1
I0615 14:05:57.375126 29366 net.cpp:367] relu1 -> conv1 (in-place)
I0615 14:05:57.375545 29366 net.cpp:122] Setting up relu1
I0615 14:05:57.375567 29366 net.cpp:129] Top shape: 50 32 112 112 (20070400)
I0615 14:05:57.375576 29366 net.cpp:137] Memory required for data: 351232200
I0615 14:05:57.375586 29366 layer_factory.hpp:77] Creating layer conv2_1/dw
I0615 14:05:57.375607 29366 net.cpp:84] Creating Layer conv2_1/dw
I0615 14:05:57.375617 29366 net.cpp:406] conv2_1/dw <- conv1
I0615 14:05:57.375629 29366 net.cpp:380] conv2_1/dw -> conv2_1/dw
I0615 14:05:57.378078 29366 net.cpp:122] Setting up conv2_1/dw
I0615 14:05:57.378103 29366 net.cpp:129] Top shape: 50 32 112 112 (20070400)
I0615 14:05:57.378124 29366 net.cpp:137] Memory required for data: 431513800
I0615 14:05:57.378157 29366 layer_factory.hpp:77] Creating layer conv2_1/dw/bn
I0615 14:05:57.378171 29366 net.cpp:84] Creating Layer conv2_1/dw/bn
I0615 14:05:57.378180 29366 net.cpp:406] conv2_1/dw/bn <- conv2_1/dw
I0615 14:05:57.378192 29366 net.cpp:367] conv2_1/dw/bn -> conv2_1/dw (in-place)
I0615 14:05:57.378415 29366 net.cpp:122] Setting up conv2_1/dw/bn
I0615 14:05:57.378433 29366 net.cpp:129] Top shape: 50 32 112 112 (20070400)
I0615 14:05:57.378442 29366 net.cpp:137] Memory required for data: 511795400
I0615 14:05:57.378459 29366 layer_factory.hpp:77] Creating layer conv2_1/dw/scale
I0615 14:05:57.378473 29366 net.cpp:84] Creating Layer conv2_1/dw/scale
I0615 14:05:57.378482 29366 net.cpp:406] conv2_1/dw/scale <- conv2_1/dw
I0615 14:05:57.378494 29366 net.cpp:367] conv2_1/dw/scale -> conv2_1/dw (in-place)
I0615 14:05:57.378554 29366 layer_factory.hpp:77] Creating layer conv2_1/dw/scale
I0615 14:05:57.378715 29366 net.cpp:122] Setting up conv2_1/dw/scale
I0615 14:05:57.378732 29366 net.cpp:129] Top shape: 50 32 112 112 (20070400)
I0615 14:05:57.378741 29366 net.cpp:137] Memory required for data: 592077000
I0615 14:05:57.378753 29366 layer_factory.hpp:77] Creating layer relu2_1/dw
I0615 14:05:57.378767 29366 net.cpp:84] Creating Layer relu2_1/dw
I0615 14:05:57.378775 29366 net.cpp:406] relu2_1/dw <- conv2_1/dw
I0615 14:05:57.378787 29366 net.cpp:367] relu2_1/dw -> conv2_1/dw (in-place)
I0615 14:05:57.379050 29366 net.cpp:122] Setting up relu2_1/dw
I0615 14:05:57.379070 29366 net.cpp:129] Top shape: 50 32 112 112 (20070400)
I0615 14:05:57.379078 29366 net.cpp:137] Memory required for data: 672358600
I0615 14:05:57.379086 29366 layer_factory.hpp:77] Creating layer conv2_1/sep
I0615 14:05:57.379106 29366 net.cpp:84] Creating Layer conv2_1/sep
I0615 14:05:57.379117 29366 net.cpp:406] conv2_1/sep <- conv2_1/dw
I0615 14:05:57.379133 29366 net.cpp:380] conv2_1/sep -> conv2_1/sep
I0615 14:05:57.381278 29366 net.cpp:122] Setting up conv2_1/sep
I0615 14:05:57.381304 29366 net.cpp:129] Top shape: 50 64 112 112 (40140800)
I0615 14:05:57.381314 29366 net.cpp:137] Memory required for data: 832921800
I0615 14:05:57.381325 29366 layer_factory.hpp:77] Creating layer conv2_1/sep/bn
I0615 14:05:57.381341 29366 net.cpp:84] Creating Layer conv2_1/sep/bn
I0615 14:05:57.381351 29366 net.cpp:406] conv2_1/sep/bn <- conv2_1/sep
I0615 14:05:57.381363 29366 net.cpp:367] conv2_1/sep/bn -> conv2_1/sep (in-place)
I0615 14:05:57.381616 29366 net.cpp:122] Setting up conv2_1/sep/bn
I0615 14:05:57.381635 29366 net.cpp:129] Top shape: 50 64 112 112 (40140800)
I0615 14:05:57.381644 29366 net.cpp:137] Memory required for data: 993485000
I0615 14:05:57.381661 29366 layer_factory.hpp:77] Creating layer conv2_1/sep/scale
I0615 14:05:57.381675 29366 net.cpp:84] Creating Layer conv2_1/sep/scale
I0615 14:05:57.381685 29366 net.cpp:406] conv2_1/sep/scale <- conv2_1/sep
I0615 14:05:57.381696 29366 net.cpp:367] conv2_1/sep/scale -> conv2_1/sep (in-place)
I0615 14:05:57.381757 29366 layer_factory.hpp:77] Creating layer conv2_1/sep/scale
I0615 14:05:57.381913 29366 net.cpp:122] Setting up conv2_1/sep/scale
I0615 14:05:57.381932 29366 net.cpp:129] Top shape: 50 64 112 112 (40140800)
I0615 14:05:57.381939 29366 net.cpp:137] Memory required for data: 1154048200
I0615 14:05:57.381963 29366 layer_factory.hpp:77] Creating layer relu2_1/sep
I0615 14:05:57.381976 29366 net.cpp:84] Creating Layer relu2_1/sep
I0615 14:05:57.381985 29366 net.cpp:406] relu2_1/sep <- conv2_1/sep
I0615 14:05:57.381999 29366 net.cpp:367] relu2_1/sep -> conv2_1/sep (in-place)
I0615 14:05:57.382412 29366 net.cpp:122] Setting up relu2_1/sep
I0615 14:05:57.382433 29366 net.cpp:129] Top shape: 50 64 112 112 (40140800)
I0615 14:05:57.382443 29366 net.cpp:137] Memory required for data: 1314611400
I0615 14:05:57.382452 29366 layer_factory.hpp:77] Creating layer conv2_2/dw
I0615 14:05:57.382465 29366 net.cpp:84] Creating Layer conv2_2/dw
I0615 14:05:57.382475 29366 net.cpp:406] conv2_2/dw <- conv2_1/sep
I0615 14:05:57.382499 29366 net.cpp:380] conv2_2/dw -> conv2_2/dw
I0615 14:05:57.383556 29366 net.cpp:122] Setting up conv2_2/dw
I0615 14:05:57.383579 29366 net.cpp:129] Top shape: 50 64 56 56 (10035200)
I0615 14:05:57.383589 29366 net.cpp:137] Memory required for data: 1354752200
I0615 14:05:57.383599 29366 layer_factory.hpp:77] Creating layer conv2_2/dw/bn
I0615 14:05:57.383615 29366 net.cpp:84] Creating Layer conv2_2/dw/bn
I0615 14:05:57.383625 29366 net.cpp:406] conv2_2/dw/bn <- conv2_2/dw
I0615 14:05:57.383637 29366 net.cpp:367] conv2_2/dw/bn -> conv2_2/dw (in-place)
I0615 14:05:57.383867 29366 net.cpp:122] Setting up conv2_2/dw/bn
I0615 14:05:57.383883 29366 net.cpp:129] Top shape: 50 64 56 56 (10035200)
I0615 14:05:57.383891 29366 net.cpp:137] Memory required for data: 1394893000
I0615 14:05:57.383905 29366 layer_factory.hpp:77] Creating layer conv2_2/dw/scale
I0615 14:05:57.383922 29366 net.cpp:84] Creating Layer conv2_2/dw/scale
I0615 14:05:57.383932 29366 net.cpp:406] conv2_2/dw/scale <- conv2_2/dw
I0615 14:05:57.383944 29366 net.cpp:367] conv2_2/dw/scale -> conv2_2/dw (in-place)
I0615 14:05:57.384002 29366 layer_factory.hpp:77] Creating layer conv2_2/dw/scale
I0615 14:05:57.384162 29366 net.cpp:122] Setting up conv2_2/dw/scale
I0615 14:05:57.384179 29366 net.cpp:129] Top shape: 50 64 56 56 (10035200)
I0615 14:05:57.384188 29366 net.cpp:137] Memory required for data: 1435033800
I0615 14:05:57.384201 29366 layer_factory.hpp:77] Creating layer relu2_2/dw
I0615 14:05:57.384217 29366 net.cpp:84] Creating Layer relu2_2/dw
I0615 14:05:57.384227 29366 net.cpp:406] relu2_2/dw <- conv2_2/dw
I0615 14:05:57.384238 29366 net.cpp:367] relu2_2/dw -> conv2_2/dw (in-place)
I0615 14:05:57.384457 29366 net.cpp:122] Setting up relu2_2/dw
I0615 14:05:57.384476 29366 net.cpp:129] Top shape: 50 64 56 56 (10035200)
I0615 14:05:57.384485 29366 net.cpp:137] Memory required for data: 1475174600
I0615 14:05:57.384493 29366 layer_factory.hpp:77] Creating layer conv2_2/sep
I0615 14:05:57.384512 29366 net.cpp:84] Creating Layer conv2_2/sep
I0615 14:05:57.384531 29366 net.cpp:406] conv2_2/sep <- conv2_2/dw
I0615 14:05:57.384548 29366 net.cpp:380] conv2_2/sep -> conv2_2/sep
I0615 14:05:57.386008 29366 net.cpp:122] Setting up conv2_2/sep
I0615 14:05:57.386034 29366 net.cpp:129] Top shape: 50 128 56 56 (20070400)
I0615 14:05:57.386042 29366 net.cpp:137] Memory required for data: 1555456200
I0615 14:05:57.386054 29366 layer_factory.hpp:77] Creating layer conv2_2/sep/bn
I0615 14:05:57.386070 29366 net.cpp:84] Creating Layer conv2_2/sep/bn
I0615 14:05:57.386080 29366 net.cpp:406] conv2_2/sep/bn <- conv2_2/sep
I0615 14:05:57.386095 29366 net.cpp:367] conv2_2/sep/bn -> conv2_2/sep (in-place)
I0615 14:05:57.386327 29366 net.cpp:122] Setting up conv2_2/sep/bn
I0615 14:05:57.386343 29366 net.cpp:129] Top shape: 50 128 56 56 (20070400)
I0615 14:05:57.386353 29366 net.cpp:137] Memory required for data: 1635737800
I0615 14:05:57.386366 29366 layer_factory.hpp:77] Creating layer conv2_2/sep/scale
I0615 14:05:57.386382 29366 net.cpp:84] Creating Layer conv2_2/sep/scale
I0615 14:05:57.386392 29366 net.cpp:406] conv2_2/sep/scale <- conv2_2/sep
I0615 14:05:57.386404 29366 net.cpp:367] conv2_2/sep/scale -> conv2_2/sep (in-place)
I0615 14:05:57.386461 29366 layer_factory.hpp:77] Creating layer conv2_2/sep/scale
I0615 14:05:57.386620 29366 net.cpp:122] Setting up conv2_2/sep/scale
I0615 14:05:57.386639 29366 net.cpp:129] Top shape: 50 128 56 56 (20070400)
I0615 14:05:57.386648 29366 net.cpp:137] Memory required for data: 1716019400
I0615 14:05:57.386659 29366 layer_factory.hpp:77] Creating layer relu2_2/sep
I0615 14:05:57.386672 29366 net.cpp:84] Creating Layer relu2_2/sep
I0615 14:05:57.386680 29366 net.cpp:406] relu2_2/sep <- conv2_2/sep
I0615 14:05:57.386690 29366 net.cpp:367] relu2_2/sep -> conv2_2/sep (in-place)
I0615 14:05:57.386921 29366 net.cpp:122] Setting up relu2_2/sep
I0615 14:05:57.386940 29366 net.cpp:129] Top shape: 50 128 56 56 (20070400)
I0615 14:05:57.386948 29366 net.cpp:137] Memory required for data: 1796301000
I0615 14:05:57.386956 29366 layer_factory.hpp:77] Creating layer conv3_1/dw
I0615 14:05:57.386991 29366 net.cpp:84] Creating Layer conv3_1/dw
I0615 14:05:57.387001 29366 net.cpp:406] conv3_1/dw <- conv2_2/sep
I0615 14:05:57.387019 29366 net.cpp:380] conv3_1/dw -> conv3_1/dw
I0615 14:05:57.388062 29366 net.cpp:122] Setting up conv3_1/dw
I0615 14:05:57.388085 29366 net.cpp:129] Top shape: 50 128 56 56 (20070400)
I0615 14:05:57.388093 29366 net.cpp:137] Memory required for data: 1876582600
I0615 14:05:57.388104 29366 layer_factory.hpp:77] Creating layer conv3_1/dw/bn
I0615 14:05:57.388121 29366 net.cpp:84] Creating Layer conv3_1/dw/bn
I0615 14:05:57.388131 29366 net.cpp:406] conv3_1/dw/bn <- conv3_1/dw
I0615 14:05:57.388142 29366 net.cpp:367] conv3_1/dw/bn -> conv3_1/dw (in-place)
I0615 14:05:57.388370 29366 net.cpp:122] Setting up conv3_1/dw/bn
I0615 14:05:57.388386 29366 net.cpp:129] Top shape: 50 128 56 56 (20070400)
I0615 14:05:57.388394 29366 net.cpp:137] Memory required for data: 1956864200
I0615 14:05:57.388417 29366 layer_factory.hpp:77] Creating layer conv3_1/dw/scale
I0615 14:05:57.388432 29366 net.cpp:84] Creating Layer conv3_1/dw/scale
I0615 14:05:57.388442 29366 net.cpp:406] conv3_1/dw/scale <- conv3_1/dw
I0615 14:05:57.388453 29366 net.cpp:367] conv3_1/dw/scale -> conv3_1/dw (in-place)
I0615 14:05:57.388522 29366 layer_factory.hpp:77] Creating layer conv3_1/dw/scale
I0615 14:05:57.388684 29366 net.cpp:122] Setting up conv3_1/dw/scale
I0615 14:05:57.388701 29366 net.cpp:129] Top shape: 50 128 56 56 (20070400)
I0615 14:05:57.388710 29366 net.cpp:137] Memory required for data: 2037145800
I0615 14:05:57.388722 29366 layer_factory.hpp:77] Creating layer relu3_1/dw
I0615 14:05:57.388734 29366 net.cpp:84] Creating Layer relu3_1/dw
I0615 14:05:57.388747 29366 net.cpp:406] relu3_1/dw <- conv3_1/dw
I0615 14:05:57.388757 29366 net.cpp:367] relu3_1/dw -> conv3_1/dw (in-place)
I0615 14:05:57.389281 29366 net.cpp:122] Setting up relu3_1/dw
I0615 14:05:57.389302 29366 net.cpp:129] Top shape: 50 128 56 56 (20070400)
I0615 14:05:57.389312 29366 net.cpp:137] Memory required for data: 2117427400
I0615 14:05:57.389320 29366 layer_factory.hpp:77] Creating layer conv3_1/sep
I0615 14:05:57.389339 29366 net.cpp:84] Creating Layer conv3_1/sep
I0615 14:05:57.389350 29366 net.cpp:406] conv3_1/sep <- conv3_1/dw
I0615 14:05:57.389366 29366 net.cpp:380] conv3_1/sep -> conv3_1/sep
I0615 14:05:57.392143 29366 net.cpp:122] Setting up conv3_1/sep
I0615 14:05:57.392168 29366 net.cpp:129] Top shape: 50 128 56 56 (20070400)
I0615 14:05:57.392177 29366 net.cpp:137] Memory required for data: 2197709000
I0615 14:05:57.392189 29366 layer_factory.hpp:77] Creating layer conv3_1/sep/bn
I0615 14:05:57.392205 29366 net.cpp:84] Creating Layer conv3_1/sep/bn
I0615 14:05:57.392215 29366 net.cpp:406] conv3_1/sep/bn <- conv3_1/sep
I0615 14:05:57.392226 29366 net.cpp:367] conv3_1/sep/bn -> conv3_1/sep (in-place)
I0615 14:05:57.392464 29366 net.cpp:122] Setting up conv3_1/sep/bn
I0615 14:05:57.392482 29366 net.cpp:129] Top shape: 50 128 56 56 (20070400)
I0615 14:05:57.392489 29366 net.cpp:137] Memory required for data: 2277990600
I0615 14:05:57.392504 29366 layer_factory.hpp:77] Creating layer conv3_1/sep/scale
I0615 14:05:57.392524 29366 net.cpp:84] Creating Layer conv3_1/sep/scale
I0615 14:05:57.392535 29366 net.cpp:406] conv3_1/sep/scale <- conv3_1/sep
I0615 14:05:57.392550 29366 net.cpp:367] conv3_1/sep/scale -> conv3_1/sep (in-place)
I0615 14:05:57.392606 29366 layer_factory.hpp:77] Creating layer conv3_1/sep/scale
I0615 14:05:57.392755 29366 net.cpp:122] Setting up conv3_1/sep/scale
I0615 14:05:57.392776 29366 net.cpp:129] Top shape: 50 128 56 56 (20070400)
I0615 14:05:57.392784 29366 net.cpp:137] Memory required for data: 2358272200
I0615 14:05:57.392796 29366 layer_factory.hpp:77] Creating layer relu3_1/sep
I0615 14:05:57.392808 29366 net.cpp:84] Creating Layer relu3_1/sep
I0615 14:05:57.392817 29366 net.cpp:406] relu3_1/sep <- conv3_1/sep
I0615 14:05:57.392827 29366 net.cpp:367] relu3_1/sep -> conv3_1/sep (in-place)
I0615 14:05:57.393065 29366 net.cpp:122] Setting up relu3_1/sep
I0615 14:05:57.393097 29366 net.cpp:129] Top shape: 50 128 56 56 (20070400)
I0615 14:05:57.393115 29366 net.cpp:137] Memory required for data: 2438553800
I0615 14:05:57.393124 29366 layer_factory.hpp:77] Creating layer conv3_2/dw
I0615 14:05:57.393138 29366 net.cpp:84] Creating Layer conv3_2/dw
I0615 14:05:57.393148 29366 net.cpp:406] conv3_2/dw <- conv3_1/sep
I0615 14:05:57.393167 29366 net.cpp:380] conv3_2/dw -> conv3_2/dw
I0615 14:05:57.395952 29366 net.cpp:122] Setting up conv3_2/dw
I0615 14:05:57.395975 29366 net.cpp:129] Top shape: 50 128 28 28 (5017600)
I0615 14:05:57.395984 29366 net.cpp:137] Memory required for data: 2458624200
I0615 14:05:57.395995 29366 layer_factory.hpp:77] Creating layer conv3_2/dw/bn
I0615 14:05:57.396011 29366 net.cpp:84] Creating Layer conv3_2/dw/bn
I0615 14:05:57.396021 29366 net.cpp:406] conv3_2/dw/bn <- conv3_2/dw
I0615 14:05:57.396036 29366 net.cpp:367] conv3_2/dw/bn -> conv3_2/dw (in-place)
I0615 14:05:57.396268 29366 net.cpp:122] Setting up conv3_2/dw/bn
I0615 14:05:57.396286 29366 net.cpp:129] Top shape: 50 128 28 28 (5017600)
I0615 14:05:57.396294 29366 net.cpp:137] Memory required for data: 2478694600
I0615 14:05:57.396307 29366 layer_factory.hpp:77] Creating layer conv3_2/dw/scale
I0615 14:05:57.396324 29366 net.cpp:84] Creating Layer conv3_2/dw/scale
I0615 14:05:57.396333 29366 net.cpp:406] conv3_2/dw/scale <- conv3_2/dw
I0615 14:05:57.396344 29366 net.cpp:367] conv3_2/dw/scale -> conv3_2/dw (in-place)
I0615 14:05:57.396402 29366 layer_factory.hpp:77] Creating layer conv3_2/dw/scale
I0615 14:05:57.396564 29366 net.cpp:122] Setting up conv3_2/dw/scale
I0615 14:05:57.396582 29366 net.cpp:129] Top shape: 50 128 28 28 (5017600)
I0615 14:05:57.396591 29366 net.cpp:137] Memory required for data: 2498765000
I0615 14:05:57.396603 29366 layer_factory.hpp:77] Creating layer relu3_2/dw
I0615 14:05:57.396618 29366 net.cpp:84] Creating Layer relu3_2/dw
I0615 14:05:57.396627 29366 net.cpp:406] relu3_2/dw <- conv3_2/dw
I0615 14:05:57.396641 29366 net.cpp:367] relu3_2/dw -> conv3_2/dw (in-place)
I0615 14:05:57.397063 29366 net.cpp:122] Setting up relu3_2/dw
I0615 14:05:57.397084 29366 net.cpp:129] Top shape: 50 128 28 28 (5017600)
I0615 14:05:57.397094 29366 net.cpp:137] Memory required for data: 2518835400
I0615 14:05:57.397101 29366 layer_factory.hpp:77] Creating layer conv3_2/sep
I0615 14:05:57.397120 29366 net.cpp:84] Creating Layer conv3_2/sep
I0615 14:05:57.397130 29366 net.cpp:406] conv3_2/sep <- conv3_2/dw
I0615 14:05:57.397146 29366 net.cpp:380] conv3_2/sep -> conv3_2/sep
I0615 14:05:57.398907 29366 net.cpp:122] Setting up conv3_2/sep
I0615 14:05:57.398931 29366 net.cpp:129] Top shape: 50 256 28 28 (10035200)
I0615 14:05:57.398941 29366 net.cpp:137] Memory required for data: 2558976200
I0615 14:05:57.398952 29366 layer_factory.hpp:77] Creating layer conv3_2/sep/bn
I0615 14:05:57.398967 29366 net.cpp:84] Creating Layer conv3_2/sep/bn
I0615 14:05:57.398977 29366 net.cpp:406] conv3_2/sep/bn <- conv3_2/sep
I0615 14:05:57.398991 29366 net.cpp:367] conv3_2/sep/bn -> conv3_2/sep (in-place)
I0615 14:05:57.399226 29366 net.cpp:122] Setting up conv3_2/sep/bn
I0615 14:05:57.399245 29366 net.cpp:129] Top shape: 50 256 28 28 (10035200)
I0615 14:05:57.399252 29366 net.cpp:137] Memory required for data: 2599117000
I0615 14:05:57.399266 29366 layer_factory.hpp:77] Creating layer conv3_2/sep/scale
I0615 14:05:57.399281 29366 net.cpp:84] Creating Layer conv3_2/sep/scale
I0615 14:05:57.399289 29366 net.cpp:406] conv3_2/sep/scale <- conv3_2/sep
I0615 14:05:57.399303 29366 net.cpp:367] conv3_2/sep/scale -> conv3_2/sep (in-place)
I0615 14:05:57.399359 29366 layer_factory.hpp:77] Creating layer conv3_2/sep/scale
I0615 14:05:57.399507 29366 net.cpp:122] Setting up conv3_2/sep/scale
I0615 14:05:57.399534 29366 net.cpp:129] Top shape: 50 256 28 28 (10035200)
I0615 14:05:57.399544 29366 net.cpp:137] Memory required for data: 2639257800
I0615 14:05:57.399555 29366 layer_factory.hpp:77] Creating layer relu3_2/sep
I0615 14:05:57.399567 29366 net.cpp:84] Creating Layer relu3_2/sep
I0615 14:05:57.399576 29366 net.cpp:406] relu3_2/sep <- conv3_2/sep
I0615 14:05:57.399603 29366 net.cpp:367] relu3_2/sep -> conv3_2/sep (in-place)
I0615 14:05:57.399829 29366 net.cpp:122] Setting up relu3_2/sep
I0615 14:05:57.399852 29366 net.cpp:129] Top shape: 50 256 28 28 (10035200)
I0615 14:05:57.399860 29366 net.cpp:137] Memory required for data: 2679398600
I0615 14:05:57.399869 29366 layer_factory.hpp:77] Creating layer conv4_1/dw
I0615 14:05:57.399883 29366 net.cpp:84] Creating Layer conv4_1/dw
I0615 14:05:57.399893 29366 net.cpp:406] conv4_1/dw <- conv3_2/sep
I0615 14:05:57.399910 29366 net.cpp:380] conv4_1/dw -> conv4_1/dw
I0615 14:05:57.400096 29366 net.cpp:122] Setting up conv4_1/dw
I0615 14:05:57.400118 29366 net.cpp:129] Top shape: 50 256 28 28 (10035200)
I0615 14:05:57.400127 29366 net.cpp:137] Memory required for data: 2719539400
I0615 14:05:57.400137 29366 layer_factory.hpp:77] Creating layer conv4_1/dw/bn
I0615 14:05:57.400149 29366 net.cpp:84] Creating Layer conv4_1/dw/bn
I0615 14:05:57.400158 29366 net.cpp:406] conv4_1/dw/bn <- conv4_1/dw
I0615 14:05:57.400171 29366 net.cpp:367] conv4_1/dw/bn -> conv4_1/dw (in-place)
I0615 14:05:57.400400 29366 net.cpp:122] Setting up conv4_1/dw/bn
I0615 14:05:57.400418 29366 net.cpp:129] Top shape: 50 256 28 28 (10035200)
I0615 14:05:57.400426 29366 net.cpp:137] Memory required for data: 2759680200
I0615 14:05:57.400439 29366 layer_factory.hpp:77] Creating layer conv4_1/dw/scale
I0615 14:05:57.400452 29366 net.cpp:84] Creating Layer conv4_1/dw/scale
I0615 14:05:57.400461 29366 net.cpp:406] conv4_1/dw/scale <- conv4_1/dw
I0615 14:05:57.400472 29366 net.cpp:367] conv4_1/dw/scale -> conv4_1/dw (in-place)
I0615 14:05:57.400542 29366 layer_factory.hpp:77] Creating layer conv4_1/dw/scale
I0615 14:05:57.400697 29366 net.cpp:122] Setting up conv4_1/dw/scale
I0615 14:05:57.400714 29366 net.cpp:129] Top shape: 50 256 28 28 (10035200)
I0615 14:05:57.400722 29366 net.cpp:137] Memory required for data: 2799821000
I0615 14:05:57.400734 29366 layer_factory.hpp:77] Creating layer relu4_1/dw
I0615 14:05:57.400749 29366 net.cpp:84] Creating Layer relu4_1/dw
I0615 14:05:57.400759 29366 net.cpp:406] relu4_1/dw <- conv4_1/dw
I0615 14:05:57.400769 29366 net.cpp:367] relu4_1/dw -> conv4_1/dw (in-place)
I0615 14:05:57.401196 29366 net.cpp:122] Setting up relu4_1/dw
I0615 14:05:57.401221 29366 net.cpp:129] Top shape: 50 256 28 28 (10035200)
I0615 14:05:57.401231 29366 net.cpp:137] Memory required for data: 2839961800
I0615 14:05:57.401238 29366 layer_factory.hpp:77] Creating layer conv4_1/sep
I0615 14:05:57.401254 29366 net.cpp:84] Creating Layer conv4_1/sep
I0615 14:05:57.401264 29366 net.cpp:406] conv4_1/sep <- conv4_1/dw
I0615 14:05:57.401280 29366 net.cpp:380] conv4_1/sep -> conv4_1/sep
I0615 14:05:57.403347 29366 net.cpp:122] Setting up conv4_1/sep
I0615 14:05:57.403370 29366 net.cpp:129] Top shape: 50 256 28 28 (10035200)
I0615 14:05:57.403380 29366 net.cpp:137] Memory required for data: 2880102600
I0615 14:05:57.403391 29366 layer_factory.hpp:77] Creating layer conv4_1/sep/bn
I0615 14:05:57.403408 29366 net.cpp:84] Creating Layer conv4_1/sep/bn
I0615 14:05:57.403417 29366 net.cpp:406] conv4_1/sep/bn <- conv4_1/sep
I0615 14:05:57.403429 29366 net.cpp:367] conv4_1/sep/bn -> conv4_1/sep (in-place)
I0615 14:05:57.403708 29366 net.cpp:122] Setting up conv4_1/sep/bn
I0615 14:05:57.403728 29366 net.cpp:129] Top shape: 50 256 28 28 (10035200)
I0615 14:05:57.403738 29366 net.cpp:137] Memory required for data: 2920243400
I0615 14:05:57.403751 29366 layer_factory.hpp:77] Creating layer conv4_1/sep/scale
I0615 14:05:57.403765 29366 net.cpp:84] Creating Layer conv4_1/sep/scale
I0615 14:05:57.403774 29366 net.cpp:406] conv4_1/sep/scale <- conv4_1/sep
I0615 14:05:57.403785 29366 net.cpp:367] conv4_1/sep/scale -> conv4_1/sep (in-place)
I0615 14:05:57.403846 29366 layer_factory.hpp:77] Creating layer conv4_1/sep/scale
I0615 14:05:57.403997 29366 net.cpp:122] Setting up conv4_1/sep/scale
I0615 14:05:57.404014 29366 net.cpp:129] Top shape: 50 256 28 28 (10035200)
I0615 14:05:57.404023 29366 net.cpp:137] Memory required for data: 2960384200
I0615 14:05:57.404063 29366 layer_factory.hpp:77] Creating layer relu4_1/sep
I0615 14:05:57.404095 29366 net.cpp:84] Creating Layer relu4_1/sep
I0615 14:05:57.404105 29366 net.cpp:406] relu4_1/sep <- conv4_1/sep
I0615 14:05:57.404116 29366 net.cpp:367] relu4_1/sep -> conv4_1/sep (in-place)
I0615 14:05:57.404551 29366 net.cpp:122] Setting up relu4_1/sep
I0615 14:05:57.404574 29366 net.cpp:129] Top shape: 50 256 28 28 (10035200)
I0615 14:05:57.404583 29366 net.cpp:137] Memory required for data: 3000525000
I0615 14:05:57.404592 29366 layer_factory.hpp:77] Creating layer conv4_2/dw
I0615 14:05:57.404605 29366 net.cpp:84] Creating Layer conv4_2/dw
I0615 14:05:57.404614 29366 net.cpp:406] conv4_2/dw <- conv4_1/sep
I0615 14:05:57.404631 29366 net.cpp:380] conv4_2/dw -> conv4_2/dw
I0615 14:05:57.404808 29366 net.cpp:122] Setting up conv4_2/dw
I0615 14:05:57.404826 29366 net.cpp:129] Top shape: 50 256 14 14 (2508800)
I0615 14:05:57.404834 29366 net.cpp:137] Memory required for data: 3010560200
I0615 14:05:57.404845 29366 layer_factory.hpp:77] Creating layer conv4_2/dw/bn
I0615 14:05:57.404858 29366 net.cpp:84] Creating Layer conv4_2/dw/bn
I0615 14:05:57.404867 29366 net.cpp:406] conv4_2/dw/bn <- conv4_2/dw
I0615 14:05:57.404881 29366 net.cpp:367] conv4_2/dw/bn -> conv4_2/dw (in-place)
I0615 14:05:57.405122 29366 net.cpp:122] Setting up conv4_2/dw/bn
I0615 14:05:57.405138 29366 net.cpp:129] Top shape: 50 256 14 14 (2508800)
I0615 14:05:57.405148 29366 net.cpp:137] Memory required for data: 3020595400
I0615 14:05:57.405161 29366 layer_factory.hpp:77] Creating layer conv4_2/dw/scale
I0615 14:05:57.405174 29366 net.cpp:84] Creating Layer conv4_2/dw/scale
I0615 14:05:57.405184 29366 net.cpp:406] conv4_2/dw/scale <- conv4_2/dw
I0615 14:05:57.405194 29366 net.cpp:367] conv4_2/dw/scale -> conv4_2/dw (in-place)
I0615 14:05:57.405254 29366 layer_factory.hpp:77] Creating layer conv4_2/dw/scale
I0615 14:05:57.405406 29366 net.cpp:122] Setting up conv4_2/dw/scale
I0615 14:05:57.405423 29366 net.cpp:129] Top shape: 50 256 14 14 (2508800)
I0615 14:05:57.405431 29366 net.cpp:137] Memory required for data: 3030630600
I0615 14:05:57.405443 29366 layer_factory.hpp:77] Creating layer relu4_2/dw
I0615 14:05:57.405455 29366 net.cpp:84] Creating Layer relu4_2/dw
I0615 14:05:57.405464 29366 net.cpp:406] relu4_2/dw <- conv4_2/dw
I0615 14:05:57.405478 29366 net.cpp:367] relu4_2/dw -> conv4_2/dw (in-place)
I0615 14:05:57.405894 29366 net.cpp:122] Setting up relu4_2/dw
I0615 14:05:57.405920 29366 net.cpp:129] Top shape: 50 256 14 14 (2508800)
I0615 14:05:57.405928 29366 net.cpp:137] Memory required for data: 3040665800
I0615 14:05:57.405937 29366 layer_factory.hpp:77] Creating layer conv4_2/sep
I0615 14:05:57.405952 29366 net.cpp:84] Creating Layer conv4_2/sep
I0615 14:05:57.405962 29366 net.cpp:406] conv4_2/sep <- conv4_2/dw
I0615 14:05:57.405978 29366 net.cpp:380] conv4_2/sep -> conv4_2/sep
I0615 14:05:57.409965 29366 net.cpp:122] Setting up conv4_2/sep
I0615 14:05:57.409991 29366 net.cpp:129] Top shape: 50 512 14 14 (5017600)
I0615 14:05:57.410001 29366 net.cpp:137] Memory required for data: 3060736200
I0615 14:05:57.410012 29366 layer_factory.hpp:77] Creating layer conv4_2/sep/bn
I0615 14:05:57.410027 29366 net.cpp:84] Creating Layer conv4_2/sep/bn
I0615 14:05:57.410037 29366 net.cpp:406] conv4_2/sep/bn <- conv4_2/sep
I0615 14:05:57.410049 29366 net.cpp:367] conv4_2/sep/bn -> conv4_2/sep (in-place)
I0615 14:05:57.410300 29366 net.cpp:122] Setting up conv4_2/sep/bn
I0615 14:05:57.410316 29366 net.cpp:129] Top shape: 50 512 14 14 (5017600)
I0615 14:05:57.410325 29366 net.cpp:137] Memory required for data: 3080806600
I0615 14:05:57.410338 29366 layer_factory.hpp:77] Creating layer conv4_2/sep/scale
I0615 14:05:57.410351 29366 net.cpp:84] Creating Layer conv4_2/sep/scale
I0615 14:05:57.410360 29366 net.cpp:406] conv4_2/sep/scale <- conv4_2/sep
I0615 14:05:57.410375 29366 net.cpp:367] conv4_2/sep/scale -> conv4_2/sep (in-place)
I0615 14:05:57.410429 29366 layer_factory.hpp:77] Creating layer conv4_2/sep/scale
I0615 14:05:57.410593 29366 net.cpp:122] Setting up conv4_2/sep/scale
I0615 14:05:57.410619 29366 net.cpp:129] Top shape: 50 512 14 14 (5017600)
I0615 14:05:57.410640 29366 net.cpp:137] Memory required for data: 3100877000
I0615 14:05:57.410653 29366 layer_factory.hpp:77] Creating layer relu4_2/sep
I0615 14:05:57.410665 29366 net.cpp:84] Creating Layer relu4_2/sep
I0615 14:05:57.410675 29366 net.cpp:406] relu4_2/sep <- conv4_2/sep
I0615 14:05:57.410684 29366 net.cpp:367] relu4_2/sep -> conv4_2/sep (in-place)
I0615 14:05:57.411108 29366 net.cpp:122] Setting up relu4_2/sep
I0615 14:05:57.411128 29366 net.cpp:129] Top shape: 50 512 14 14 (5017600)
I0615 14:05:57.411137 29366 net.cpp:137] Memory required for data: 3120947400
I0615 14:05:57.411145 29366 layer_factory.hpp:77] Creating layer conv5_1/dw
I0615 14:05:57.411164 29366 net.cpp:84] Creating Layer conv5_1/dw
I0615 14:05:57.411173 29366 net.cpp:406] conv5_1/dw <- conv4_2/sep
I0615 14:05:57.411190 29366 net.cpp:380] conv5_1/dw -> conv5_1/dw
I0615 14:05:57.411403 29366 net.cpp:122] Setting up conv5_1/dw
I0615 14:05:57.411422 29366 net.cpp:129] Top shape: 50 512 14 14 (5017600)
I0615 14:05:57.411430 29366 net.cpp:137] Memory required for data: 3141017800
I0615 14:05:57.411440 29366 layer_factory.hpp:77] Creating layer conv5_1/dw/bn
I0615 14:05:57.411456 29366 net.cpp:84] Creating Layer conv5_1/dw/bn
I0615 14:05:57.411466 29366 net.cpp:406] conv5_1/dw/bn <- conv5_1/dw
I0615 14:05:57.411481 29366 net.cpp:367] conv5_1/dw/bn -> conv5_1/dw (in-place)
I0615 14:05:57.411723 29366 net.cpp:122] Setting up conv5_1/dw/bn
I0615 14:05:57.411743 29366 net.cpp:129] Top shape: 50 512 14 14 (5017600)
I0615 14:05:57.411751 29366 net.cpp:137] Memory required for data: 3161088200
I0615 14:05:57.411764 29366 layer_factory.hpp:77] Creating layer conv5_1/dw/scale
I0615 14:05:57.411777 29366 net.cpp:84] Creating Layer conv5_1/dw/scale
I0615 14:05:57.411787 29366 net.cpp:406] conv5_1/dw/scale <- conv5_1/dw
I0615 14:05:57.411801 29366 net.cpp:367] conv5_1/dw/scale -> conv5_1/dw (in-place)
I0615 14:05:57.411855 29366 layer_factory.hpp:77] Creating layer conv5_1/dw/scale
I0615 14:05:57.412012 29366 net.cpp:122] Setting up conv5_1/dw/scale
I0615 14:05:57.412029 29366 net.cpp:129] Top shape: 50 512 14 14 (5017600)
I0615 14:05:57.412039 29366 net.cpp:137] Memory required for data: 3181158600
I0615 14:05:57.412050 29366 layer_factory.hpp:77] Creating layer relu5_1/dw
I0615 14:05:57.412061 29366 net.cpp:84] Creating Layer relu5_1/dw
I0615 14:05:57.412070 29366 net.cpp:406] relu5_1/dw <- conv5_1/dw
I0615 14:05:57.412081 29366 net.cpp:367] relu5_1/dw -> conv5_1/dw (in-place)
I0615 14:05:57.412312 29366 net.cpp:122] Setting up relu5_1/dw
I0615 14:05:57.412330 29366 net.cpp:129] Top shape: 50 512 14 14 (5017600)
I0615 14:05:57.412339 29366 net.cpp:137] Memory required for data: 3201229000
I0615 14:05:57.412348 29366 layer_factory.hpp:77] Creating layer conv5_1/sep
I0615 14:05:57.412366 29366 net.cpp:84] Creating Layer conv5_1/sep
I0615 14:05:57.412376 29366 net.cpp:406] conv5_1/sep <- conv5_1/dw
I0615 14:05:57.412389 29366 net.cpp:380] conv5_1/sep -> conv5_1/sep
I0615 14:05:57.418318 29366 net.cpp:122] Setting up conv5_1/sep
I0615 14:05:57.418344 29366 net.cpp:129] Top shape: 50 512 14 14 (5017600)
I0615 14:05:57.418354 29366 net.cpp:137] Memory required for data: 3221299400
I0615 14:05:57.418365 29366 layer_factory.hpp:77] Creating layer conv5_1/sep/bn
I0615 14:05:57.418381 29366 net.cpp:84] Creating Layer conv5_1/sep/bn
I0615 14:05:57.418391 29366 net.cpp:406] conv5_1/sep/bn <- conv5_1/sep
I0615 14:05:57.418403 29366 net.cpp:367] conv5_1/sep/bn -> conv5_1/sep (in-place)
I0615 14:05:57.418668 29366 net.cpp:122] Setting up conv5_1/sep/bn
I0615 14:05:57.418689 29366 net.cpp:129] Top shape: 50 512 14 14 (5017600)
I0615 14:05:57.418696 29366 net.cpp:137] Memory required for data: 3241369800
I0615 14:05:57.418710 29366 layer_factory.hpp:77] Creating layer conv5_1/sep/scale
I0615 14:05:57.418723 29366 net.cpp:84] Creating Layer conv5_1/sep/scale
I0615 14:05:57.418733 29366 net.cpp:406] conv5_1/sep/scale <- conv5_1/sep
I0615 14:05:57.418745 29366 net.cpp:367] conv5_1/sep/scale -> conv5_1/sep (in-place)
I0615 14:05:57.418820 29366 layer_factory.hpp:77] Creating layer conv5_1/sep/scale
I0615 14:05:57.418975 29366 net.cpp:122] Setting up conv5_1/sep/scale
I0615 14:05:57.418992 29366 net.cpp:129] Top shape: 50 512 14 14 (5017600)
I0615 14:05:57.419000 29366 net.cpp:137] Memory required for data: 3261440200
I0615 14:05:57.419013 29366 layer_factory.hpp:77] Creating layer relu5_1/sep
I0615 14:05:57.419028 29366 net.cpp:84] Creating Layer relu5_1/sep
I0615 14:05:57.419037 29366 net.cpp:406] relu5_1/sep <- conv5_1/sep
I0615 14:05:57.419047 29366 net.cpp:367] relu5_1/sep -> conv5_1/sep (in-place)
I0615 14:05:57.419469 29366 net.cpp:122] Setting up relu5_1/sep
I0615 14:05:57.419493 29366 net.cpp:129] Top shape: 50 512 14 14 (5017600)
I0615 14:05:57.419502 29366 net.cpp:137] Memory required for data: 3281510600
I0615 14:05:57.419512 29366 layer_factory.hpp:77] Creating layer conv5_2/dw
I0615 14:05:57.419535 29366 net.cpp:84] Creating Layer conv5_2/dw
I0615 14:05:57.419545 29366 net.cpp:406] conv5_2/dw <- conv5_1/sep
I0615 14:05:57.419561 29366 net.cpp:380] conv5_2/dw -> conv5_2/dw
I0615 14:05:57.419775 29366 net.cpp:122] Setting up conv5_2/dw
I0615 14:05:57.419795 29366 net.cpp:129] Top shape: 50 512 14 14 (5017600)
I0615 14:05:57.419802 29366 net.cpp:137] Memory required for data: 3301581000
I0615 14:05:57.419812 29366 layer_factory.hpp:77] Creating layer conv5_2/dw/bn
I0615 14:05:57.419826 29366 net.cpp:84] Creating Layer conv5_2/dw/bn
I0615 14:05:57.419834 29366 net.cpp:406] conv5_2/dw/bn <- conv5_2/dw
I0615 14:05:57.419848 29366 net.cpp:367] conv5_2/dw/bn -> conv5_2/dw (in-place)
I0615 14:05:57.420084 29366 net.cpp:122] Setting up conv5_2/dw/bn
I0615 14:05:57.420101 29366 net.cpp:129] Top shape: 50 512 14 14 (5017600)
I0615 14:05:57.420109 29366 net.cpp:137] Memory required for data: 3321651400
I0615 14:05:57.420123 29366 layer_factory.hpp:77] Creating layer conv5_2/dw/scale
I0615 14:05:57.420136 29366 net.cpp:84] Creating Layer conv5_2/dw/scale
I0615 14:05:57.420145 29366 net.cpp:406] conv5_2/dw/scale <- conv5_2/dw
I0615 14:05:57.420156 29366 net.cpp:367] conv5_2/dw/scale -> conv5_2/dw (in-place)
I0615 14:05:57.420217 29366 layer_factory.hpp:77] Creating layer conv5_2/dw/scale
I0615 14:05:57.420372 29366 net.cpp:122] Setting up conv5_2/dw/scale
I0615 14:05:57.420388 29366 net.cpp:129] Top shape: 50 512 14 14 (5017600)
I0615 14:05:57.420397 29366 net.cpp:137] Memory required for data: 3341721800
I0615 14:05:57.420409 29366 layer_factory.hpp:77] Creating layer relu5_2/dw
I0615 14:05:57.420431 29366 net.cpp:84] Creating Layer relu5_2/dw
I0615 14:05:57.420441 29366 net.cpp:406] relu5_2/dw <- conv5_2/dw
I0615 14:05:57.420454 29366 net.cpp:367] relu5_2/dw -> conv5_2/dw (in-place)
I0615 14:05:57.420688 29366 net.cpp:122] Setting up relu5_2/dw
I0615 14:05:57.420711 29366 net.cpp:129] Top shape: 50 512 14 14 (5017600)
I0615 14:05:57.420720 29366 net.cpp:137] Memory required for data: 3361792200
I0615 14:05:57.420729 29366 layer_factory.hpp:77] Creating layer conv5_2/sep
I0615 14:05:57.420747 29366 net.cpp:84] Creating Layer conv5_2/sep
I0615 14:05:57.420758 29366 net.cpp:406] conv5_2/sep <- conv5_2/dw
I0615 14:05:57.420770 29366 net.cpp:380] conv5_2/sep -> conv5_2/sep
I0615 14:05:57.426476 29366 net.cpp:122] Setting up conv5_2/sep
I0615 14:05:57.426501 29366 net.cpp:129] Top shape: 50 512 14 14 (5017600)
I0615 14:05:57.426511 29366 net.cpp:137] Memory required for data: 3381862600
I0615 14:05:57.426532 29366 layer_factory.hpp:77] Creating layer conv5_2/sep/bn
I0615 14:05:57.426548 29366 net.cpp:84] Creating Layer conv5_2/sep/bn
I0615 14:05:57.426559 29366 net.cpp:406] conv5_2/sep/bn <- conv5_2/sep
I0615 14:05:57.426571 29366 net.cpp:367] conv5_2/sep/bn -> conv5_2/sep (in-place)
I0615 14:05:57.426826 29366 net.cpp:122] Setting up conv5_2/sep/bn
I0615 14:05:57.426843 29366 net.cpp:129] Top shape: 50 512 14 14 (5017600)
I0615 14:05:57.426852 29366 net.cpp:137] Memory required for data: 3401933000
I0615 14:05:57.426870 29366 layer_factory.hpp:77] Creating layer conv5_2/sep/scale
I0615 14:05:57.426892 29366 net.cpp:84] Creating Layer conv5_2/sep/scale
I0615 14:05:57.426914 29366 net.cpp:406] conv5_2/sep/scale <- conv5_2/sep
I0615 14:05:57.426926 29366 net.cpp:367] conv5_2/sep/scale -> conv5_2/sep (in-place)
I0615 14:05:57.426987 29366 layer_factory.hpp:77] Creating layer conv5_2/sep/scale
I0615 14:05:57.427146 29366 net.cpp:122] Setting up conv5_2/sep/scale
I0615 14:05:57.427163 29366 net.cpp:129] Top shape: 50 512 14 14 (5017600)
I0615 14:05:57.427171 29366 net.cpp:137] Memory required for data: 3422003400
I0615 14:05:57.427184 29366 layer_factory.hpp:77] Creating layer relu5_2/sep
I0615 14:05:57.427199 29366 net.cpp:84] Creating Layer relu5_2/sep
I0615 14:05:57.427208 29366 net.cpp:406] relu5_2/sep <- conv5_2/sep
I0615 14:05:57.427219 29366 net.cpp:367] relu5_2/sep -> conv5_2/sep (in-place)
I0615 14:05:57.427652 29366 net.cpp:122] Setting up relu5_2/sep
I0615 14:05:57.427677 29366 net.cpp:129] Top shape: 50 512 14 14 (5017600)
I0615 14:05:57.427687 29366 net.cpp:137] Memory required for data: 3442073800
I0615 14:05:57.427695 29366 layer_factory.hpp:77] Creating layer conv5_3/dw
I0615 14:05:57.427711 29366 net.cpp:84] Creating Layer conv5_3/dw
I0615 14:05:57.427719 29366 net.cpp:406] conv5_3/dw <- conv5_2/sep
I0615 14:05:57.427736 29366 net.cpp:380] conv5_3/dw -> conv5_3/dw
I0615 14:05:57.427948 29366 net.cpp:122] Setting up conv5_3/dw
I0615 14:05:57.427970 29366 net.cpp:129] Top shape: 50 512 14 14 (5017600)
I0615 14:05:57.427979 29366 net.cpp:137] Memory required for data: 3462144200
I0615 14:05:57.427989 29366 layer_factory.hpp:77] Creating layer conv5_3/dw/bn
I0615 14:05:57.428002 29366 net.cpp:84] Creating Layer conv5_3/dw/bn
I0615 14:05:57.428011 29366 net.cpp:406] conv5_3/dw/bn <- conv5_3/dw
I0615 14:05:57.428030 29366 net.cpp:367] conv5_3/dw/bn -> conv5_3/dw (in-place)
I0615 14:05:57.428277 29366 net.cpp:122] Setting up conv5_3/dw/bn
I0615 14:05:57.428294 29366 net.cpp:129] Top shape: 50 512 14 14 (5017600)
I0615 14:05:57.428303 29366 net.cpp:137] Memory required for data: 3482214600
I0615 14:05:57.428316 29366 layer_factory.hpp:77] Creating layer conv5_3/dw/scale
I0615 14:05:57.428329 29366 net.cpp:84] Creating Layer conv5_3/dw/scale
I0615 14:05:57.428339 29366 net.cpp:406] conv5_3/dw/scale <- conv5_3/dw
I0615 14:05:57.428349 29366 net.cpp:367] conv5_3/dw/scale -> conv5_3/dw (in-place)
I0615 14:05:57.428408 29366 layer_factory.hpp:77] Creating layer conv5_3/dw/scale
I0615 14:05:57.428580 29366 net.cpp:122] Setting up conv5_3/dw/scale
I0615 14:05:57.428599 29366 net.cpp:129] Top shape: 50 512 14 14 (5017600)
I0615 14:05:57.428607 29366 net.cpp:137] Memory required for data: 3502285000
I0615 14:05:57.428619 29366 layer_factory.hpp:77] Creating layer relu5_3/dw
I0615 14:05:57.428632 29366 net.cpp:84] Creating Layer relu5_3/dw
I0615 14:05:57.428640 29366 net.cpp:406] relu5_3/dw <- conv5_3/dw
I0615 14:05:57.428654 29366 net.cpp:367] relu5_3/dw -> conv5_3/dw (in-place)
I0615 14:05:57.428881 29366 net.cpp:122] Setting up relu5_3/dw
I0615 14:05:57.428900 29366 net.cpp:129] Top shape: 50 512 14 14 (5017600)
I0615 14:05:57.428910 29366 net.cpp:137] Memory required for data: 3522355400
I0615 14:05:57.428917 29366 layer_factory.hpp:77] Creating layer conv5_3/sep
I0615 14:05:57.428936 29366 net.cpp:84] Creating Layer conv5_3/sep
I0615 14:05:57.428946 29366 net.cpp:406] conv5_3/sep <- conv5_3/dw
I0615 14:05:57.428959 29366 net.cpp:380] conv5_3/sep -> conv5_3/sep
I0615 14:05:57.434661 29366 net.cpp:122] Setting up conv5_3/sep
I0615 14:05:57.434686 29366 net.cpp:129] Top shape: 50 512 14 14 (5017600)
I0615 14:05:57.434696 29366 net.cpp:137] Memory required for data: 3542425800
I0615 14:05:57.434707 29366 layer_factory.hpp:77] Creating layer conv5_3/sep/bn
I0615 14:05:57.434725 29366 net.cpp:84] Creating Layer conv5_3/sep/bn
I0615 14:05:57.434734 29366 net.cpp:406] conv5_3/sep/bn <- conv5_3/sep
I0615 14:05:57.434746 29366 net.cpp:367] conv5_3/sep/bn -> conv5_3/sep (in-place)
I0615 14:05:57.435000 29366 net.cpp:122] Setting up conv5_3/sep/bn
I0615 14:05:57.435019 29366 net.cpp:129] Top shape: 50 512 14 14 (5017600)
I0615 14:05:57.435035 29366 net.cpp:137] Memory required for data: 3562496200
I0615 14:05:57.435060 29366 layer_factory.hpp:77] Creating layer conv5_3/sep/scale
I0615 14:05:57.435078 29366 net.cpp:84] Creating Layer conv5_3/sep/scale
I0615 14:05:57.435088 29366 net.cpp:406] conv5_3/sep/scale <- conv5_3/sep
I0615 14:05:57.435099 29366 net.cpp:367] conv5_3/sep/scale -> conv5_3/sep (in-place)
I0615 14:05:57.435160 29366 layer_factory.hpp:77] Creating layer conv5_3/sep/scale
I0615 14:05:57.435322 29366 net.cpp:122] Setting up conv5_3/sep/scale
I0615 14:05:57.435338 29366 net.cpp:129] Top shape: 50 512 14 14 (5017600)
I0615 14:05:57.435346 29366 net.cpp:137] Memory required for data: 3582566600
I0615 14:05:57.435358 29366 layer_factory.hpp:77] Creating layer relu5_3/sep
I0615 14:05:57.435369 29366 net.cpp:84] Creating Layer relu5_3/sep
I0615 14:05:57.435379 29366 net.cpp:406] relu5_3/sep <- conv5_3/sep
I0615 14:05:57.435392 29366 net.cpp:367] relu5_3/sep -> conv5_3/sep (in-place)
I0615 14:05:57.435634 29366 net.cpp:122] Setting up relu5_3/sep
I0615 14:05:57.435654 29366 net.cpp:129] Top shape: 50 512 14 14 (5017600)
I0615 14:05:57.435663 29366 net.cpp:137] Memory required for data: 3602637000
I0615 14:05:57.435672 29366 layer_factory.hpp:77] Creating layer conv5_4/dw
I0615 14:05:57.435689 29366 net.cpp:84] Creating Layer conv5_4/dw
I0615 14:05:57.435699 29366 net.cpp:406] conv5_4/dw <- conv5_3/sep
I0615 14:05:57.435714 29366 net.cpp:380] conv5_4/dw -> conv5_4/dw
I0615 14:05:57.435930 29366 net.cpp:122] Setting up conv5_4/dw
I0615 14:05:57.435947 29366 net.cpp:129] Top shape: 50 512 14 14 (5017600)
I0615 14:05:57.435956 29366 net.cpp:137] Memory required for data: 3622707400
I0615 14:05:57.435966 29366 layer_factory.hpp:77] Creating layer conv5_4/dw/bn
I0615 14:05:57.435981 29366 net.cpp:84] Creating Layer conv5_4/dw/bn
I0615 14:05:57.435992 29366 net.cpp:406] conv5_4/dw/bn <- conv5_4/dw
I0615 14:05:57.436002 29366 net.cpp:367] conv5_4/dw/bn -> conv5_4/dw (in-place)
I0615 14:05:57.436255 29366 net.cpp:122] Setting up conv5_4/dw/bn
I0615 14:05:57.436272 29366 net.cpp:129] Top shape: 50 512 14 14 (5017600)
I0615 14:05:57.436280 29366 net.cpp:137] Memory required for data: 3642777800
I0615 14:05:57.436295 29366 layer_factory.hpp:77] Creating layer conv5_4/dw/scale
I0615 14:05:57.436307 29366 net.cpp:84] Creating Layer conv5_4/dw/scale
I0615 14:05:57.436316 29366 net.cpp:406] conv5_4/dw/scale <- conv5_4/dw
I0615 14:05:57.436331 29366 net.cpp:367] conv5_4/dw/scale -> conv5_4/dw (in-place)
I0615 14:05:57.436386 29366 layer_factory.hpp:77] Creating layer conv5_4/dw/scale
I0615 14:05:57.436556 29366 net.cpp:122] Setting up conv5_4/dw/scale
I0615 14:05:57.436578 29366 net.cpp:129] Top shape: 50 512 14 14 (5017600)
I0615 14:05:57.436588 29366 net.cpp:137] Memory required for data: 3662848200
I0615 14:05:57.436600 29366 layer_factory.hpp:77] Creating layer relu5_4/dw
I0615 14:05:57.436611 29366 net.cpp:84] Creating Layer relu5_4/dw
I0615 14:05:57.436620 29366 net.cpp:406] relu5_4/dw <- conv5_4/dw
I0615 14:05:57.436630 29366 net.cpp:367] relu5_4/dw -> conv5_4/dw (in-place)
I0615 14:05:57.437048 29366 net.cpp:122] Setting up relu5_4/dw
I0615 14:05:57.437070 29366 net.cpp:129] Top shape: 50 512 14 14 (5017600)
I0615 14:05:57.437079 29366 net.cpp:137] Memory required for data: 3682918600
I0615 14:05:57.437088 29366 layer_factory.hpp:77] Creating layer conv5_4/sep
I0615 14:05:57.437106 29366 net.cpp:84] Creating Layer conv5_4/sep
I0615 14:05:57.437117 29366 net.cpp:406] conv5_4/sep <- conv5_4/dw
I0615 14:05:57.437134 29366 net.cpp:380] conv5_4/sep -> conv5_4/sep
I0615 14:05:57.442837 29366 net.cpp:122] Setting up conv5_4/sep
I0615 14:05:57.442862 29366 net.cpp:129] Top shape: 50 512 14 14 (5017600)
I0615 14:05:57.442873 29366 net.cpp:137] Memory required for data: 3702989000
I0615 14:05:57.442883 29366 layer_factory.hpp:77] Creating layer conv5_4/sep/bn
I0615 14:05:57.442900 29366 net.cpp:84] Creating Layer conv5_4/sep/bn
I0615 14:05:57.442910 29366 net.cpp:406] conv5_4/sep/bn <- conv5_4/sep
I0615 14:05:57.442925 29366 net.cpp:367] conv5_4/sep/bn -> conv5_4/sep (in-place)
I0615 14:05:57.443197 29366 net.cpp:122] Setting up conv5_4/sep/bn
I0615 14:05:57.443226 29366 net.cpp:129] Top shape: 50 512 14 14 (5017600)
I0615 14:05:57.443235 29366 net.cpp:137] Memory required for data: 3723059400
I0615 14:05:57.443249 29366 layer_factory.hpp:77] Creating layer conv5_4/sep/scale
I0615 14:05:57.443262 29366 net.cpp:84] Creating Layer conv5_4/sep/scale
I0615 14:05:57.443272 29366 net.cpp:406] conv5_4/sep/scale <- conv5_4/sep
I0615 14:05:57.443287 29366 net.cpp:367] conv5_4/sep/scale -> conv5_4/sep (in-place)
I0615 14:05:57.443346 29366 layer_factory.hpp:77] Creating layer conv5_4/sep/scale
I0615 14:05:57.443508 29366 net.cpp:122] Setting up conv5_4/sep/scale
I0615 14:05:57.443534 29366 net.cpp:129] Top shape: 50 512 14 14 (5017600)
I0615 14:05:57.443542 29366 net.cpp:137] Memory required for data: 3743129800
I0615 14:05:57.443555 29366 layer_factory.hpp:77] Creating layer relu5_4/sep
I0615 14:05:57.443567 29366 net.cpp:84] Creating Layer relu5_4/sep
I0615 14:05:57.443577 29366 net.cpp:406] relu5_4/sep <- conv5_4/sep
I0615 14:05:57.443586 29366 net.cpp:367] relu5_4/sep -> conv5_4/sep (in-place)
I0615 14:05:57.443823 29366 net.cpp:122] Setting up relu5_4/sep
I0615 14:05:57.443842 29366 net.cpp:129] Top shape: 50 512 14 14 (5017600)
I0615 14:05:57.443850 29366 net.cpp:137] Memory required for data: 3763200200
I0615 14:05:57.443858 29366 layer_factory.hpp:77] Creating layer conv5_5/dw
I0615 14:05:57.443872 29366 net.cpp:84] Creating Layer conv5_5/dw
I0615 14:05:57.443882 29366 net.cpp:406] conv5_5/dw <- conv5_4/sep
I0615 14:05:57.443898 29366 net.cpp:380] conv5_5/dw -> conv5_5/dw
I0615 14:05:57.444113 29366 net.cpp:122] Setting up conv5_5/dw
I0615 14:05:57.444131 29366 net.cpp:129] Top shape: 50 512 14 14 (5017600)
I0615 14:05:57.444140 29366 net.cpp:137] Memory required for data: 3783270600
I0615 14:05:57.444151 29366 layer_factory.hpp:77] Creating layer conv5_5/dw/bn
I0615 14:05:57.444164 29366 net.cpp:84] Creating Layer conv5_5/dw/bn
I0615 14:05:57.444174 29366 net.cpp:406] conv5_5/dw/bn <- conv5_5/dw
I0615 14:05:57.444187 29366 net.cpp:367] conv5_5/dw/bn -> conv5_5/dw (in-place)
I0615 14:05:57.444440 29366 net.cpp:122] Setting up conv5_5/dw/bn
I0615 14:05:57.444458 29366 net.cpp:129] Top shape: 50 512 14 14 (5017600)
I0615 14:05:57.444466 29366 net.cpp:137] Memory required for data: 3803341000
I0615 14:05:57.444506 29366 layer_factory.hpp:77] Creating layer conv5_5/dw/scale
I0615 14:05:57.444531 29366 net.cpp:84] Creating Layer conv5_5/dw/scale
I0615 14:05:57.444541 29366 net.cpp:406] conv5_5/dw/scale <- conv5_5/dw
I0615 14:05:57.444553 29366 net.cpp:367] conv5_5/dw/scale -> conv5_5/dw (in-place)
I0615 14:05:57.444617 29366 layer_factory.hpp:77] Creating layer conv5_5/dw/scale
I0615 14:05:57.444780 29366 net.cpp:122] Setting up conv5_5/dw/scale
I0615 14:05:57.444797 29366 net.cpp:129] Top shape: 50 512 14 14 (5017600)
I0615 14:05:57.444805 29366 net.cpp:137] Memory required for data: 3823411400
I0615 14:05:57.444818 29366 layer_factory.hpp:77] Creating layer relu5_5/dw
I0615 14:05:57.444833 29366 net.cpp:84] Creating Layer relu5_5/dw
I0615 14:05:57.444842 29366 net.cpp:406] relu5_5/dw <- conv5_5/dw
I0615 14:05:57.444852 29366 net.cpp:367] relu5_5/dw -> conv5_5/dw (in-place)
I0615 14:05:57.445289 29366 net.cpp:122] Setting up relu5_5/dw
I0615 14:05:57.445310 29366 net.cpp:129] Top shape: 50 512 14 14 (5017600)
I0615 14:05:57.445319 29366 net.cpp:137] Memory required for data: 3843481800
I0615 14:05:57.445327 29366 layer_factory.hpp:77] Creating layer conv5_5/sep
I0615 14:05:57.445348 29366 net.cpp:84] Creating Layer conv5_5/sep
I0615 14:05:57.445358 29366 net.cpp:406] conv5_5/sep <- conv5_5/dw
I0615 14:05:57.445374 29366 net.cpp:380] conv5_5/sep -> conv5_5/sep
I0615 14:05:57.451136 29366 net.cpp:122] Setting up conv5_5/sep
I0615 14:05:57.451161 29366 net.cpp:129] Top shape: 50 512 14 14 (5017600)
I0615 14:05:57.451171 29366 net.cpp:137] Memory required for data: 3863552200
I0615 14:05:57.451182 29366 layer_factory.hpp:77] Creating layer conv5_5/sep/bn
I0615 14:05:57.451206 29366 net.cpp:84] Creating Layer conv5_5/sep/bn
I0615 14:05:57.451233 29366 net.cpp:406] conv5_5/sep/bn <- conv5_5/sep
I0615 14:05:57.451246 29366 net.cpp:367] conv5_5/sep/bn -> conv5_5/sep (in-place)
I0615 14:05:57.451521 29366 net.cpp:122] Setting up conv5_5/sep/bn
I0615 14:05:57.451540 29366 net.cpp:129] Top shape: 50 512 14 14 (5017600)
I0615 14:05:57.451550 29366 net.cpp:137] Memory required for data: 3883622600
I0615 14:05:57.451563 29366 layer_factory.hpp:77] Creating layer conv5_5/sep/scale
I0615 14:05:57.451581 29366 net.cpp:84] Creating Layer conv5_5/sep/scale
I0615 14:05:57.451591 29366 net.cpp:406] conv5_5/sep/scale <- conv5_5/sep
I0615 14:05:57.451601 29366 net.cpp:367] conv5_5/sep/scale -> conv5_5/sep (in-place)
I0615 14:05:57.451663 29366 layer_factory.hpp:77] Creating layer conv5_5/sep/scale
I0615 14:05:57.451829 29366 net.cpp:122] Setting up conv5_5/sep/scale
I0615 14:05:57.451845 29366 net.cpp:129] Top shape: 50 512 14 14 (5017600)
I0615 14:05:57.451854 29366 net.cpp:137] Memory required for data: 3903693000
I0615 14:05:57.451866 29366 layer_factory.hpp:77] Creating layer relu5_5/sep
I0615 14:05:57.451877 29366 net.cpp:84] Creating Layer relu5_5/sep
I0615 14:05:57.451886 29366 net.cpp:406] relu5_5/sep <- conv5_5/sep
I0615 14:05:57.451900 29366 net.cpp:367] relu5_5/sep -> conv5_5/sep (in-place)
I0615 14:05:57.452158 29366 net.cpp:122] Setting up relu5_5/sep
I0615 14:05:57.452178 29366 net.cpp:129] Top shape: 50 512 14 14 (5017600)
I0615 14:05:57.452185 29366 net.cpp:137] Memory required for data: 3923763400
I0615 14:05:57.452193 29366 layer_factory.hpp:77] Creating layer conv5_6/dw
I0615 14:05:57.452210 29366 net.cpp:84] Creating Layer conv5_6/dw
I0615 14:05:57.452220 29366 net.cpp:406] conv5_6/dw <- conv5_5/sep
I0615 14:05:57.452236 29366 net.cpp:380] conv5_6/dw -> conv5_6/dw
I0615 14:05:57.452450 29366 net.cpp:122] Setting up conv5_6/dw
I0615 14:05:57.452467 29366 net.cpp:129] Top shape: 50 512 7 7 (1254400)
I0615 14:05:57.452476 29366 net.cpp:137] Memory required for data: 3928781000
I0615 14:05:57.452486 29366 layer_factory.hpp:77] Creating layer conv5_6/dw/bn
I0615 14:05:57.452502 29366 net.cpp:84] Creating Layer conv5_6/dw/bn
I0615 14:05:57.452512 29366 net.cpp:406] conv5_6/dw/bn <- conv5_6/dw
I0615 14:05:57.452544 29366 net.cpp:367] conv5_6/dw/bn -> conv5_6/dw (in-place)
I0615 14:05:57.452806 29366 net.cpp:122] Setting up conv5_6/dw/bn
I0615 14:05:57.452823 29366 net.cpp:129] Top shape: 50 512 7 7 (1254400)
I0615 14:05:57.452831 29366 net.cpp:137] Memory required for data: 3933798600
I0615 14:05:57.452846 29366 layer_factory.hpp:77] Creating layer conv5_6/dw/scale
I0615 14:05:57.452858 29366 net.cpp:84] Creating Layer conv5_6/dw/scale
I0615 14:05:57.452867 29366 net.cpp:406] conv5_6/dw/scale <- conv5_6/dw
I0615 14:05:57.452883 29366 net.cpp:367] conv5_6/dw/scale -> conv5_6/dw (in-place)
I0615 14:05:57.452939 29366 layer_factory.hpp:77] Creating layer conv5_6/dw/scale
I0615 14:05:57.453104 29366 net.cpp:122] Setting up conv5_6/dw/scale
I0615 14:05:57.453120 29366 net.cpp:129] Top shape: 50 512 7 7 (1254400)
I0615 14:05:57.453128 29366 net.cpp:137] Memory required for data: 3938816200
I0615 14:05:57.453140 29366 layer_factory.hpp:77] Creating layer relu5_6/dw
I0615 14:05:57.453152 29366 net.cpp:84] Creating Layer relu5_6/dw
I0615 14:05:57.453161 29366 net.cpp:406] relu5_6/dw <- conv5_6/dw
I0615 14:05:57.453171 29366 net.cpp:367] relu5_6/dw -> conv5_6/dw (in-place)
I0615 14:05:57.453618 29366 net.cpp:122] Setting up relu5_6/dw
I0615 14:05:57.453639 29366 net.cpp:129] Top shape: 50 512 7 7 (1254400)
I0615 14:05:57.453649 29366 net.cpp:137] Memory required for data: 3943833800
I0615 14:05:57.453657 29366 layer_factory.hpp:77] Creating layer conv5_6/sep
I0615 14:05:57.453678 29366 net.cpp:84] Creating Layer conv5_6/sep
I0615 14:05:57.453689 29366 net.cpp:406] conv5_6/sep <- conv5_6/dw
I0615 14:05:57.453703 29366 net.cpp:380] conv5_6/sep -> conv5_6/sep
I0615 14:05:57.464206 29366 net.cpp:122] Setting up conv5_6/sep
I0615 14:05:57.464233 29366 net.cpp:129] Top shape: 50 1024 7 7 (2508800)
I0615 14:05:57.464251 29366 net.cpp:137] Memory required for data: 3953869000
I0615 14:05:57.464273 29366 layer_factory.hpp:77] Creating layer conv5_6/sep/bn
I0615 14:05:57.464292 29366 net.cpp:84] Creating Layer conv5_6/sep/bn
I0615 14:05:57.464301 29366 net.cpp:406] conv5_6/sep/bn <- conv5_6/sep
I0615 14:05:57.464314 29366 net.cpp:367] conv5_6/sep/bn -> conv5_6/sep (in-place)
I0615 14:05:57.464599 29366 net.cpp:122] Setting up conv5_6/sep/bn
I0615 14:05:57.464618 29366 net.cpp:129] Top shape: 50 1024 7 7 (2508800)
I0615 14:05:57.464627 29366 net.cpp:137] Memory required for data: 3963904200
I0615 14:05:57.464640 29366 layer_factory.hpp:77] Creating layer conv5_6/sep/scale
I0615 14:05:57.464654 29366 net.cpp:84] Creating Layer conv5_6/sep/scale
I0615 14:05:57.464663 29366 net.cpp:406] conv5_6/sep/scale <- conv5_6/sep
I0615 14:05:57.464674 29366 net.cpp:367] conv5_6/sep/scale -> conv5_6/sep (in-place)
I0615 14:05:57.464737 29366 layer_factory.hpp:77] Creating layer conv5_6/sep/scale
I0615 14:05:57.464907 29366 net.cpp:122] Setting up conv5_6/sep/scale
I0615 14:05:57.464925 29366 net.cpp:129] Top shape: 50 1024 7 7 (2508800)
I0615 14:05:57.464932 29366 net.cpp:137] Memory required for data: 3973939400
I0615 14:05:57.464944 29366 layer_factory.hpp:77] Creating layer relu5_6/sep
I0615 14:05:57.464959 29366 net.cpp:84] Creating Layer relu5_6/sep
I0615 14:05:57.464969 29366 net.cpp:406] relu5_6/sep <- conv5_6/sep
I0615 14:05:57.464980 29366 net.cpp:367] relu5_6/sep -> conv5_6/sep (in-place)
I0615 14:05:57.465227 29366 net.cpp:122] Setting up relu5_6/sep
I0615 14:05:57.465247 29366 net.cpp:129] Top shape: 50 1024 7 7 (2508800)
I0615 14:05:57.465256 29366 net.cpp:137] Memory required for data: 3983974600
I0615 14:05:57.465265 29366 layer_factory.hpp:77] Creating layer conv6/dw
I0615 14:05:57.465286 29366 net.cpp:84] Creating Layer conv6/dw
I0615 14:05:57.465297 29366 net.cpp:406] conv6/dw <- conv5_6/sep
I0615 14:05:57.465313 29366 net.cpp:380] conv6/dw -> conv6/dw
I0615 14:05:57.465603 29366 net.cpp:122] Setting up conv6/dw
I0615 14:05:57.465622 29366 net.cpp:129] Top shape: 50 1024 7 7 (2508800)
I0615 14:05:57.465631 29366 net.cpp:137] Memory required for data: 3994009800
I0615 14:05:57.465641 29366 layer_factory.hpp:77] Creating layer conv6/dw/bn
I0615 14:05:57.465653 29366 net.cpp:84] Creating Layer conv6/dw/bn
I0615 14:05:57.465662 29366 net.cpp:406] conv6/dw/bn <- conv6/dw
I0615 14:05:57.465677 29366 net.cpp:367] conv6/dw/bn -> conv6/dw (in-place)
I0615 14:05:57.465937 29366 net.cpp:122] Setting up conv6/dw/bn
I0615 14:05:57.465955 29366 net.cpp:129] Top shape: 50 1024 7 7 (2508800)
I0615 14:05:57.465963 29366 net.cpp:137] Memory required for data: 4004045000
I0615 14:05:57.465977 29366 layer_factory.hpp:77] Creating layer conv6/dw/scale
I0615 14:05:57.465993 29366 net.cpp:84] Creating Layer conv6/dw/scale
I0615 14:05:57.466003 29366 net.cpp:406] conv6/dw/scale <- conv6/dw
I0615 14:05:57.466014 29366 net.cpp:367] conv6/dw/scale -> conv6/dw (in-place)
I0615 14:05:57.466071 29366 layer_factory.hpp:77] Creating layer conv6/dw/scale
I0615 14:05:57.466240 29366 net.cpp:122] Setting up conv6/dw/scale
I0615 14:05:57.466258 29366 net.cpp:129] Top shape: 50 1024 7 7 (2508800)
I0615 14:05:57.466265 29366 net.cpp:137] Memory required for data: 4014080200
I0615 14:05:57.466277 29366 layer_factory.hpp:77] Creating layer relu6/dw
I0615 14:05:57.466289 29366 net.cpp:84] Creating Layer relu6/dw
I0615 14:05:57.466298 29366 net.cpp:406] relu6/dw <- conv6/dw
I0615 14:05:57.466312 29366 net.cpp:367] relu6/dw -> conv6/dw (in-place)
I0615 14:05:57.466759 29366 net.cpp:122] Setting up relu6/dw
I0615 14:05:57.466781 29366 net.cpp:129] Top shape: 50 1024 7 7 (2508800)
I0615 14:05:57.466790 29366 net.cpp:137] Memory required for data: 4024115400
I0615 14:05:57.466799 29366 layer_factory.hpp:77] Creating layer conv6/sep
I0615 14:05:57.466819 29366 net.cpp:84] Creating Layer conv6/sep
I0615 14:05:57.466830 29366 net.cpp:406] conv6/sep <- conv6/dw
I0615 14:05:57.466842 29366 net.cpp:380] conv6/sep -> conv6/sep
I0615 14:05:57.485363 29366 net.cpp:122] Setting up conv6/sep
I0615 14:05:57.485412 29366 net.cpp:129] Top shape: 50 1024 7 7 (2508800)
I0615 14:05:57.485435 29366 net.cpp:137] Memory required for data: 4034150600
I0615 14:05:57.485448 29366 layer_factory.hpp:77] Creating layer conv6/sep/bn
I0615 14:05:57.485465 29366 net.cpp:84] Creating Layer conv6/sep/bn
I0615 14:05:57.485474 29366 net.cpp:406] conv6/sep/bn <- conv6/sep
I0615 14:05:57.485491 29366 net.cpp:367] conv6/sep/bn -> conv6/sep (in-place)
I0615 14:05:57.485786 29366 net.cpp:122] Setting up conv6/sep/bn
I0615 14:05:57.485805 29366 net.cpp:129] Top shape: 50 1024 7 7 (2508800)
I0615 14:05:57.485813 29366 net.cpp:137] Memory required for data: 4044185800
I0615 14:05:57.485828 29366 layer_factory.hpp:77] Creating layer conv6/sep/scale
I0615 14:05:57.485841 29366 net.cpp:84] Creating Layer conv6/sep/scale
I0615 14:05:57.485851 29366 net.cpp:406] conv6/sep/scale <- conv6/sep
I0615 14:05:57.485862 29366 net.cpp:367] conv6/sep/scale -> conv6/sep (in-place)
I0615 14:05:57.485926 29366 layer_factory.hpp:77] Creating layer conv6/sep/scale
I0615 14:05:57.486100 29366 net.cpp:122] Setting up conv6/sep/scale
I0615 14:05:57.486117 29366 net.cpp:129] Top shape: 50 1024 7 7 (2508800)
I0615 14:05:57.486126 29366 net.cpp:137] Memory required for data: 4054221000
I0615 14:05:57.486138 29366 layer_factory.hpp:77] Creating layer relu6/sep
I0615 14:05:57.486150 29366 net.cpp:84] Creating Layer relu6/sep
I0615 14:05:57.486160 29366 net.cpp:406] relu6/sep <- conv6/sep
I0615 14:05:57.486174 29366 net.cpp:367] relu6/sep -> conv6/sep (in-place)
I0615 14:05:57.486619 29366 net.cpp:122] Setting up relu6/sep
I0615 14:05:57.486641 29366 net.cpp:129] Top shape: 50 1024 7 7 (2508800)
I0615 14:05:57.486650 29366 net.cpp:137] Memory required for data: 4064256200
I0615 14:05:57.486660 29366 layer_factory.hpp:77] Creating layer pool6
I0615 14:05:57.486673 29366 net.cpp:84] Creating Layer pool6
I0615 14:05:57.486682 29366 net.cpp:406] pool6 <- conv6/sep
I0615 14:05:57.486699 29366 net.cpp:380] pool6 -> pool6
I0615 14:05:57.487026 29366 net.cpp:122] Setting up pool6
I0615 14:05:57.487046 29366 net.cpp:129] Top shape: 50 1024 1 1 (51200)
I0615 14:05:57.487056 29366 net.cpp:137] Memory required for data: 4064461000
I0615 14:05:57.487063 29366 layer_factory.hpp:77] Creating layer fc7
I0615 14:05:57.487084 29366 net.cpp:84] Creating Layer fc7
I0615 14:05:57.487095 29366 net.cpp:406] fc7 <- pool6
I0615 14:05:57.487112 29366 net.cpp:380] fc7 -> fc7
I0615 14:05:57.490088 29366 net.cpp:122] Setting up fc7
I0615 14:05:57.490113 29366 net.cpp:129] Top shape: 50 102 1 1 (5100)
I0615 14:05:57.490123 29366 net.cpp:137] Memory required for data: 4064481400
I0615 14:05:57.490134 29366 layer_factory.hpp:77] Creating layer loss
I0615 14:05:57.490151 29366 net.cpp:84] Creating Layer loss
I0615 14:05:57.490161 29366 net.cpp:406] loss <- fc7
I0615 14:05:57.490171 29366 net.cpp:406] loss <- label
I0615 14:05:57.490190 29366 net.cpp:380] loss -> loss
I0615 14:05:57.490212 29366 layer_factory.hpp:77] Creating layer loss
…
I0617 01:38:25.923563 12178 net.cpp:51] Initializing net from parameters: 
name: "MOBILENET"
state {
  phase: TRAIN
  level: 0
  stage: ""
}
layer {
  name: "data"
  type: "ImageData"
  top: "data"
  top: "label"
  include {
    phase: TRAIN
  }
  transform_param {
    mirror: true
    crop_size: 224
    mean_file: "/home/xingzhaolong/caffe_project/caffe/models/caffe-oxford102/imagenet_mean.binaryproto"
  }
  image_data_param {
    source: "/home/xingzhaolong/caffe_project/caffe/models/caffe-oxford102/test.txt"
    batch_size: 50
    new_height: 256
    new_width: 256
  }
}
layer {
  name: "conv1"
  type: "Convolution"
  bottom: "data"
  top: "conv1"
  param {
    lr_mult: 1
    decay_mult: 1
  }
  convolution_param {
    num_output: 32
    bias_term: false
    pad: 1
    kernel_size: 3
    stride: 2
    weight_filler {
      type: "msra"
    }
  }
}
layer {
  name: "conv1/bn"
  type: "BatchNorm"
  bottom: "conv1"
  top: "conv1"
  param {
    lr_mult: 0
    decay_mult: 0
  }
  param {
    lr_mult: 0
    decay_mult: 0
  }
  param {
    lr_mult: 0
    decay_mult: 0
  }
}
layer {
  name: "conv1/scale"
  type: "Scale"
  bottom: "conv1"
  top: "conv1"
  scale_param {
    filler {
      value: 1
    }
    bias_term: true
    bias_filler {
      value: 0
    }
  }
}
layer {
  name: "relu1"
  type: "ReLU"
  bottom: "conv1"
  top: "conv1"
}
layer {
  name: "conv2_1/dw"
  type: "ConvolutionDepthwise"
  bottom: "conv1"
  top: "conv2_1/dw"
  param {
    lr_mult: 1
    decay_mult: 1
  }
  convolution_param {
    num_output: 32
    bias_term: false
    pad: 1
    kernel_size: 3
    group: 32
    stride: 1
    weight_filler {
      type: "msra"
    }
  }
}
layer {
  name: "conv2_1/dw/bn"
  type: "BatchNorm"
  bottom: "conv2_1/dw"
  top: "conv2_1/dw"
  param {
    lr_mult: 0
    decay_mult: 0
  }
  param {
    lr_mult: 0
    decay_mult: 0
  }
  param {
    lr_mult: 0
    decay_mult: 0
  }
}
layer {
  name: "conv2_1/dw/scale"
  type: "Scale"
  bottom: "conv2_1/dw"
  top: "conv2_1/dw"
  scale_param {
    filler {
      value: 1
    }
    bias_term: true
    bias_filler {
      value: 0
    }
  }
}
layer {
  name: "relu2_1/dw"
  type: "ReLU"
  bottom: "conv2_1/dw"
  top: "conv2_1/dw"
}
layer {
  name: "conv2_1/sep"
  type: "Convolution"
  bottom: "conv2_1/dw"
  top: "conv2_1/sep"
  param {
    lr_mult: 1
    decay_mult: 1
  }
  convolution_param {
    num_output: 64
    bias_term: false
    pad: 0
    kernel_size: 1
    stride: 1
    weight_filler {
      type: "msra"
    }
  }
}
layer {
  name: "conv2_1/sep/bn"
  type: "BatchNorm"
  bottom: "conv2_1/sep"
  top: "conv2_1/sep"
  param {
    lr_mult: 0
    decay_mult: 0
  }
  param {
    lr_mult: 0
    decay_mult: 0
  }
  param {
    lr_mult: 0
    decay_mult: 0
  }
}
layer {
  name: "conv2_1/sep/scale"
  type: "Scale"
  bottom: "conv2_1/sep"
  top: "conv2_1/sep"
  scale_param {
    filler {
      value: 1
    }
    bias_term: true
    bias_filler {
      value: 0
    }
  }
}
layer {
  name: "relu2_1/sep"
  type: "ReLU"
  bottom: "conv2_1/sep"
  top: "conv2_1/sep"
}
layer {
  name: "conv2_2/dw"
  type: "ConvolutionDepthwise"
  bottom: "conv2_1/sep"
  top: "conv2_2/dw"
  param {
    lr_mult: 1
    decay_mult: 1
  }
  convolution_param {
    num_output: 64
    bias_term: false
    pad: 1
    kernel_size: 3
    group: 64
    stride: 2
    weight_filler {
      type: "msra"
    }
  }
}
layer {
  name: "conv2_2/dw/bn"
  type: "BatchNorm"
  bottom: "conv2_2/dw"
  top: "conv2_2/dw"
  param {
    lr_mult: 0
    decay_mult: 0
  }
  param {
    lr_mult: 0
    decay_mult: 0
  }
  param {
    lr_mult: 0
    decay_mult: 0
  }
}
layer {
  name: "conv2_2/dw/scale"
  type: "Scale"
  bottom: "conv2_2/dw"
  top: "conv2_2/dw"
  scale_param {
    filler {
      value: 1
    }
    bias_term: true
    bias_filler {
      value: 0
    }
  }
}
layer {
  name: "relu2_2/dw"
  type: "ReLU"
  bottom: "conv2_2/dw"
  top: "conv2_2/dw"
}
layer {
  name: "conv2_2/sep"
  type: "Convolution"
  bottom: "conv2_2/dw"
  top: "conv2_2/sep"
  param {
    lr_mult: 1
    decay_mult: 1
  }
  convolution_param {
    num_output: 128
    bias_term: false
    pad: 0
    kernel_size: 1
    stride: 1
    weight_filler {
      type: "msra"
    }
  }
}
layer {
  name: "conv2_2/sep/bn"
  type: "BatchNorm"
  bottom: "conv2_2/sep"
  top: "conv2_2/sep"
  param {
    lr_mult: 0
    decay_mult: 0
  }
  param {
    lr_mult: 0
    decay_mult: 0
  }
  param {
    lr_mult: 0
    decay_mult: 0
  }
}
layer {
  name: "conv2_2/sep/scale"
  type: "Scale"
  bottom: "conv2_2/sep"
  top: "conv2_2/sep"
  scale_param {
    filler {
      value: 1
    }
    bias_term: true
    bias_filler {
      value: 0
    }
  }
}
layer {
  name: "relu2_2/sep"
  type: "ReLU"
  bottom: "conv2_2/sep"
  top: "conv2_2/sep"
}
layer {
  name: "conv3_1/dw"
  type: "ConvolutionDepthwise"
  bottom: "conv2_2/sep"
  top: "conv3_1/dw"
  param {
    lr_mult: 1
    decay_mult: 1
  }
  convolution_param {
    num_output: 128
    bias_term: false
    pad: 1
    kernel_size: 3
    group: 128
    stride: 1
    weight_filler {
      type: "msra"
    }
  }
}
layer {
  name: "conv3_1/dw/bn"
  type: "BatchNorm"
  bottom: "conv3_1/dw"
  top: "conv3_1/dw"
  param {
    lr_mult: 0
    decay_mult: 0
  }
  param {
    lr_mult: 0
    decay_mult: 0
  }
  param {
    lr_mult: 0
    decay_mult: 0
  }
}
layer {
  name: "conv3_1/dw/scale"
  type: "Scale"
  bottom: "conv3_1/dw"
  top: "conv3_1/dw"
  scale_param {
    filler {
      value: 1
    }
    bias_term: true
    bias_filler {
      value: 0
    }
  }
}
layer {
  name: "relu3_1/dw"
  type: "ReLU"
  bottom: "conv3_1/dw"
  top: "conv3_1/dw"
}
layer {
  name: "conv3_1/sep"
  type: "Convolution"
  bottom: "conv3_1/dw"
  top: "conv3_1/sep"
  param {
    lr_mult: 1
    decay_mult: 1
  }
  convolution_param {
    num_output: 128
    bias_term: false
    pad: 0
    kernel_size: 1
    stride: 1
    weight_filler {
      type: "msra"
    }
  }
}
layer {
  name: "conv3_1/sep/bn"
  type: "BatchNorm"
  bottom: "conv3_1/sep"
  top: "conv3_1/sep"
  param {
    lr_mult: 0
    decay_mult: 0
  }
  param {
    lr_mult: 0
    decay_mult: 0
  }
  param {
    lr_mult: 0
    decay_mult: 0
  }
}
layer {
  name: "conv3_1/sep/scale"
  type: "Scale"
  bottom: "conv3_1/sep"
  top: "conv3_1/sep"
  scale_param {
    filler {
      value: 1
    }
    bias_term: true
    bias_filler {
      value: 0
    }
  }
}
layer {
  name: "relu3_1/sep"
  type: "ReLU"
  bottom: "conv3_1/sep"
  top: "conv3_1/sep"
}
layer {
  name: "conv3_2/dw"
  type: "ConvolutionDepthwise"
  bottom: "conv3_1/sep"
  top: "conv3_2/dw"
  param {
    lr_mult: 1
    decay_mult: 1
  }
  convolution_param {
    num_output: 128
    bias_term: false
    pad: 1
    kernel_size: 3
    group: 128
    stride: 2
    weight_filler {
      type: "msra"
    }
  }
}
layer {
  name: "conv3_2/dw/bn"
  type: "BatchNorm"
  bottom: "conv3_2/dw"
  top: "conv3_2/dw"
  param {
    lr_mult: 0
    decay_mult: 0
  }
  param {
    lr_mult: 0
    decay_mult: 0
  }
  param {
    lr_mult: 0
    decay_mult: 0
  }
}
layer {
  name: "conv3_2/dw/scale"
  type: "Scale"
  bottom: "conv3_2/dw"
  top: "conv3_2/dw"
  scale_param {
    filler {
      value: 1
    }
    bias_term: true
    bias_filler {
      value: 0
    }
  }
}
layer {
  name: "relu3_2/dw"
  type: "ReLU"
  bottom: "conv3_2/dw"
  top: "conv3_2/dw"
}
layer {
  name: "conv3_2/sep"
  type: "Convolution"
  bottom: "conv3_2/dw"
  top: "conv3_2/sep"
  param {
    lr_mult: 1
    decay_mult: 1
  }
  convolution_param {
    num_output: 256
    bias_term: false
    pad: 0
    kernel_size: 1
    stride: 1
    weight_filler {
      type: "msra"
    }
  }
}
layer {
  name: "conv3_2/sep/bn"
  type: "BatchNorm"
  bottom: "conv3_2/sep"
  top: "conv3_2/sep"
  param {
    lr_mult: 0
    decay_mult: 0
  }
  param {
    lr_mult: 0
    decay_mult: 0
  }
  param {
    lr_mult: 0
    decay_mult: 0
  }
}
layer {
  name: "conv3_2/sep/scale"
  type: "Scale"
  bottom: "conv3_2/sep"
  top: "conv3_2/sep"
  scale_param {
    filler {
      value: 1
    }
    bias_term: true
    bias_filler {
      value: 0
    }
  }
}
layer {
  name: "relu3_2/sep"
  type: "ReLU"
  bottom: "conv3_2/sep"
  top: "conv3_2/sep"
}
layer {
  name: "conv4_1/dw"
  type: "ConvolutionDepthwise"
  bottom: "conv3_2/sep"
  top: "conv4_1/dw"
  param {
    lr_mult: 1
    decay_mult: 1
  }
  convolution_param {
    num_output: 256
    bias_term: false
    pad: 1
    kernel_size: 3
    group: 256
    stride: 1
    weight_filler {
      type: "msra"
    }
  }
}
layer {
  name: "conv4_1/dw/bn"
  type: "BatchNorm"
  bottom: "conv4_1/dw"
  top: "conv4_1/dw"
  param {
    lr_mult: 0
    decay_mult: 0
  }
  param {
    lr_mult: 0
    decay_mult: 0
  }
  param {
    lr_mult: 0
    decay_mult: 0
  }
}
layer {
  name: "conv4_1/dw/scale"
  type: "Scale"
  bottom: "conv4_1/dw"
  top: "conv4_1/dw"
  scale_param {
    filler {
      value: 1
    }
    bias_term: true
    bias_filler {
      value: 0
    }
  }
}
layer {
  name: "relu4_1/dw"
  type: "ReLU"
  bottom: "conv4_1/dw"
  top: "conv4_1/dw"
}
layer {
  name: "conv4_1/sep"
  type: "Convolution"
  bottom: "conv4_1/dw"
  top: "conv4_1/sep"
  param {
    lr_mult: 1
    decay_mult: 1
  }
  convolution_param {
    num_output: 256
    bias_term: false
    pad: 0
    kernel_size: 1
    stride: 1
    weight_filler {
      type: "msra"
    }
  }
}
layer {
  name: "conv4_1/sep/bn"
  type: "BatchNorm"
  bottom: "conv4_1/sep"
  top: "conv4_1/sep"
  param {
    lr_mult: 0
    decay_mult: 0
  }
  param {
    lr_mult: 0
    decay_mult: 0
  }
  param {
    lr_mult: 0
    decay_mult: 0
  }
}
layer {
  name: "conv4_1/sep/scale"
  type: "Scale"
  bottom: "conv4_1/sep"
  top: "conv4_1/sep"
  scale_param {
    filler {
      value: 1
    }
    bias_term: true
    bias_filler {
      value: 0
    }
  }
}
layer {
  name: "relu4_1/sep"
  type: "ReLU"
  bottom: "conv4_1/sep"
  top: "conv4_1/sep"
}
layer {
  name: "conv4_2/dw"
  type: "ConvolutionDepthwise"
  bottom: "conv4_1/sep"
  top: "conv4_2/dw"
  param {
    lr_mult: 1
    decay_mult: 1
  }
  convolution_param {
    num_output: 256
    bias_term: false
    pad: 1
    kernel_size: 3
    group: 256
    stride: 2
    weight_filler {
      type: "msra"
    }
  }
}
layer {
  name: "conv4_2/dw/bn"
  type: "BatchNorm"
  bottom: "conv4_2/dw"
  top: "conv4_2/dw"
  param {
    lr_mult: 0
    decay_mult: 0
  }
  param {
    lr_mult: 0
    decay_mult: 0
  }
  param {
    lr_mult: 0
    decay_mult: 0
  }
}
layer {
  name: "conv4_2/dw/scale"
  type: "Scale"
  bottom: "conv4_2/dw"
  top: "conv4_2/dw"
  scale_param {
    filler {
      value: 1
    }
    bias_term: true
    bias_filler {
      value: 0
    }
  }
}
layer {
  name: "relu4_2/dw"
  type: "ReLU"
  bottom: "conv4_2/dw"
  top: "conv4_2/dw"
}
layer {
  name: "conv4_2/sep"
  type: "Convolution"
  bottom: "conv4_2/dw"
  top: "conv4_2/sep"
  param {
    lr_mult: 1
    decay_mult: 1
  }
  convolution_param {
    num_output: 512
    bias_term: false
    pad: 0
    kernel_size: 1
    stride: 1
    weight_filler {
      type: "msra"
    }
  }
}
layer {
  name: "conv4_2/sep/bn"
  type: "BatchNorm"
  bottom: "conv4_2/sep"
  top: "conv4_2/sep"
  param {
    lr_mult: 0
    decay_mult: 0
  }
  param {
    lr_mult: 0
    decay_mult: 0
  }
  param {
    lr_mult: 0
    decay_mult: 0
  }
}
layer {
  name: "conv4_2/sep/scale"
  type: "Scale"
  bottom: "conv4_2/sep"
  top: "conv4_2/sep"
  scale_param {
    filler {
      value: 1
    }
    bias_term: true
    bias_filler {
      value: 0
    }
  }
}
layer {
  name: "relu4_2/sep"
  type: "ReLU"
  bottom: "conv4_2/sep"
  top: "conv4_2/sep"
}
layer {
  name: "conv5_1/dw"
  type: "ConvolutionDepthwise"
  bottom: "conv4_2/sep"
  top: "conv5_1/dw"
  param {
    lr_mult: 1
    decay_mult: 1
  }
  convolution_param {
    num_output: 512
    bias_term: false
    pad: 1
    kernel_size: 3
    group: 512
    stride: 1
    weight_filler {
      type: "msra"
    }
  }
}
layer {
  name: "conv5_1/dw/bn"
  type: "BatchNorm"
  bottom: "conv5_1/dw"
  top: "conv5_1/dw"
  param {
    lr_mult: 0
    decay_mult: 0
  }
  param {
    lr_mult: 0
    decay_mult: 0
  }
  param {
    lr_mult: 0
    decay_mult: 0
  }
}
layer {
  name: "conv5_1/dw/scale"
  type: "Scale"
  bottom: "conv5_1/dw"
  top: "conv5_1/dw"
  scale_param {
    filler {
      value: 1
    }
    bias_term: true
    bias_filler {
      value: 0
    }
  }
}
layer {
  name: "relu5_1/dw"
  type: "ReLU"
  bottom: "conv5_1/dw"
  top: "conv5_1/dw"
}
layer {
  name: "conv5_1/sep"
  type: "Convolution"
  bottom: "conv5_1/dw"
  top: "conv5_1/sep"
  param {
    lr_mult: 1
    decay_mult: 1
  }
  convolution_param {
    num_output: 512
    bias_term: false
    pad: 0
    kernel_size: 1
    stride: 1
    weight_filler {
      type: "msra"
    }
  }
}
layer {
  name: "conv5_1/sep/bn"
  type: "BatchNorm"
  bottom: "conv5_1/sep"
  top: "conv5_1/sep"
  param {
    lr_mult: 0
    decay_mult: 0
  }
  param {
    lr_mult: 0
    decay_mult: 0
  }
  param {
    lr_mult: 0
    decay_mult: 0
  }
}
layer {
  name: "conv5_1/sep/scale"
  type: "Scale"
  bottom: "conv5_1/sep"
  top: "conv5_1/sep"
  scale_param {
    filler {
      value: 1
    }
    bias_term: true
    bias_filler {
      value: 0
    }
  }
}
layer {
  name: "relu5_1/sep"
  type: "ReLU"
  bottom: "conv5_1/sep"
  top: "conv5_1/sep"
}
layer {
  name: "conv5_2/dw"
  type: "ConvolutionDepthwise"
  bottom: "conv5_1/sep"
  top: "conv5_2/dw"
  param {
    lr_mult: 1
    decay_mult: 1
  }
  convolution_param {
    num_output: 512
    bias_term: false
    pad: 1
    kernel_size: 3
    group: 512
    stride: 1
    weight_filler {
      type: "msra"
    }
  }
}
layer {
  name: "conv5_2/dw/bn"
  type: "BatchNorm"
  bottom: "conv5_2/dw"
  top: "conv5_2/dw"
  param {
    lr_mult: 0
    decay_mult: 0
  }
  param {
    lr_mult: 0
    decay_mult: 0
  }
  param {
    lr_mult: 0
    decay_mult: 0
  }
}
layer {
  name: "conv5_2/dw/scale"
  type: "Scale"
  bottom: "conv5_2/dw"
  top: "conv5_2/dw"
  scale_param {
    filler {
      value: 1
    }
    bias_term: true
    bias_filler {
      value: 0
    }
  }
}
layer {
  name: "relu5_2/dw"
  type: "ReLU"
  bottom: "conv5_2/dw"
  top: "conv5_2/dw"
}
layer {
  name: "conv5_2/sep"
  type: "Convolution"
  bottom: "conv5_2/dw"
  top: "conv5_2/sep"
  param {
    lr_mult: 1
    decay_mult: 1
  }
  convolution_param {
    num_output: 512
    bias_term: false
    pad: 0
    kernel_size: 1
    stride: 1
    weight_filler {
      type: "msra"
    }
  }
}
layer {
  name: "conv5_2/sep/bn"
  type: "BatchNorm"
  bottom: "conv5_2/sep"
  top: "conv5_2/sep"
  param {
    lr_mult: 0
    decay_mult: 0
  }
  param {
    lr_mult: 0
    decay_mult: 0
  }
  param {
    lr_mult: 0
    decay_mult: 0
  }
}
layer {
  name: "conv5_2/sep/scale"
  type: "Scale"
  bottom: "conv5_2/sep"
  top: "conv5_2/sep"
  scale_param {
    filler {
      value: 1
    }
    bias_term: true
    bias_filler {
      value: 0
    }
  }
}
layer {
  name: "relu5_2/sep"
  type: "ReLU"
  bottom: "conv5_2/sep"
  top: "conv5_2/sep"
}
layer {
  name: "conv5_3/dw"
  type: "ConvolutionDepthwise"
  bottom: "conv5_2/sep"
  top: "conv5_3/dw"
  param {
    lr_mult: 1
    decay_mult: 1
  }
  convolution_param {
    num_output: 512
    bias_term: false
    pad: 1
    kernel_size: 3
    group: 512
    stride: 1
    weight_filler {
      type: "msra"
    }
  }
}
layer {
  name: "conv5_3/dw/bn"
  type: "BatchNorm"
  bottom: "conv5_3/dw"
  top: "conv5_3/dw"
  param {
    lr_mult: 0
    decay_mult: 0
  }
  param {
    lr_mult: 0
    decay_mult: 0
  }
  param {
    lr_mult: 0
    decay_mult: 0
  }
}
layer {
  name: "conv5_3/dw/scale"
  type: "Scale"
  bottom: "conv5_3/dw"
  top: "conv5_3/dw"
  scale_param {
    filler {
      value: 1
    }
    bias_term: true
    bias_filler {
      value: 0
    }
  }
}
layer {
  name: "relu5_3/dw"
  type: "ReLU"
  bottom: "conv5_3/dw"
  top: "conv5_3/dw"
}
layer {
  name: "conv5_3/sep"
  type: "Convolution"
  bottom: "conv5_3/dw"
  top: "conv5_3/sep"
  param {
    lr_mult: 1
    decay_mult: 1
  }
  convolution_param {
    num_output: 512
    bias_term: false
    pad: 0
    kernel_size: 1
    stride: 1
    weight_filler {
      type: "msra"
    }
  }
}
layer {
  name: "conv5_3/sep/bn"
  type: "BatchNorm"
  bottom: "conv5_3/sep"
  top: "conv5_3/sep"
  param {
    lr_mult: 0
    decay_mult: 0
  }
  param {
    lr_mult: 0
    decay_mult: 0
  }
  param {
    lr_mult: 0
    decay_mult: 0
  }
}
layer {
  name: "conv5_3/sep/scale"
  type: "Scale"
  bottom: "conv5_3/sep"
  top: "conv5_3/sep"
  scale_param {
    filler {
      value: 1
    }
    bias_term: true
    bias_filler {
      value: 0
    }
  }
}
layer {
  name: "relu5_3/sep"
  type: "ReLU"
  bottom: "conv5_3/sep"
  top: "conv5_3/sep"
}
layer {
  name: "conv5_4/dw"
  type: "ConvolutionDepthwise"
  bottom: "conv5_3/sep"
  top: "conv5_4/dw"
  param {
    lr_mult: 1
    decay_mult: 1
  }
  convolution_param {
    num_output: 512
    bias_term: false
    pad: 1
    kernel_size: 3
    group: 512
    stride: 1
    weight_filler {
      type: "msra"
    }
  }
}
layer {
  name: "conv5_4/dw/bn"
  type: "BatchNorm"
  bottom: "conv5_4/dw"
  top: "conv5_4/dw"
  param {
    lr_mult: 0
    decay_mult: 0
  }
  param {
    lr_mult: 0
    decay_mult: 0
  }
  param {
    lr_mult: 0
    decay_mult: 0
  }
}
layer {
  name: "conv5_4/dw/scale"
  type: "Scale"
  bottom: "conv5_4/dw"
  top: "conv5_4/dw"
  scale_param {
    filler {
      value: 1
    }
    bias_term: true
    bias_filler {
      value: 0
    }
  }
}
layer {
  name: "relu5_4/dw"
  type: "ReLU"
  bottom: "conv5_4/dw"
  top: "conv5_4/dw"
}
layer {
  name: "conv5_4/sep"
  type: "Convolution"
  bottom: "conv5_4/dw"
  top: "conv5_4/sep"
  param {
    lr_mult: 1
    decay_mult: 1
  }
  convolution_param {
    num_output: 512
    bias_term: false
    pad: 0
    kernel_size: 1
    stride: 1
    weight_filler {
      type: "msra"
    }
  }
}
layer {
  name: "conv5_4/sep/bn"
  type: "BatchNorm"
  bottom: "conv5_4/sep"
  top: "conv5_4/sep"
  param {
    lr_mult: 0
    decay_mult: 0
  }
  param {
    lr_mult: 0
    decay_mult: 0
  }
  param {
    lr_mult: 0
    decay_mult: 0
  }
}
layer {
  name: "conv5_4/sep/scale"
  type: "Scale"
  bottom: "conv5_4/sep"
  top: "conv5_4/sep"
  scale_param {
    filler {
      value: 1
    }
    bias_term: true
    bias_filler {
      value: 0
    }
  }
}
layer {
  name: "relu5_4/sep"
  type: "ReLU"
  bottom: "conv5_4/sep"
  top: "conv5_4/sep"
}
layer {
  name: "conv5_5/dw"
  type: "ConvolutionDepthwise"
  bottom: "conv5_4/sep"
  top: "conv5_5/dw"
  param {
    lr_mult: 1
    decay_mult: 1
  }
  convolution_param {
    num_output: 512
    bias_term: false
    pad: 1
    kernel_size: 3
    group: 512
    stride: 1
    weight_filler {
      type: "msra"
    }
  }
}
layer {
  name: "conv5_5/dw/bn"
  type: "BatchNorm"
  bottom: "conv5_5/dw"
  top: "conv5_5/dw"
  param {
    lr_mult: 0
    decay_mult: 0
  }
  param {
    lr_mult: 0
    decay_mult: 0
  }
  param {
    lr_mult: 0
    decay_mult: 0
  }
}
layer {
  name: "conv5_5/dw/scale"
  type: "Scale"
  bottom: "conv5_5/dw"
  top: "conv5_5/dw"
  scale_param {
    filler {
      value: 1
    }
    bias_term: true
    bias_filler {
      value: 0
    }
  }
}
layer {
  name: "relu5_5/dw"
  type: "ReLU"
  bottom: "conv5_5/dw"
  top: "conv5_5/dw"
}
layer {
  name: "conv5_5/sep"
  type: "Convolution"
  bottom: "conv5_5/dw"
  top: "conv5_5/sep"
  param {
    lr_mult: 1
    decay_mult: 1
  }
  convolution_param {
    num_output: 512
    bias_term: false
    pad: 0
    kernel_size: 1
    stride: 1
    weight_filler {
      type: "msra"
    }
  }
}
layer {
  name: "conv5_5/sep/bn"
  type: "BatchNorm"
  bottom: "conv5_5/sep"
  top: "conv5_5/sep"
  param {
    lr_mult: 0
    decay_mult: 0
  }
  param {
    lr_mult: 0
    decay_mult: 0
  }
  param {
    lr_mult: 0
    decay_mult: 0
  }
}
layer {
  name: "conv5_5/sep/scale"
  type: "Scale"
  bottom: "conv5_5/sep"
  top: "conv5_5/sep"
  scale_param {
    filler {
      value: 1
    }
    bias_term: true
    bias_filler {
      value: 0
    }
  }
}
layer {
  name: "relu5_5/sep"
  type: "ReLU"
  bottom: "conv5_5/sep"
  top: "conv5_5/sep"
}
layer {
  name: "conv5_6/dw"
  type: "ConvolutionDepthwise"
  bottom: "conv5_5/sep"
  top: "conv5_6/dw"
  param {
    lr_mult: 1
    decay_mult: 1
  }
  convolution_param {
    num_output: 512
    bias_term: false
    pad: 1
    kernel_size: 3
    group: 512
    stride: 2
    weight_filler {
      type: "msra"
    }
  }
}
layer {
  name: "conv5_6/dw/bn"
  type: "BatchNorm"
  bottom: "conv5_6/dw"
  top: "conv5_6/dw"
  param {
    lr_mult: 0
    decay_mult: 0
  }
  param {
    lr_mult: 0
    decay_mult: 0
  }
  param {
    lr_mult: 0
    decay_mult: 0
  }
}
layer {
  name: "conv5_6/dw/scale"
  type: "Scale"
  bottom: "conv5_6/dw"
  top: "conv5_6/dw"
  scale_param {
    filler {
      value: 1
    }
    bias_term: true
    bias_filler {
      value: 0
    }
  }
}
layer {
  name: "relu5_6/dw"
  type: "ReLU"
  bottom: "conv5_6/dw"
  top: "conv5_6/dw"
}
layer {
  name: "conv5_6/sep"
  type: "Convolution"
  bottom: "conv5_6/dw"
  top: "conv5_6/sep"
  param {
    lr_mult: 1
    decay_mult: 1
  }
  convolution_param {
    num_output: 1024
    bias_term: false
    pad: 0
    kernel_size: 1
    stride: 1
    weight_filler {
      type: "msra"
    }
  }
}
layer {
  name: "conv5_6/sep/bn"
  type: "BatchNorm"
  bottom: "conv5_6/sep"
  top: "conv5_6/sep"
  param {
    lr_mult: 0
    decay_mult: 0
  }
  param {
    lr_mult: 0
    decay_mult: 0
  }
  param {
    lr_mult: 0
    decay_mult: 0
  }
}
layer {
  name: "conv5_6/sep/scale"
  type: "Scale"
  bottom: "conv5_6/sep"
  top: "conv5_6/sep"
  scale_param {
    filler {
      value: 1
    }
    bias_term: true
    bias_filler {
      value: 0
    }
  }
}
layer {
  name: "relu5_6/sep"
  type: "ReLU"
  bottom: "conv5_6/sep"
  top: "conv5_6/sep"
}
layer {
  name: "conv6/dw"
  type: "ConvolutionDepthwise"
  bottom: "conv5_6/sep"
  top: "conv6/dw"
  param {
    lr_mult: 1
    decay_mult: 1
  }
  convolution_param {
    num_output: 1024
    bias_term: false
    pad: 1
    kernel_size: 3
    group: 1024
    stride: 1
    weight_filler {
      type: "msra"
    }
  }
}
layer {
  name: "conv6/dw/bn"
  type: "BatchNorm"
  bottom: "conv6/dw"
  top: "conv6/dw"
  param {
    lr_mult: 0
    decay_mult: 0
  }
  param {
    lr_mult: 0
    decay_mult: 0
  }
  param {
    lr_mult: 0
    decay_mult: 0
  }
}
layer {
  name: "conv6/dw/scale"
  type: "Scale"
  bottom: "conv6/dw"
  top: "conv6/dw"
  scale_param {
    filler {
      value: 1
    }
    bias_term: true
    bias_filler {
      value: 0
    }
  }
}
layer {
  name: "relu6/dw"
  type: "ReLU"
  bottom: "conv6/dw"
  top: "conv6/dw"
}
layer {
  name: "conv6/sep"
  type: "Convolution"
  bottom: "conv6/dw"
  top: "conv6/sep"
  param {
    lr_mult: 1
    decay_mult: 1
  }
  convolution_param {
    num_output: 1024
    bias_term: false
    pad: 0
    kernel_size: 1
    stride: 1
    weight_filler {
      type: "msra"
    }
  }
}
layer {
  name: "conv6/sep/bn"
  type: "BatchNorm"
  bottom: "conv6/sep"
  top: "conv6/sep"
  param {
    lr_mult: 0
    decay_mult: 0
  }
  param {
    lr_mult: 0
    decay_mult: 0
  }
  param {
    lr_mult: 0
    decay_mult: 0
  }
}
layer {
  name: "conv6/sep/scale"
  type: "Scale"
  bottom: "conv6/sep"
  top: "conv6/sep"
  scale_param {
    filler {
      value: 1
    }
    bias_term: true
    bias_filler {
      value: 0
    }
  }
}
layer {
  name: "relu6/sep"
  type: "ReLU"
  bottom: "conv6/sep"
  top: "conv6/sep"
}
layer {
  name: "pool6"
  type: "Pooling"
  bottom: "conv6/sep"
  top: "pool6"
  pooling_param {
    pool: AVE
    global_pooling: true
  }
}
layer {
  name: "fc7_oxford"
  type: "Convolution"
  bottom: "pool6"
  top: "fc7"
  param {
    lr_mult: 1
    decay_mult: 1
  }
  param {
    lr_mult: 2
    decay_mult: 0
  }
  convolution_param {
    num_output: 102
    kernel_size: 1
    weight_filler {
      type: "msra"
    }
    bias_filler {
      type: "constant"
      value: 0
    }
  }
}
layer {
  name: "accuracy"
  type: "Accuracy"
  bottom: "fc7"
  bottom: "label"
  top: "accuracy"
}
layer {
  name: "loss"
  type: "SoftmaxWithLoss"
  bottom: "fc7"
  bottom: "label"
  top: "loss"
}
I0617 01:38:25.924141 12178 layer_factory.hpp:77] Creating layer data
I0617 01:38:25.924222 12178 net.cpp:84] Creating Layer data
I0617 01:38:25.924247 12178 net.cpp:380] data -> data
I0617 01:38:25.924288 12178 net.cpp:380] data -> label
I0617 01:38:25.924321 12178 data_transformer.cpp:25] Loading mean file from: /home/xingzhaolong/caffe_project/caffe/models/caffe-oxford102/imagenet_mean.binaryproto
I0617 01:38:25.929363 12178 image_data_layer.cpp:38] Opening file /home/xingzhaolong/caffe_project/caffe/models/caffe-oxford102/test.txt
I0617 01:38:25.931640 12178 image_data_layer.cpp:63] A total of 6149 images.
I0617 01:38:25.940171 12178 image_data_layer.cpp:90] output data size: 50,3,224,224
I0617 01:38:26.040745 12178 net.cpp:122] Setting up data
I0617 01:38:26.040807 12178 net.cpp:129] Top shape: 50 3 224 224 (7526400)
I0617 01:38:26.040820 12178 net.cpp:129] Top shape: 50 (50)
I0617 01:38:26.040829 12178 net.cpp:137] Memory required for data: 30105800
I0617 01:38:26.040843 12178 layer_factory.hpp:77] Creating layer label_data_1_split
I0617 01:38:26.040868 12178 net.cpp:84] Creating Layer label_data_1_split
I0617 01:38:26.040882 12178 net.cpp:406] label_data_1_split <- label
I0617 01:38:26.040913 12178 net.cpp:380] label_data_1_split -> label_data_1_split_0
I0617 01:38:26.040935 12178 net.cpp:380] label_data_1_split -> label_data_1_split_1
I0617 01:38:26.040997 12178 net.cpp:122] Setting up label_data_1_split
I0617 01:38:26.041013 12178 net.cpp:129] Top shape: 50 (50)
I0617 01:38:26.041023 12178 net.cpp:129] Top shape: 50 (50)
I0617 01:38:26.041030 12178 net.cpp:137] Memory required for data: 30106200
I0617 01:38:26.041038 12178 layer_factory.hpp:77] Creating layer conv1
I0617 01:38:26.041070 12178 net.cpp:84] Creating Layer conv1
I0617 01:38:26.041080 12178 net.cpp:406] conv1 <- data
I0617 01:38:26.041095 12178 net.cpp:380] conv1 -> conv1
I0617 01:38:26.270287 12178 net.cpp:122] Setting up conv1
I0617 01:38:26.270352 12178 net.cpp:129] Top shape: 50 32 112 112 (20070400)
I0617 01:38:26.270364 12178 net.cpp:137] Memory required for data: 110387800
I0617 01:38:26.270400 12178 layer_factory.hpp:77] Creating layer conv1/bn
I0617 01:38:26.270426 12178 net.cpp:84] Creating Layer conv1/bn
I0617 01:38:26.270437 12178 net.cpp:406] conv1/bn <- conv1
I0617 01:38:26.270452 12178 net.cpp:367] conv1/bn -> conv1 (in-place)
I0617 01:38:26.271574 12178 net.cpp:122] Setting up conv1/bn
I0617 01:38:26.271597 12178 net.cpp:129] Top shape: 50 32 112 112 (20070400)
I0617 01:38:26.271607 12178 net.cpp:137] Memory required for data: 190669400
I0617 01:38:26.271627 12178 layer_factory.hpp:77] Creating layer conv1/scale
I0617 01:38:26.271651 12178 net.cpp:84] Creating Layer conv1/scale
I0617 01:38:26.271661 12178 net.cpp:406] conv1/scale <- conv1
I0617 01:38:26.271672 12178 net.cpp:367] conv1/scale -> conv1 (in-place)
I0617 01:38:26.271739 12178 layer_factory.hpp:77] Creating layer conv1/scale
I0617 01:38:26.271894 12178 net.cpp:122] Setting up conv1/scale
I0617 01:38:26.271912 12178 net.cpp:129] Top shape: 50 32 112 112 (20070400)
I0617 01:38:26.271921 12178 net.cpp:137] Memory required for data: 270951000
I0617 01:38:26.271936 12178 layer_factory.hpp:77] Creating layer relu1
I0617 01:38:26.271952 12178 net.cpp:84] Creating Layer relu1
I0617 01:38:26.271961 12178 net.cpp:406] relu1 <- conv1
I0617 01:38:26.271972 12178 net.cpp:367] relu1 -> conv1 (in-place)
I0617 01:38:26.272426 12178 net.cpp:122] Setting up relu1
I0617 01:38:26.272447 12178 net.cpp:129] Top shape: 50 32 112 112 (20070400)
I0617 01:38:26.272456 12178 net.cpp:137] Memory required for data: 351232600
I0617 01:38:26.272464 12178 layer_factory.hpp:77] Creating layer conv2_1/dw
I0617 01:38:26.272483 12178 net.cpp:84] Creating Layer conv2_1/dw
I0617 01:38:26.272493 12178 net.cpp:406] conv2_1/dw <- conv1
I0617 01:38:26.272506 12178 net.cpp:380] conv2_1/dw -> conv2_1/dw
I0617 01:38:26.275053 12178 net.cpp:122] Setting up conv2_1/dw
I0617 01:38:26.275077 12178 net.cpp:129] Top shape: 50 32 112 112 (20070400)
I0617 01:38:26.275086 12178 net.cpp:137] Memory required for data: 431514200
I0617 01:38:26.275097 12178 layer_factory.hpp:77] Creating layer conv2_1/dw/bn
I0617 01:38:26.275110 12178 net.cpp:84] Creating Layer conv2_1/dw/bn
I0617 01:38:26.275120 12178 net.cpp:406] conv2_1/dw/bn <- conv2_1/dw
I0617 01:38:26.275130 12178 net.cpp:367] conv2_1/dw/bn -> conv2_1/dw (in-place)
I0617 01:38:26.275348 12178 net.cpp:122] Setting up conv2_1/dw/bn
I0617 01:38:26.275365 12178 net.cpp:129] Top shape: 50 32 112 112 (20070400)
I0617 01:38:26.275374 12178 net.cpp:137] Memory required for data: 511795800
I0617 01:38:26.275393 12178 layer_factory.hpp:77] Creating layer conv2_1/dw/scale
I0617 01:38:26.275418 12178 net.cpp:84] Creating Layer conv2_1/dw/scale
I0617 01:38:26.275429 12178 net.cpp:406] conv2_1/dw/scale <- conv2_1/dw
I0617 01:38:26.275439 12178 net.cpp:367] conv2_1/dw/scale -> conv2_1/dw (in-place)
I0617 01:38:26.275493 12178 layer_factory.hpp:77] Creating layer conv2_1/dw/scale
I0617 01:38:26.275640 12178 net.cpp:122] Setting up conv2_1/dw/scale
I0617 01:38:26.275660 12178 net.cpp:129] Top shape: 50 32 112 112 (20070400)
I0617 01:38:26.275668 12178 net.cpp:137] Memory required for data: 592077400
I0617 01:38:26.275681 12178 layer_factory.hpp:77] Creating layer relu2_1/dw
I0617 01:38:26.275692 12178 net.cpp:84] Creating Layer relu2_1/dw
I0617 01:38:26.275701 12178 net.cpp:406] relu2_1/dw <- conv2_1/dw
I0617 01:38:26.275712 12178 net.cpp:367] relu2_1/dw -> conv2_1/dw (in-place)
I0617 01:38:26.275918 12178 net.cpp:122] Setting up relu2_1/dw
I0617 01:38:26.275936 12178 net.cpp:129] Top shape: 50 32 112 112 (20070400)
I0617 01:38:26.275945 12178 net.cpp:137] Memory required for data: 672359000
I0617 01:38:26.275954 12178 layer_factory.hpp:77] Creating layer conv2_1/sep
I0617 01:38:26.275969 12178 net.cpp:84] Creating Layer conv2_1/sep
I0617 01:38:26.275979 12178 net.cpp:406] conv2_1/sep <- conv2_1/dw
I0617 01:38:26.275991 12178 net.cpp:380] conv2_1/sep -> conv2_1/sep
I0617 01:38:26.278069 12178 net.cpp:122] Setting up conv2_1/sep
I0617 01:38:26.278092 12178 net.cpp:129] Top shape: 50 64 112 112 (40140800)
I0617 01:38:26.278102 12178 net.cpp:137] Memory required for data: 832922200
I0617 01:38:26.278112 12178 layer_factory.hpp:77] Creating layer conv2_1/sep/bn
I0617 01:38:26.278126 12178 net.cpp:84] Creating Layer conv2_1/sep/bn
I0617 01:38:26.278136 12178 net.cpp:406] conv2_1/sep/bn <- conv2_1/sep
I0617 01:38:26.278146 12178 net.cpp:367] conv2_1/sep/bn -> conv2_1/sep (in-place)
I0617 01:38:26.278367 12178 net.cpp:122] Setting up conv2_1/sep/bn
I0617 01:38:26.278384 12178 net.cpp:129] Top shape: 50 64 112 112 (40140800)
I0617 01:38:26.278393 12178 net.cpp:137] Memory required for data: 993485400
I0617 01:38:26.278406 12178 layer_factory.hpp:77] Creating layer conv2_1/sep/scale
I0617 01:38:26.278419 12178 net.cpp:84] Creating Layer conv2_1/sep/scale
I0617 01:38:26.278429 12178 net.cpp:406] conv2_1/sep/scale <- conv2_1/sep
I0617 01:38:26.278439 12178 net.cpp:367] conv2_1/sep/scale -> conv2_1/sep (in-place)
I0617 01:38:26.278491 12178 layer_factory.hpp:77] Creating layer conv2_1/sep/scale
I0617 01:38:26.278641 12178 net.cpp:122] Setting up conv2_1/sep/scale
I0617 01:38:26.278661 12178 net.cpp:129] Top shape: 50 64 112 112 (40140800)
I0617 01:38:26.278669 12178 net.cpp:137] Memory required for data: 1154048600
I0617 01:38:26.278686 12178 layer_factory.hpp:77] Creating layer relu2_1/sep
I0617 01:38:26.278697 12178 net.cpp:84] Creating Layer relu2_1/sep
I0617 01:38:26.278719 12178 net.cpp:406] relu2_1/sep <- conv2_1/sep
I0617 01:38:26.278731 12178 net.cpp:367] relu2_1/sep -> conv2_1/sep (in-place)
I0617 01:38:26.279136 12178 net.cpp:122] Setting up relu2_1/sep
I0617 01:38:26.279158 12178 net.cpp:129] Top shape: 50 64 112 112 (40140800)
I0617 01:38:26.279166 12178 net.cpp:137] Memory required for data: 1314611800
I0617 01:38:26.279175 12178 layer_factory.hpp:77] Creating layer conv2_2/dw
I0617 01:38:26.279189 12178 net.cpp:84] Creating Layer conv2_2/dw
I0617 01:38:26.279198 12178 net.cpp:406] conv2_2/dw <- conv2_1/sep
I0617 01:38:26.279211 12178 net.cpp:380] conv2_2/dw -> conv2_2/dw
I0617 01:38:26.280278 12178 net.cpp:122] Setting up conv2_2/dw
I0617 01:38:26.280303 12178 net.cpp:129] Top shape: 50 64 56 56 (10035200)
I0617 01:38:26.280311 12178 net.cpp:137] Memory required for data: 1354752600
I0617 01:38:26.280321 12178 layer_factory.hpp:77] Creating layer conv2_2/dw/bn
I0617 01:38:26.280335 12178 net.cpp:84] Creating Layer conv2_2/dw/bn
I0617 01:38:26.280344 12178 net.cpp:406] conv2_2/dw/bn <- conv2_2/dw
I0617 01:38:26.280356 12178 net.cpp:367] conv2_2/dw/bn -> conv2_2/dw (in-place)
I0617 01:38:26.280580 12178 net.cpp:122] Setting up conv2_2/dw/bn
I0617 01:38:26.280598 12178 net.cpp:129] Top shape: 50 64 56 56 (10035200)
I0617 01:38:26.280616 12178 net.cpp:137] Memory required for data: 1394893400
I0617 01:38:26.280629 12178 layer_factory.hpp:77] Creating layer conv2_2/dw/scale
I0617 01:38:26.280645 12178 net.cpp:84] Creating Layer conv2_2/dw/scale
I0617 01:38:26.280654 12178 net.cpp:406] conv2_2/dw/scale <- conv2_2/dw
I0617 01:38:26.280666 12178 net.cpp:367] conv2_2/dw/scale -> conv2_2/dw (in-place)
I0617 01:38:26.280720 12178 layer_factory.hpp:77] Creating layer conv2_2/dw/scale
I0617 01:38:26.280860 12178 net.cpp:122] Setting up conv2_2/dw/scale
I0617 01:38:26.280877 12178 net.cpp:129] Top shape: 50 64 56 56 (10035200)
I0617 01:38:26.280885 12178 net.cpp:137] Memory required for data: 1435034200
I0617 01:38:26.280897 12178 layer_factory.hpp:77] Creating layer relu2_2/dw
I0617 01:38:26.280908 12178 net.cpp:84] Creating Layer relu2_2/dw
I0617 01:38:26.280917 12178 net.cpp:406] relu2_2/dw <- conv2_2/dw
I0617 01:38:26.280928 12178 net.cpp:367] relu2_2/dw -> conv2_2/dw (in-place)
I0617 01:38:26.281136 12178 net.cpp:122] Setting up relu2_2/dw
I0617 01:38:26.281155 12178 net.cpp:129] Top shape: 50 64 56 56 (10035200)
I0617 01:38:26.281164 12178 net.cpp:137] Memory required for data: 1475175000
I0617 01:38:26.281172 12178 layer_factory.hpp:77] Creating layer conv2_2/sep
I0617 01:38:26.281188 12178 net.cpp:84] Creating Layer conv2_2/sep
I0617 01:38:26.281198 12178 net.cpp:406] conv2_2/sep <- conv2_2/dw
I0617 01:38:26.281210 12178 net.cpp:380] conv2_2/sep -> conv2_2/sep
I0617 01:38:26.282610 12178 net.cpp:122] Setting up conv2_2/sep
I0617 01:38:26.282639 12178 net.cpp:129] Top shape: 50 128 56 56 (20070400)
I0617 01:38:26.282649 12178 net.cpp:137] Memory required for data: 1555456600
I0617 01:38:26.282660 12178 layer_factory.hpp:77] Creating layer conv2_2/sep/bn
I0617 01:38:26.282672 12178 net.cpp:84] Creating Layer conv2_2/sep/bn
I0617 01:38:26.282682 12178 net.cpp:406] conv2_2/sep/bn <- conv2_2/sep
I0617 01:38:26.282696 12178 net.cpp:367] conv2_2/sep/bn -> conv2_2/sep (in-place)
I0617 01:38:26.282934 12178 net.cpp:122] Setting up conv2_2/sep/bn
I0617 01:38:26.282951 12178 net.cpp:129] Top shape: 50 128 56 56 (20070400)
I0617 01:38:26.282959 12178 net.cpp:137] Memory required for data: 1635738200
I0617 01:38:26.282974 12178 layer_factory.hpp:77] Creating layer conv2_2/sep/scale
I0617 01:38:26.282986 12178 net.cpp:84] Creating Layer conv2_2/sep/scale
I0617 01:38:26.282995 12178 net.cpp:406] conv2_2/sep/scale <- conv2_2/sep
I0617 01:38:26.283006 12178 net.cpp:367] conv2_2/sep/scale -> conv2_2/sep (in-place)
I0617 01:38:26.283063 12178 layer_factory.hpp:77] Creating layer conv2_2/sep/scale
I0617 01:38:26.283223 12178 net.cpp:122] Setting up conv2_2/sep/scale
I0617 01:38:26.283241 12178 net.cpp:129] Top shape: 50 128 56 56 (20070400)
I0617 01:38:26.283251 12178 net.cpp:137] Memory required for data: 1716019800
I0617 01:38:26.283273 12178 layer_factory.hpp:77] Creating layer relu2_2/sep
I0617 01:38:26.283287 12178 net.cpp:84] Creating Layer relu2_2/sep
I0617 01:38:26.283295 12178 net.cpp:406] relu2_2/sep <- conv2_2/sep
I0617 01:38:26.283308 12178 net.cpp:367] relu2_2/sep -> conv2_2/sep (in-place)
I0617 01:38:26.283550 12178 net.cpp:122] Setting up relu2_2/sep
I0617 01:38:26.283571 12178 net.cpp:129] Top shape: 50 128 56 56 (20070400)
I0617 01:38:26.283579 12178 net.cpp:137] Memory required for data: 1796301400
I0617 01:38:26.283587 12178 layer_factory.hpp:77] Creating layer conv3_1/dw
I0617 01:38:26.283604 12178 net.cpp:84] Creating Layer conv3_1/dw
I0617 01:38:26.283614 12178 net.cpp:406] conv3_1/dw <- conv2_2/sep
I0617 01:38:26.283627 12178 net.cpp:380] conv3_1/dw -> conv3_1/dw
I0617 01:38:26.284732 12178 net.cpp:122] Setting up conv3_1/dw
I0617 01:38:26.284755 12178 net.cpp:129] Top shape: 50 128 56 56 (20070400)
I0617 01:38:26.284765 12178 net.cpp:137] Memory required for data: 1876583000
I0617 01:38:26.284775 12178 layer_factory.hpp:77] Creating layer conv3_1/dw/bn
I0617 01:38:26.284793 12178 net.cpp:84] Creating Layer conv3_1/dw/bn
I0617 01:38:26.284803 12178 net.cpp:406] conv3_1/dw/bn <- conv3_1/dw
I0617 01:38:26.284822 12178 net.cpp:367] conv3_1/dw/bn -> conv3_1/dw (in-place)
I0617 01:38:26.285054 12178 net.cpp:122] Setting up conv3_1/dw/bn
I0617 01:38:26.285071 12178 net.cpp:129] Top shape: 50 128 56 56 (20070400)
I0617 01:38:26.285079 12178 net.cpp:137] Memory required for data: 1956864600
I0617 01:38:26.285099 12178 layer_factory.hpp:77] Creating layer conv3_1/dw/scale
I0617 01:38:26.285117 12178 net.cpp:84] Creating Layer conv3_1/dw/scale
I0617 01:38:26.285127 12178 net.cpp:406] conv3_1/dw/scale <- conv3_1/dw
I0617 01:38:26.285140 12178 net.cpp:367] conv3_1/dw/scale -> conv3_1/dw (in-place)
I0617 01:38:26.285198 12178 layer_factory.hpp:77] Creating layer conv3_1/dw/scale
I0617 01:38:26.285351 12178 net.cpp:122] Setting up conv3_1/dw/scale
I0617 01:38:26.285367 12178 net.cpp:129] Top shape: 50 128 56 56 (20070400)
I0617 01:38:26.285375 12178 net.cpp:137] Memory required for data: 2037146200
I0617 01:38:26.285387 12178 layer_factory.hpp:77] Creating layer relu3_1/dw
I0617 01:38:26.285399 12178 net.cpp:84] Creating Layer relu3_1/dw
I0617 01:38:26.285408 12178 net.cpp:406] relu3_1/dw <- conv3_1/dw
I0617 01:38:26.285421 12178 net.cpp:367] relu3_1/dw -> conv3_1/dw (in-place)
I0617 01:38:26.285877 12178 net.cpp:122] Setting up relu3_1/dw
I0617 01:38:26.285899 12178 net.cpp:129] Top shape: 50 128 56 56 (20070400)
I0617 01:38:26.285908 12178 net.cpp:137] Memory required for data: 2117427800
I0617 01:38:26.285917 12178 layer_factory.hpp:77] Creating layer conv3_1/sep
I0617 01:38:26.285943 12178 net.cpp:84] Creating Layer conv3_1/sep
I0617 01:38:26.285953 12178 net.cpp:406] conv3_1/sep <- conv3_1/dw
I0617 01:38:26.285965 12178 net.cpp:380] conv3_1/sep -> conv3_1/sep
I0617 01:38:26.287806 12178 net.cpp:122] Setting up conv3_1/sep
I0617 01:38:26.287829 12178 net.cpp:129] Top shape: 50 128 56 56 (20070400)
I0617 01:38:26.287838 12178 net.cpp:137] Memory required for data: 2197709400
I0617 01:38:26.287849 12178 layer_factory.hpp:77] Creating layer conv3_1/sep/bn
I0617 01:38:26.287866 12178 net.cpp:84] Creating Layer conv3_1/sep/bn
I0617 01:38:26.287876 12178 net.cpp:406] conv3_1/sep/bn <- conv3_1/sep
I0617 01:38:26.287888 12178 net.cpp:367] conv3_1/sep/bn -> conv3_1/sep (in-place)
I0617 01:38:26.288121 12178 net.cpp:122] Setting up conv3_1/sep/bn
I0617 01:38:26.288139 12178 net.cpp:129] Top shape: 50 128 56 56 (20070400)
I0617 01:38:26.288147 12178 net.cpp:137] Memory required for data: 2277991000
I0617 01:38:26.288161 12178 layer_factory.hpp:77] Creating layer conv3_1/sep/scale
I0617 01:38:26.288180 12178 net.cpp:84] Creating Layer conv3_1/sep/scale
I0617 01:38:26.288190 12178 net.cpp:406] conv3_1/sep/scale <- conv3_1/sep
I0617 01:38:26.288202 12178 net.cpp:367] conv3_1/sep/scale -> conv3_1/sep (in-place)
I0617 01:38:26.288260 12178 layer_factory.hpp:77] Creating layer conv3_1/sep/scale
I0617 01:38:26.288422 12178 net.cpp:122] Setting up conv3_1/sep/scale
I0617 01:38:26.288440 12178 net.cpp:129] Top shape: 50 128 56 56 (20070400)
I0617 01:38:26.288449 12178 net.cpp:137] Memory required for data: 2358272600
I0617 01:38:26.288460 12178 layer_factory.hpp:77] Creating layer relu3_1/sep
I0617 01:38:26.288471 12178 net.cpp:84] Creating Layer relu3_1/sep
I0617 01:38:26.288480 12178 net.cpp:406] relu3_1/sep <- conv3_1/sep
I0617 01:38:26.288493 12178 net.cpp:367] relu3_1/sep -> conv3_1/sep (in-place)
I0617 01:38:26.288735 12178 net.cpp:122] Setting up relu3_1/sep
I0617 01:38:26.288755 12178 net.cpp:129] Top shape: 50 128 56 56 (20070400)
I0617 01:38:26.288764 12178 net.cpp:137] Memory required for data: 2438554200
I0617 01:38:26.288772 12178 layer_factory.hpp:77] Creating layer conv3_2/dw
I0617 01:38:26.288789 12178 net.cpp:84] Creating Layer conv3_2/dw
I0617 01:38:26.288799 12178 net.cpp:406] conv3_2/dw <- conv3_1/sep
I0617 01:38:26.288815 12178 net.cpp:380] conv3_2/dw -> conv3_2/dw
I0617 01:38:26.289834 12178 net.cpp:122] Setting up conv3_2/dw
I0617 01:38:26.289860 12178 net.cpp:129] Top shape: 50 128 28 28 (5017600)
I0617 01:38:26.289870 12178 net.cpp:137] Memory required for data: 2458624600
I0617 01:38:26.289880 12178 layer_factory.hpp:77] Creating layer conv3_2/dw/bn
I0617 01:38:26.289899 12178 net.cpp:84] Creating Layer conv3_2/dw/bn
I0617 01:38:26.289909 12178 net.cpp:406] conv3_2/dw/bn <- conv3_2/dw
I0617 01:38:26.289924 12178 net.cpp:367] conv3_2/dw/bn -> conv3_2/dw (in-place)
I0617 01:38:26.290163 12178 net.cpp:122] Setting up conv3_2/dw/bn
I0617 01:38:26.290179 12178 net.cpp:129] Top shape: 50 128 28 28 (5017600)
I0617 01:38:26.290187 12178 net.cpp:137] Memory required for data: 2478695000
I0617 01:38:26.290200 12178 layer_factory.hpp:77] Creating layer conv3_2/dw/scale
I0617 01:38:26.290216 12178 net.cpp:84] Creating Layer conv3_2/dw/scale
I0617 01:38:26.290226 12178 net.cpp:406] conv3_2/dw/scale <- conv3_2/dw
I0617 01:38:26.290237 12178 net.cpp:367] conv3_2/dw/scale -> conv3_2/dw (in-place)
I0617 01:38:26.290298 12178 layer_factory.hpp:77] Creating layer conv3_2/dw/scale
I0617 01:38:26.290448 12178 net.cpp:122] Setting up conv3_2/dw/scale
I0617 01:38:26.290465 12178 net.cpp:129] Top shape: 50 128 28 28 (5017600)
I0617 01:38:26.290473 12178 net.cpp:137] Memory required for data: 2498765400
I0617 01:38:26.290484 12178 layer_factory.hpp:77] Creating layer relu3_2/dw
I0617 01:38:26.290496 12178 net.cpp:84] Creating Layer relu3_2/dw
I0617 01:38:26.290505 12178 net.cpp:406] relu3_2/dw <- conv3_2/dw
I0617 01:38:26.290526 12178 net.cpp:367] relu3_2/dw -> conv3_2/dw (in-place)
I0617 01:38:26.290982 12178 net.cpp:122] Setting up relu3_2/dw
I0617 01:38:26.291002 12178 net.cpp:129] Top shape: 50 128 28 28 (5017600)
I0617 01:38:26.291012 12178 net.cpp:137] Memory required for data: 2518835800
I0617 01:38:26.291020 12178 layer_factory.hpp:77] Creating layer conv3_2/sep
I0617 01:38:26.291038 12178 net.cpp:84] Creating Layer conv3_2/sep
I0617 01:38:26.291049 12178 net.cpp:406] conv3_2/sep <- conv3_2/dw
I0617 01:38:26.291072 12178 net.cpp:380] conv3_2/sep -> conv3_2/sep
I0617 01:38:26.292886 12178 net.cpp:122] Setting up conv3_2/sep
I0617 01:38:26.292912 12178 net.cpp:129] Top shape: 50 256 28 28 (10035200)
I0617 01:38:26.292919 12178 net.cpp:137] Memory required for data: 2558976600
I0617 01:38:26.292930 12178 layer_factory.hpp:77] Creating layer conv3_2/sep/bn
I0617 01:38:26.292946 12178 net.cpp:84] Creating Layer conv3_2/sep/bn
I0617 01:38:26.292956 12178 net.cpp:406] conv3_2/sep/bn <- conv3_2/sep
I0617 01:38:26.292968 12178 net.cpp:367] conv3_2/sep/bn -> conv3_2/sep (in-place)
I0617 01:38:26.293205 12178 net.cpp:122] Setting up conv3_2/sep/bn
I0617 01:38:26.293222 12178 net.cpp:129] Top shape: 50 256 28 28 (10035200)
I0617 01:38:26.293231 12178 net.cpp:137] Memory required for data: 2599117400
I0617 01:38:26.293243 12178 layer_factory.hpp:77] Creating layer conv3_2/sep/scale
I0617 01:38:26.293259 12178 net.cpp:84] Creating Layer conv3_2/sep/scale
I0617 01:38:26.293269 12178 net.cpp:406] conv3_2/sep/scale <- conv3_2/sep
I0617 01:38:26.293293 12178 net.cpp:367] conv3_2/sep/scale -> conv3_2/sep (in-place)
I0617 01:38:26.293354 12178 layer_factory.hpp:77] Creating layer conv3_2/sep/scale
I0617 01:38:26.293503 12178 net.cpp:122] Setting up conv3_2/sep/scale
I0617 01:38:26.293530 12178 net.cpp:129] Top shape: 50 256 28 28 (10035200)
I0617 01:38:26.293540 12178 net.cpp:137] Memory required for data: 2639258200
I0617 01:38:26.293551 12178 layer_factory.hpp:77] Creating layer relu3_2/sep
I0617 01:38:26.293566 12178 net.cpp:84] Creating Layer relu3_2/sep
I0617 01:38:26.293576 12178 net.cpp:406] relu3_2/sep <- conv3_2/sep
I0617 01:38:26.293586 12178 net.cpp:367] relu3_2/sep -> conv3_2/sep (in-place)
I0617 01:38:26.293808 12178 net.cpp:122] Setting up relu3_2/sep
I0617 01:38:26.293828 12178 net.cpp:129] Top shape: 50 256 28 28 (10035200)
I0617 01:38:26.293835 12178 net.cpp:137] Memory required for data: 2679399000
I0617 01:38:26.293843 12178 layer_factory.hpp:77] Creating layer conv4_1/dw
I0617 01:38:26.293859 12178 net.cpp:84] Creating Layer conv4_1/dw
I0617 01:38:26.293869 12178 net.cpp:406] conv4_1/dw <- conv3_2/sep
I0617 01:38:26.293886 12178 net.cpp:380] conv4_1/dw -> conv4_1/dw
I0617 01:38:26.294065 12178 net.cpp:122] Setting up conv4_1/dw
I0617 01:38:26.294083 12178 net.cpp:129] Top shape: 50 256 28 28 (10035200)
I0617 01:38:26.294100 12178 net.cpp:137] Memory required for data: 2719539800
I0617 01:38:26.294111 12178 layer_factory.hpp:77] Creating layer conv4_1/dw/bn
I0617 01:38:26.294126 12178 net.cpp:84] Creating Layer conv4_1/dw/bn
I0617 01:38:26.294136 12178 net.cpp:406] conv4_1/dw/bn <- conv4_1/dw
I0617 01:38:26.294147 12178 net.cpp:367] conv4_1/dw/bn -> conv4_1/dw (in-place)
I0617 01:38:26.294378 12178 net.cpp:122] Setting up conv4_1/dw/bn
I0617 01:38:26.294394 12178 net.cpp:129] Top shape: 50 256 28 28 (10035200)
I0617 01:38:26.294402 12178 net.cpp:137] Memory required for data: 2759680600
I0617 01:38:26.294415 12178 layer_factory.hpp:77] Creating layer conv4_1/dw/scale
I0617 01:38:26.294427 12178 net.cpp:84] Creating Layer conv4_1/dw/scale
I0617 01:38:26.294436 12178 net.cpp:406] conv4_1/dw/scale <- conv4_1/dw
I0617 01:38:26.294450 12178 net.cpp:367] conv4_1/dw/scale -> conv4_1/dw (in-place)
I0617 01:38:26.294504 12178 layer_factory.hpp:77] Creating layer conv4_1/dw/scale
I0617 01:38:26.294675 12178 net.cpp:122] Setting up conv4_1/dw/scale
I0617 01:38:26.294697 12178 net.cpp:129] Top shape: 50 256 28 28 (10035200)
I0617 01:38:26.294706 12178 net.cpp:137] Memory required for data: 2799821400
I0617 01:38:26.294718 12178 layer_factory.hpp:77] Creating layer relu4_1/dw
I0617 01:38:26.294729 12178 net.cpp:84] Creating Layer relu4_1/dw
I0617 01:38:26.294739 12178 net.cpp:406] relu4_1/dw <- conv4_1/dw
I0617 01:38:26.294749 12178 net.cpp:367] relu4_1/dw -> conv4_1/dw (in-place)
I0617 01:38:26.295189 12178 net.cpp:122] Setting up relu4_1/dw
I0617 01:38:26.295210 12178 net.cpp:129] Top shape: 50 256 28 28 (10035200)
I0617 01:38:26.295220 12178 net.cpp:137] Memory required for data: 2839962200
I0617 01:38:26.295228 12178 layer_factory.hpp:77] Creating layer conv4_1/sep
I0617 01:38:26.295248 12178 net.cpp:84] Creating Layer conv4_1/sep
I0617 01:38:26.295258 12178 net.cpp:406] conv4_1/sep <- conv4_1/dw
I0617 01:38:26.295274 12178 net.cpp:380] conv4_1/sep -> conv4_1/sep
I0617 01:38:26.297358 12178 net.cpp:122] Setting up conv4_1/sep
I0617 01:38:26.297382 12178 net.cpp:129] Top shape: 50 256 28 28 (10035200)
I0617 01:38:26.297391 12178 net.cpp:137] Memory required for data: 2880103000
I0617 01:38:26.297402 12178 layer_factory.hpp:77] Creating layer conv4_1/sep/bn
I0617 01:38:26.297420 12178 net.cpp:84] Creating Layer conv4_1/sep/bn
I0617 01:38:26.297430 12178 net.cpp:406] conv4_1/sep/bn <- conv4_1/sep
I0617 01:38:26.297441 12178 net.cpp:367] conv4_1/sep/bn -> conv4_1/sep (in-place)
I0617 01:38:26.297691 12178 net.cpp:122] Setting up conv4_1/sep/bn
I0617 01:38:26.297710 12178 net.cpp:129] Top shape: 50 256 28 28 (10035200)
I0617 01:38:26.297719 12178 net.cpp:137] Memory required for data: 2920243800
I0617 01:38:26.297732 12178 layer_factory.hpp:77] Creating layer conv4_1/sep/scale
I0617 01:38:26.297763 12178 net.cpp:84] Creating Layer conv4_1/sep/scale
I0617 01:38:26.297775 12178 net.cpp:406] conv4_1/sep/scale <- conv4_1/sep
I0617 01:38:26.297785 12178 net.cpp:367] conv4_1/sep/scale -> conv4_1/sep (in-place)
I0617 01:38:26.297847 12178 layer_factory.hpp:77] Creating layer conv4_1/sep/scale
I0617 01:38:26.298003 12178 net.cpp:122] Setting up conv4_1/sep/scale
I0617 01:38:26.298020 12178 net.cpp:129] Top shape: 50 256 28 28 (10035200)
I0617 01:38:26.298028 12178 net.cpp:137] Memory required for data: 2960384600
I0617 01:38:26.298063 12178 layer_factory.hpp:77] Creating layer relu4_1/sep
I0617 01:38:26.298076 12178 net.cpp:84] Creating Layer relu4_1/sep
I0617 01:38:26.298085 12178 net.cpp:406] relu4_1/sep <- conv4_1/sep
I0617 01:38:26.298099 12178 net.cpp:367] relu4_1/sep -> conv4_1/sep (in-place)
I0617 01:38:26.298557 12178 net.cpp:122] Setting up relu4_1/sep
I0617 01:38:26.298578 12178 net.cpp:129] Top shape: 50 256 28 28 (10035200)
I0617 01:38:26.298588 12178 net.cpp:137] Memory required for data: 3000525400
I0617 01:38:26.298595 12178 layer_factory.hpp:77] Creating layer conv4_2/dw
I0617 01:38:26.298614 12178 net.cpp:84] Creating Layer conv4_2/dw
I0617 01:38:26.298624 12178 net.cpp:406] conv4_2/dw <- conv4_1/sep
I0617 01:38:26.298647 12178 net.cpp:380] conv4_2/dw -> conv4_2/dw
I0617 01:38:26.298815 12178 net.cpp:122] Setting up conv4_2/dw
I0617 01:38:26.298832 12178 net.cpp:129] Top shape: 50 256 14 14 (2508800)
I0617 01:38:26.298840 12178 net.cpp:137] Memory required for data: 3010560600
I0617 01:38:26.298851 12178 layer_factory.hpp:77] Creating layer conv4_2/dw/bn
I0617 01:38:26.298871 12178 net.cpp:84] Creating Layer conv4_2/dw/bn
I0617 01:38:26.298882 12178 net.cpp:406] conv4_2/dw/bn <- conv4_2/dw
I0617 01:38:26.298897 12178 net.cpp:367] conv4_2/dw/bn -> conv4_2/dw (in-place)
I0617 01:38:26.299137 12178 net.cpp:122] Setting up conv4_2/dw/bn
I0617 01:38:26.299154 12178 net.cpp:129] Top shape: 50 256 14 14 (2508800)
I0617 01:38:26.299162 12178 net.cpp:137] Memory required for data: 3020595800
I0617 01:38:26.299175 12178 layer_factory.hpp:77] Creating layer conv4_2/dw/scale
I0617 01:38:26.299188 12178 net.cpp:84] Creating Layer conv4_2/dw/scale
I0617 01:38:26.299197 12178 net.cpp:406] conv4_2/dw/scale <- conv4_2/dw
I0617 01:38:26.299211 12178 net.cpp:367] conv4_2/dw/scale -> conv4_2/dw (in-place)
I0617 01:38:26.299268 12178 layer_factory.hpp:77] Creating layer conv4_2/dw/scale
I0617 01:38:26.299418 12178 net.cpp:122] Setting up conv4_2/dw/scale
I0617 01:38:26.299435 12178 net.cpp:129] Top shape: 50 256 14 14 (2508800)
I0617 01:38:26.299444 12178 net.cpp:137] Memory required for data: 3030631000
I0617 01:38:26.299455 12178 layer_factory.hpp:77] Creating layer relu4_2/dw
I0617 01:38:26.299468 12178 net.cpp:84] Creating Layer relu4_2/dw
I0617 01:38:26.299475 12178 net.cpp:406] relu4_2/dw <- conv4_2/dw
I0617 01:38:26.299485 12178 net.cpp:367] relu4_2/dw -> conv4_2/dw (in-place)
I0617 01:38:26.299932 12178 net.cpp:122] Setting up relu4_2/dw
I0617 01:38:26.299955 12178 net.cpp:129] Top shape: 50 256 14 14 (2508800)
I0617 01:38:26.299963 12178 net.cpp:137] Memory required for data: 3040666200
I0617 01:38:26.299973 12178 layer_factory.hpp:77] Creating layer conv4_2/sep
I0617 01:38:26.299990 12178 net.cpp:84] Creating Layer conv4_2/sep
I0617 01:38:26.300000 12178 net.cpp:406] conv4_2/sep <- conv4_2/dw
I0617 01:38:26.300016 12178 net.cpp:380] conv4_2/sep -> conv4_2/sep
I0617 01:38:26.304081 12178 net.cpp:122] Setting up conv4_2/sep
I0617 01:38:26.304107 12178 net.cpp:129] Top shape: 50 512 14 14 (5017600)
I0617 01:38:26.304117 12178 net.cpp:137] Memory required for data: 3060736600
I0617 01:38:26.304128 12178 layer_factory.hpp:77] Creating layer conv4_2/sep/bn
I0617 01:38:26.304144 12178 net.cpp:84] Creating Layer conv4_2/sep/bn
I0617 01:38:26.304154 12178 net.cpp:406] conv4_2/sep/bn <- conv4_2/sep
I0617 01:38:26.304167 12178 net.cpp:367] conv4_2/sep/bn -> conv4_2/sep (in-place)
I0617 01:38:26.304425 12178 net.cpp:122] Setting up conv4_2/sep/bn
I0617 01:38:26.304455 12178 net.cpp:129] Top shape: 50 512 14 14 (5017600)
I0617 01:38:26.304463 12178 net.cpp:137] Memory required for data: 3080807000
I0617 01:38:26.304477 12178 layer_factory.hpp:77] Creating layer conv4_2/sep/scale
I0617 01:38:26.304491 12178 net.cpp:84] Creating Layer conv4_2/sep/scale
I0617 01:38:26.304499 12178 net.cpp:406] conv4_2/sep/scale <- conv4_2/sep
I0617 01:38:26.304510 12178 net.cpp:367] conv4_2/sep/scale -> conv4_2/sep (in-place)
I0617 01:38:26.304582 12178 layer_factory.hpp:77] Creating layer conv4_2/sep/scale
I0617 01:38:26.304739 12178 net.cpp:122] Setting up conv4_2/sep/scale
I0617 01:38:26.304757 12178 net.cpp:129] Top shape: 50 512 14 14 (5017600)
I0617 01:38:26.304765 12178 net.cpp:137] Memory required for data: 3100877400
I0617 01:38:26.304777 12178 layer_factory.hpp:77] Creating layer relu4_2/sep
I0617 01:38:26.304800 12178 net.cpp:84] Creating Layer relu4_2/sep
I0617 01:38:26.304810 12178 net.cpp:406] relu4_2/sep <- conv4_2/sep
I0617 01:38:26.304821 12178 net.cpp:367] relu4_2/sep -> conv4_2/sep (in-place)
I0617 01:38:26.305249 12178 net.cpp:122] Setting up relu4_2/sep
I0617 01:38:26.305275 12178 net.cpp:129] Top shape: 50 512 14 14 (5017600)
I0617 01:38:26.305285 12178 net.cpp:137] Memory required for data: 3120947800
I0617 01:38:26.305300 12178 layer_factory.hpp:77] Creating layer conv5_1/dw
I0617 01:38:26.305315 12178 net.cpp:84] Creating Layer conv5_1/dw
I0617 01:38:26.305325 12178 net.cpp:406] conv5_1/dw <- conv4_2/sep
I0617 01:38:26.305341 12178 net.cpp:380] conv5_1/dw -> conv5_1/dw
I0617 01:38:26.305560 12178 net.cpp:122] Setting up conv5_1/dw
I0617 01:38:26.305583 12178 net.cpp:129] Top shape: 50 512 14 14 (5017600)
I0617 01:38:26.305591 12178 net.cpp:137] Memory required for data: 3141018200
I0617 01:38:26.305601 12178 layer_factory.hpp:77] Creating layer conv5_1/dw/bn
I0617 01:38:26.305613 12178 net.cpp:84] Creating Layer conv5_1/dw/bn
I0617 01:38:26.305622 12178 net.cpp:406] conv5_1/dw/bn <- conv5_1/dw
I0617 01:38:26.305636 12178 net.cpp:367] conv5_1/dw/bn -> conv5_1/dw (in-place)
I0617 01:38:26.305886 12178 net.cpp:122] Setting up conv5_1/dw/bn
I0617 01:38:26.305903 12178 net.cpp:129] Top shape: 50 512 14 14 (5017600)
I0617 01:38:26.305912 12178 net.cpp:137] Memory required for data: 3161088600
I0617 01:38:26.305924 12178 layer_factory.hpp:77] Creating layer conv5_1/dw/scale
I0617 01:38:26.305938 12178 net.cpp:84] Creating Layer conv5_1/dw/scale
I0617 01:38:26.305946 12178 net.cpp:406] conv5_1/dw/scale <- conv5_1/dw
I0617 01:38:26.305956 12178 net.cpp:367] conv5_1/dw/scale -> conv5_1/dw (in-place)
I0617 01:38:26.306015 12178 layer_factory.hpp:77] Creating layer conv5_1/dw/scale
I0617 01:38:26.306171 12178 net.cpp:122] Setting up conv5_1/dw/scale
I0617 01:38:26.306190 12178 net.cpp:129] Top shape: 50 512 14 14 (5017600)
I0617 01:38:26.306197 12178 net.cpp:137] Memory required for data: 3181159000
I0617 01:38:26.306210 12178 layer_factory.hpp:77] Creating layer relu5_1/dw
I0617 01:38:26.306221 12178 net.cpp:84] Creating Layer relu5_1/dw
I0617 01:38:26.306229 12178 net.cpp:406] relu5_1/dw <- conv5_1/dw
I0617 01:38:26.306242 12178 net.cpp:367] relu5_1/dw -> conv5_1/dw (in-place)
I0617 01:38:26.306484 12178 net.cpp:122] Setting up relu5_1/dw
I0617 01:38:26.306504 12178 net.cpp:129] Top shape: 50 512 14 14 (5017600)
I0617 01:38:26.306519 12178 net.cpp:137] Memory required for data: 3201229400
I0617 01:38:26.306529 12178 layer_factory.hpp:77] Creating layer conv5_1/sep
I0617 01:38:26.306548 12178 net.cpp:84] Creating Layer conv5_1/sep
I0617 01:38:26.306558 12178 net.cpp:406] conv5_1/sep <- conv5_1/dw
I0617 01:38:26.306571 12178 net.cpp:380] conv5_1/sep -> conv5_1/sep
I0617 01:38:26.312628 12178 net.cpp:122] Setting up conv5_1/sep
I0617 01:38:26.312652 12178 net.cpp:129] Top shape: 50 512 14 14 (5017600)
I0617 01:38:26.312661 12178 net.cpp:137] Memory required for data: 3221299800
I0617 01:38:26.312672 12178 layer_factory.hpp:77] Creating layer conv5_1/sep/bn
I0617 01:38:26.312690 12178 net.cpp:84] Creating Layer conv5_1/sep/bn
I0617 01:38:26.312700 12178 net.cpp:406] conv5_1/sep/bn <- conv5_1/sep
I0617 01:38:26.312722 12178 net.cpp:367] conv5_1/sep/bn -> conv5_1/sep (in-place)
I0617 01:38:26.312981 12178 net.cpp:122] Setting up conv5_1/sep/bn
I0617 01:38:26.312999 12178 net.cpp:129] Top shape: 50 512 14 14 (5017600)
I0617 01:38:26.313007 12178 net.cpp:137] Memory required for data: 3241370200
I0617 01:38:26.313021 12178 layer_factory.hpp:77] Creating layer conv5_1/sep/scale
I0617 01:38:26.313035 12178 net.cpp:84] Creating Layer conv5_1/sep/scale
I0617 01:38:26.313043 12178 net.cpp:406] conv5_1/sep/scale <- conv5_1/sep
I0617 01:38:26.313058 12178 net.cpp:367] conv5_1/sep/scale -> conv5_1/sep (in-place)
I0617 01:38:26.313114 12178 layer_factory.hpp:77] Creating layer conv5_1/sep/scale
I0617 01:38:26.313269 12178 net.cpp:122] Setting up conv5_1/sep/scale
I0617 01:38:26.313289 12178 net.cpp:129] Top shape: 50 512 14 14 (5017600)
I0617 01:38:26.313298 12178 net.cpp:137] Memory required for data: 3261440600
I0617 01:38:26.313310 12178 layer_factory.hpp:77] Creating layer relu5_1/sep
I0617 01:38:26.313321 12178 net.cpp:84] Creating Layer relu5_1/sep
I0617 01:38:26.313330 12178 net.cpp:406] relu5_1/sep <- conv5_1/sep
I0617 01:38:26.313340 12178 net.cpp:367] relu5_1/sep -> conv5_1/sep (in-place)
I0617 01:38:26.313804 12178 net.cpp:122] Setting up relu5_1/sep
I0617 01:38:26.313834 12178 net.cpp:129] Top shape: 50 512 14 14 (5017600)
I0617 01:38:26.313844 12178 net.cpp:137] Memory required for data: 3281511000
I0617 01:38:26.313853 12178 layer_factory.hpp:77] Creating layer conv5_2/dw
I0617 01:38:26.313870 12178 net.cpp:84] Creating Layer conv5_2/dw
I0617 01:38:26.313880 12178 net.cpp:406] conv5_2/dw <- conv5_1/sep
I0617 01:38:26.313896 12178 net.cpp:380] conv5_2/dw -> conv5_2/dw
I0617 01:38:26.314107 12178 net.cpp:122] Setting up conv5_2/dw
I0617 01:38:26.314126 12178 net.cpp:129] Top shape: 50 512 14 14 (5017600)
I0617 01:38:26.314134 12178 net.cpp:137] Memory required for data: 3301581400
I0617 01:38:26.314144 12178 layer_factory.hpp:77] Creating layer conv5_2/dw/bn
I0617 01:38:26.314160 12178 net.cpp:84] Creating Layer conv5_2/dw/bn
I0617 01:38:26.314169 12178 net.cpp:406] conv5_2/dw/bn <- conv5_2/dw
I0617 01:38:26.314184 12178 net.cpp:367] conv5_2/dw/bn -> conv5_2/dw (in-place)
I0617 01:38:26.314430 12178 net.cpp:122] Setting up conv5_2/dw/bn
I0617 01:38:26.314447 12178 net.cpp:129] Top shape: 50 512 14 14 (5017600)
I0617 01:38:26.314455 12178 net.cpp:137] Memory required for data: 3321651800
I0617 01:38:26.314468 12178 layer_factory.hpp:77] Creating layer conv5_2/dw/scale
I0617 01:38:26.314491 12178 net.cpp:84] Creating Layer conv5_2/dw/scale
I0617 01:38:26.314502 12178 net.cpp:406] conv5_2/dw/scale <- conv5_2/dw
I0617 01:38:26.314518 12178 net.cpp:367] conv5_2/dw/scale -> conv5_2/dw (in-place)
I0617 01:38:26.314585 12178 layer_factory.hpp:77] Creating layer conv5_2/dw/scale
I0617 01:38:26.314744 12178 net.cpp:122] Setting up conv5_2/dw/scale
I0617 01:38:26.314762 12178 net.cpp:129] Top shape: 50 512 14 14 (5017600)
I0617 01:38:26.314770 12178 net.cpp:137] Memory required for data: 3341722200
I0617 01:38:26.314782 12178 layer_factory.hpp:77] Creating layer relu5_2/dw
I0617 01:38:26.314798 12178 net.cpp:84] Creating Layer relu5_2/dw
I0617 01:38:26.314807 12178 net.cpp:406] relu5_2/dw <- conv5_2/dw
I0617 01:38:26.314818 12178 net.cpp:367] relu5_2/dw -> conv5_2/dw (in-place)
I0617 01:38:26.315043 12178 net.cpp:122] Setting up relu5_2/dw
I0617 01:38:26.315062 12178 net.cpp:129] Top shape: 50 512 14 14 (5017600)
I0617 01:38:26.315071 12178 net.cpp:137] Memory required for data: 3361792600
I0617 01:38:26.315079 12178 layer_factory.hpp:77] Creating layer conv5_2/sep
I0617 01:38:26.315134 12178 net.cpp:84] Creating Layer conv5_2/sep
I0617 01:38:26.315147 12178 net.cpp:406] conv5_2/sep <- conv5_2/dw
I0617 01:38:26.315160 12178 net.cpp:380] conv5_2/sep -> conv5_2/sep
I0617 01:38:26.320951 12178 net.cpp:122] Setting up conv5_2/sep
I0617 01:38:26.320976 12178 net.cpp:129] Top shape: 50 512 14 14 (5017600)
I0617 01:38:26.320986 12178 net.cpp:137] Memory required for data: 3381863000
I0617 01:38:26.320996 12178 layer_factory.hpp:77] Creating layer conv5_2/sep/bn
I0617 01:38:26.321024 12178 net.cpp:84] Creating Layer conv5_2/sep/bn
I0617 01:38:26.321034 12178 net.cpp:406] conv5_2/sep/bn <- conv5_2/sep
I0617 01:38:26.321046 12178 net.cpp:367] conv5_2/sep/bn -> conv5_2/sep (in-place)
I0617 01:38:26.321303 12178 net.cpp:122] Setting up conv5_2/sep/bn
I0617 01:38:26.321321 12178 net.cpp:129] Top shape: 50 512 14 14 (5017600)
I0617 01:38:26.321329 12178 net.cpp:137] Memory required for data: 3401933400
I0617 01:38:26.321343 12178 layer_factory.hpp:77] Creating layer conv5_2/sep/scale
I0617 01:38:26.321357 12178 net.cpp:84] Creating Layer conv5_2/sep/scale
I0617 01:38:26.321364 12178 net.cpp:406] conv5_2/sep/scale <- conv5_2/sep
I0617 01:38:26.321379 12178 net.cpp:367] conv5_2/sep/scale -> conv5_2/sep (in-place)
I0617 01:38:26.321435 12178 layer_factory.hpp:77] Creating layer conv5_2/sep/scale
I0617 01:38:26.321604 12178 net.cpp:122] Setting up conv5_2/sep/scale
I0617 01:38:26.321627 12178 net.cpp:129] Top shape: 50 512 14 14 (5017600)
I0617 01:38:26.321636 12178 net.cpp:137] Memory required for data: 3422003800
I0617 01:38:26.321648 12178 layer_factory.hpp:77] Creating layer relu5_2/sep
I0617 01:38:26.321660 12178 net.cpp:84] Creating Layer relu5_2/sep
I0617 01:38:26.321668 12178 net.cpp:406] relu5_2/sep <- conv5_2/sep
I0617 01:38:26.321686 12178 net.cpp:367] relu5_2/sep -> conv5_2/sep (in-place)
I0617 01:38:26.322149 12178 net.cpp:122] Setting up relu5_2/sep
I0617 01:38:26.322170 12178 net.cpp:129] Top shape: 50 512 14 14 (5017600)
I0617 01:38:26.322180 12178 net.cpp:137] Memory required for data: 3442074200
I0617 01:38:26.322188 12178 layer_factory.hpp:77] Creating layer conv5_3/dw
I0617 01:38:26.322206 12178 net.cpp:84] Creating Layer conv5_3/dw
I0617 01:38:26.322216 12178 net.cpp:406] conv5_3/dw <- conv5_2/sep
I0617 01:38:26.322232 12178 net.cpp:380] conv5_3/dw -> conv5_3/dw
I0617 01:38:26.322446 12178 net.cpp:122] Setting up conv5_3/dw
I0617 01:38:26.322468 12178 net.cpp:129] Top shape: 50 512 14 14 (5017600)
I0617 01:38:26.322477 12178 net.cpp:137] Memory required for data: 3462144600
I0617 01:38:26.322489 12178 layer_factory.hpp:77] Creating layer conv5_3/dw/bn
I0617 01:38:26.322505 12178 net.cpp:84] Creating Layer conv5_3/dw/bn
I0617 01:38:26.322525 12178 net.cpp:406] conv5_3/dw/bn <- conv5_3/dw
I0617 01:38:26.322541 12178 net.cpp:367] conv5_3/dw/bn -> conv5_3/dw (in-place)
I0617 01:38:26.322785 12178 net.cpp:122] Setting up conv5_3/dw/bn
I0617 01:38:26.322803 12178 net.cpp:129] Top shape: 50 512 14 14 (5017600)
I0617 01:38:26.322810 12178 net.cpp:137] Memory required for data: 3482215000
I0617 01:38:26.322824 12178 layer_factory.hpp:77] Creating layer conv5_3/dw/scale
I0617 01:38:26.322836 12178 net.cpp:84] Creating Layer conv5_3/dw/scale
I0617 01:38:26.322845 12178 net.cpp:406] conv5_3/dw/scale <- conv5_3/dw
I0617 01:38:26.322860 12178 net.cpp:367] conv5_3/dw/scale -> conv5_3/dw (in-place)
I0617 01:38:26.322916 12178 layer_factory.hpp:77] Creating layer conv5_3/dw/scale
I0617 01:38:26.323078 12178 net.cpp:122] Setting up conv5_3/dw/scale
I0617 01:38:26.323096 12178 net.cpp:129] Top shape: 50 512 14 14 (5017600)
I0617 01:38:26.323103 12178 net.cpp:137] Memory required for data: 3502285400
I0617 01:38:26.323115 12178 layer_factory.hpp:77] Creating layer relu5_3/dw
I0617 01:38:26.323127 12178 net.cpp:84] Creating Layer relu5_3/dw
I0617 01:38:26.323135 12178 net.cpp:406] relu5_3/dw <- conv5_3/dw
I0617 01:38:26.323146 12178 net.cpp:367] relu5_3/dw -> conv5_3/dw (in-place)
I0617 01:38:26.323381 12178 net.cpp:122] Setting up relu5_3/dw
I0617 01:38:26.323402 12178 net.cpp:129] Top shape: 50 512 14 14 (5017600)
I0617 01:38:26.323411 12178 net.cpp:137] Memory required for data: 3522355800
I0617 01:38:26.323420 12178 layer_factory.hpp:77] Creating layer conv5_3/sep
I0617 01:38:26.323437 12178 net.cpp:84] Creating Layer conv5_3/sep
I0617 01:38:26.323447 12178 net.cpp:406] conv5_3/sep <- conv5_3/dw
I0617 01:38:26.323459 12178 net.cpp:380] conv5_3/sep -> conv5_3/sep
I0617 01:38:26.329282 12178 net.cpp:122] Setting up conv5_3/sep
I0617 01:38:26.329320 12178 net.cpp:129] Top shape: 50 512 14 14 (5017600)
I0617 01:38:26.329330 12178 net.cpp:137] Memory required for data: 3542426200
I0617 01:38:26.329341 12178 layer_factory.hpp:77] Creating layer conv5_3/sep/bn
I0617 01:38:26.329355 12178 net.cpp:84] Creating Layer conv5_3/sep/bn
I0617 01:38:26.329363 12178 net.cpp:406] conv5_3/sep/bn <- conv5_3/sep
I0617 01:38:26.329378 12178 net.cpp:367] conv5_3/sep/bn -> conv5_3/sep (in-place)
I0617 01:38:26.329653 12178 net.cpp:122] Setting up conv5_3/sep/bn
I0617 01:38:26.329674 12178 net.cpp:129] Top shape: 50 512 14 14 (5017600)
I0617 01:38:26.329681 12178 net.cpp:137] Memory required for data: 3562496600
I0617 01:38:26.329695 12178 layer_factory.hpp:77] Creating layer conv5_3/sep/scale
I0617 01:38:26.329708 12178 net.cpp:84] Creating Layer conv5_3/sep/scale
I0617 01:38:26.329717 12178 net.cpp:406] conv5_3/sep/scale <- conv5_3/sep
I0617 01:38:26.329728 12178 net.cpp:367] conv5_3/sep/scale -> conv5_3/sep (in-place)
I0617 01:38:26.329788 12178 layer_factory.hpp:77] Creating layer conv5_3/sep/scale
I0617 01:38:26.329947 12178 net.cpp:122] Setting up conv5_3/sep/scale
I0617 01:38:26.329967 12178 net.cpp:129] Top shape: 50 512 14 14 (5017600)
I0617 01:38:26.329977 12178 net.cpp:137] Memory required for data: 3582567000
I0617 01:38:26.329995 12178 layer_factory.hpp:77] Creating layer relu5_3/sep
I0617 01:38:26.330008 12178 net.cpp:84] Creating Layer relu5_3/sep
I0617 01:38:26.330016 12178 net.cpp:406] relu5_3/sep <- conv5_3/sep
I0617 01:38:26.330030 12178 net.cpp:367] relu5_3/sep -> conv5_3/sep (in-place)
I0617 01:38:26.330276 12178 net.cpp:122] Setting up relu5_3/sep
I0617 01:38:26.330294 12178 net.cpp:129] Top shape: 50 512 14 14 (5017600)
I0617 01:38:26.330303 12178 net.cpp:137] Memory required for data: 3602637400
I0617 01:38:26.330312 12178 layer_factory.hpp:77] Creating layer conv5_4/dw
…
I0620 22:47:16.484738 32183 net.cpp:122] Setting up conv2_2/sep/bn
I0620 22:47:16.484756 32183 net.cpp:129] Top shape: 10 128 56 56 (4014080)
I0620 22:47:16.484764 32183 net.cpp:137] Memory required for data: 327147640
I0620 22:47:16.484778 32183 layer_factory.hpp:77] Creating layer conv2_2/sep/scale
I0620 22:47:16.484792 32183 net.cpp:84] Creating Layer conv2_2/sep/scale
I0620 22:47:16.484800 32183 net.cpp:406] conv2_2/sep/scale <- conv2_2/sep
I0620 22:47:16.484812 32183 net.cpp:367] conv2_2/sep/scale -> conv2_2/sep (in-place)
I0620 22:47:16.484872 32183 layer_factory.hpp:77] Creating layer conv2_2/sep/scale
I0620 22:47:16.485033 32183 net.cpp:122] Setting up conv2_2/sep/scale
I0620 22:47:16.485051 32183 net.cpp:129] Top shape: 10 128 56 56 (4014080)
I0620 22:47:16.485059 32183 net.cpp:137] Memory required for data: 343203960
I0620 22:47:16.485071 32183 layer_factory.hpp:77] Creating layer relu2_2/sep
I0620 22:47:16.485083 32183 net.cpp:84] Creating Layer relu2_2/sep
I0620 22:47:16.485105 32183 net.cpp:406] relu2_2/sep <- conv2_2/sep
I0620 22:47:16.485117 32183 net.cpp:367] relu2_2/sep -> conv2_2/sep (in-place)
I0620 22:47:16.485340 32183 net.cpp:122] Setting up relu2_2/sep
I0620 22:47:16.485358 32183 net.cpp:129] Top shape: 10 128 56 56 (4014080)
I0620 22:47:16.485368 32183 net.cpp:137] Memory required for data: 359260280
I0620 22:47:16.485375 32183 layer_factory.hpp:77] Creating layer conv3_1/dw
I0620 22:47:16.485399 32183 net.cpp:84] Creating Layer conv3_1/dw
I0620 22:47:16.485409 32183 net.cpp:406] conv3_1/dw <- conv2_2/sep
I0620 22:47:16.485421 32183 net.cpp:380] conv3_1/dw -> conv3_1/dw
I0620 22:47:16.485611 32183 net.cpp:122] Setting up conv3_1/dw
I0620 22:47:16.485631 32183 net.cpp:129] Top shape: 10 128 56 56 (4014080)
I0620 22:47:16.485641 32183 net.cpp:137] Memory required for data: 375316600
I0620 22:47:16.485657 32183 layer_factory.hpp:77] Creating layer conv3_1/dw/bn
I0620 22:47:16.485671 32183 net.cpp:84] Creating Layer conv3_1/dw/bn
I0620 22:47:16.485680 32183 net.cpp:406] conv3_1/dw/bn <- conv3_1/dw
I0620 22:47:16.485692 32183 net.cpp:367] conv3_1/dw/bn -> conv3_1/dw (in-place)
I0620 22:47:16.485937 32183 net.cpp:122] Setting up conv3_1/dw/bn
I0620 22:47:16.485954 32183 net.cpp:129] Top shape: 10 128 56 56 (4014080)
I0620 22:47:16.485962 32183 net.cpp:137] Memory required for data: 391372920
I0620 22:47:16.485976 32183 layer_factory.hpp:77] Creating layer conv3_1/dw/scale
I0620 22:47:16.485990 32183 net.cpp:84] Creating Layer conv3_1/dw/scale
I0620 22:47:16.485997 32183 net.cpp:406] conv3_1/dw/scale <- conv3_1/dw
I0620 22:47:16.486009 32183 net.cpp:367] conv3_1/dw/scale -> conv3_1/dw (in-place)
I0620 22:47:16.486068 32183 layer_factory.hpp:77] Creating layer conv3_1/dw/scale
I0620 22:47:16.486232 32183 net.cpp:122] Setting up conv3_1/dw/scale
I0620 22:47:16.486250 32183 net.cpp:129] Top shape: 10 128 56 56 (4014080)
I0620 22:47:16.486258 32183 net.cpp:137] Memory required for data: 407429240
I0620 22:47:16.486270 32183 layer_factory.hpp:77] Creating layer relu3_1/dw
I0620 22:47:16.486281 32183 net.cpp:84] Creating Layer relu3_1/dw
I0620 22:47:16.486290 32183 net.cpp:406] relu3_1/dw <- conv3_1/dw
I0620 22:47:16.486301 32183 net.cpp:367] relu3_1/dw -> conv3_1/dw (in-place)
I0620 22:47:16.486739 32183 net.cpp:122] Setting up relu3_1/dw
I0620 22:47:16.486763 32183 net.cpp:129] Top shape: 10 128 56 56 (4014080)
I0620 22:47:16.486771 32183 net.cpp:137] Memory required for data: 423485560
I0620 22:47:16.486779 32183 layer_factory.hpp:77] Creating layer conv3_1/sep
I0620 22:47:16.486794 32183 net.cpp:84] Creating Layer conv3_1/sep
I0620 22:47:16.486804 32183 net.cpp:406] conv3_1/sep <- conv3_1/dw
I0620 22:47:16.486815 32183 net.cpp:380] conv3_1/sep -> conv3_1/sep
I0620 22:47:16.487372 32183 net.cpp:122] Setting up conv3_1/sep
I0620 22:47:16.487390 32183 net.cpp:129] Top shape: 10 128 56 56 (4014080)
I0620 22:47:16.487398 32183 net.cpp:137] Memory required for data: 439541880
I0620 22:47:16.487411 32183 layer_factory.hpp:77] Creating layer conv3_1/sep/bn
I0620 22:47:16.487424 32183 net.cpp:84] Creating Layer conv3_1/sep/bn
I0620 22:47:16.487433 32183 net.cpp:406] conv3_1/sep/bn <- conv3_1/sep
I0620 22:47:16.487444 32183 net.cpp:367] conv3_1/sep/bn -> conv3_1/sep (in-place)
I0620 22:47:16.487710 32183 net.cpp:122] Setting up conv3_1/sep/bn
I0620 22:47:16.487730 32183 net.cpp:129] Top shape: 10 128 56 56 (4014080)
I0620 22:47:16.487737 32183 net.cpp:137] Memory required for data: 455598200
I0620 22:47:16.487751 32183 layer_factory.hpp:77] Creating layer conv3_1/sep/scale
I0620 22:47:16.487764 32183 net.cpp:84] Creating Layer conv3_1/sep/scale
I0620 22:47:16.487773 32183 net.cpp:406] conv3_1/sep/scale <- conv3_1/sep
I0620 22:47:16.487785 32183 net.cpp:367] conv3_1/sep/scale -> conv3_1/sep (in-place)
I0620 22:47:16.487845 32183 layer_factory.hpp:77] Creating layer conv3_1/sep/scale
I0620 22:47:16.488008 32183 net.cpp:122] Setting up conv3_1/sep/scale
I0620 22:47:16.488024 32183 net.cpp:129] Top shape: 10 128 56 56 (4014080)
I0620 22:47:16.488034 32183 net.cpp:137] Memory required for data: 471654520
I0620 22:47:16.488056 32183 layer_factory.hpp:77] Creating layer relu3_1/sep
I0620 22:47:16.488068 32183 net.cpp:84] Creating Layer relu3_1/sep
I0620 22:47:16.488077 32183 net.cpp:406] relu3_1/sep <- conv3_1/sep
I0620 22:47:16.488088 32183 net.cpp:367] relu3_1/sep -> conv3_1/sep (in-place)
I0620 22:47:16.488310 32183 net.cpp:122] Setting up relu3_1/sep
I0620 22:47:16.488328 32183 net.cpp:129] Top shape: 10 128 56 56 (4014080)
I0620 22:47:16.488344 32183 net.cpp:137] Memory required for data: 487710840
I0620 22:47:16.488353 32183 layer_factory.hpp:77] Creating layer conv3_2/dw
I0620 22:47:16.488368 32183 net.cpp:84] Creating Layer conv3_2/dw
I0620 22:47:16.488378 32183 net.cpp:406] conv3_2/dw <- conv3_1/sep
I0620 22:47:16.488389 32183 net.cpp:380] conv3_2/dw -> conv3_2/dw
I0620 22:47:16.488559 32183 net.cpp:122] Setting up conv3_2/dw
I0620 22:47:16.488577 32183 net.cpp:129] Top shape: 10 128 28 28 (1003520)
I0620 22:47:16.488585 32183 net.cpp:137] Memory required for data: 491724920
I0620 22:47:16.488596 32183 layer_factory.hpp:77] Creating layer conv3_2/dw/bn
I0620 22:47:16.488610 32183 net.cpp:84] Creating Layer conv3_2/dw/bn
I0620 22:47:16.488617 32183 net.cpp:406] conv3_2/dw/bn <- conv3_2/dw
I0620 22:47:16.488629 32183 net.cpp:367] conv3_2/dw/bn -> conv3_2/dw (in-place)
I0620 22:47:16.488889 32183 net.cpp:122] Setting up conv3_2/dw/bn
I0620 22:47:16.488906 32183 net.cpp:129] Top shape: 10 128 28 28 (1003520)
I0620 22:47:16.488914 32183 net.cpp:137] Memory required for data: 495739000
I0620 22:47:16.488927 32183 layer_factory.hpp:77] Creating layer conv3_2/dw/scale
I0620 22:47:16.488945 32183 net.cpp:84] Creating Layer conv3_2/dw/scale
I0620 22:47:16.488953 32183 net.cpp:406] conv3_2/dw/scale <- conv3_2/dw
I0620 22:47:16.488965 32183 net.cpp:367] conv3_2/dw/scale -> conv3_2/dw (in-place)
I0620 22:47:16.489025 32183 layer_factory.hpp:77] Creating layer conv3_2/dw/scale
I0620 22:47:16.489187 32183 net.cpp:122] Setting up conv3_2/dw/scale
I0620 22:47:16.489204 32183 net.cpp:129] Top shape: 10 128 28 28 (1003520)
I0620 22:47:16.489212 32183 net.cpp:137] Memory required for data: 499753080
I0620 22:47:16.489224 32183 layer_factory.hpp:77] Creating layer relu3_2/dw
I0620 22:47:16.489236 32183 net.cpp:84] Creating Layer relu3_2/dw
I0620 22:47:16.489245 32183 net.cpp:406] relu3_2/dw <- conv3_2/dw
I0620 22:47:16.489256 32183 net.cpp:367] relu3_2/dw -> conv3_2/dw (in-place)
I0620 22:47:16.489694 32183 net.cpp:122] Setting up relu3_2/dw
I0620 22:47:16.489717 32183 net.cpp:129] Top shape: 10 128 28 28 (1003520)
I0620 22:47:16.489725 32183 net.cpp:137] Memory required for data: 503767160
I0620 22:47:16.489733 32183 layer_factory.hpp:77] Creating layer conv3_2/sep
I0620 22:47:16.489748 32183 net.cpp:84] Creating Layer conv3_2/sep
I0620 22:47:16.489758 32183 net.cpp:406] conv3_2/sep <- conv3_2/dw
I0620 22:47:16.489770 32183 net.cpp:380] conv3_2/sep -> conv3_2/sep
I0620 22:47:16.490573 32183 net.cpp:122] Setting up conv3_2/sep
I0620 22:47:16.490593 32183 net.cpp:129] Top shape: 10 256 28 28 (2007040)
I0620 22:47:16.490602 32183 net.cpp:137] Memory required for data: 511795320
I0620 22:47:16.490617 32183 layer_factory.hpp:77] Creating layer conv3_2/sep/bn
I0620 22:47:16.490633 32183 net.cpp:84] Creating Layer conv3_2/sep/bn
I0620 22:47:16.490641 32183 net.cpp:406] conv3_2/sep/bn <- conv3_2/sep
I0620 22:47:16.490653 32183 net.cpp:367] conv3_2/sep/bn -> conv3_2/sep (in-place)
I0620 22:47:16.490905 32183 net.cpp:122] Setting up conv3_2/sep/bn
I0620 22:47:16.490921 32183 net.cpp:129] Top shape: 10 256 28 28 (2007040)
I0620 22:47:16.490929 32183 net.cpp:137] Memory required for data: 519823480
I0620 22:47:16.490943 32183 layer_factory.hpp:77] Creating layer conv3_2/sep/scale
I0620 22:47:16.490957 32183 net.cpp:84] Creating Layer conv3_2/sep/scale
I0620 22:47:16.490965 32183 net.cpp:406] conv3_2/sep/scale <- conv3_2/sep
I0620 22:47:16.490977 32183 net.cpp:367] conv3_2/sep/scale -> conv3_2/sep (in-place)
I0620 22:47:16.491037 32183 layer_factory.hpp:77] Creating layer conv3_2/sep/scale
I0620 22:47:16.491199 32183 net.cpp:122] Setting up conv3_2/sep/scale
I0620 22:47:16.491227 32183 net.cpp:129] Top shape: 10 256 28 28 (2007040)
I0620 22:47:16.491236 32183 net.cpp:137] Memory required for data: 527851640
I0620 22:47:16.491248 32183 layer_factory.hpp:77] Creating layer relu3_2/sep
I0620 22:47:16.491261 32183 net.cpp:84] Creating Layer relu3_2/sep
I0620 22:47:16.491269 32183 net.cpp:406] relu3_2/sep <- conv3_2/sep
I0620 22:47:16.491281 32183 net.cpp:367] relu3_2/sep -> conv3_2/sep (in-place)
I0620 22:47:16.491521 32183 net.cpp:122] Setting up relu3_2/sep
I0620 22:47:16.491542 32183 net.cpp:129] Top shape: 10 256 28 28 (2007040)
I0620 22:47:16.491551 32183 net.cpp:137] Memory required for data: 535879800
I0620 22:47:16.491559 32183 layer_factory.hpp:77] Creating layer conv4_1/dw
I0620 22:47:16.491575 32183 net.cpp:84] Creating Layer conv4_1/dw
I0620 22:47:16.491583 32183 net.cpp:406] conv4_1/dw <- conv3_2/sep
I0620 22:47:16.491595 32183 net.cpp:380] conv4_1/dw -> conv4_1/dw
I0620 22:47:16.491775 32183 net.cpp:122] Setting up conv4_1/dw
I0620 22:47:16.491794 32183 net.cpp:129] Top shape: 10 256 28 28 (2007040)
I0620 22:47:16.491802 32183 net.cpp:137] Memory required for data: 543907960
I0620 22:47:16.491812 32183 layer_factory.hpp:77] Creating layer conv4_1/dw/bn
I0620 22:47:16.491827 32183 net.cpp:84] Creating Layer conv4_1/dw/bn
I0620 22:47:16.491835 32183 net.cpp:406] conv4_1/dw/bn <- conv4_1/dw
I0620 22:47:16.491847 32183 net.cpp:367] conv4_1/dw/bn -> conv4_1/dw (in-place)
I0620 22:47:16.492103 32183 net.cpp:122] Setting up conv4_1/dw/bn
I0620 22:47:16.492120 32183 net.cpp:129] Top shape: 10 256 28 28 (2007040)
I0620 22:47:16.492128 32183 net.cpp:137] Memory required for data: 551936120
I0620 22:47:16.492141 32183 layer_factory.hpp:77] Creating layer conv4_1/dw/scale
I0620 22:47:16.492156 32183 net.cpp:84] Creating Layer conv4_1/dw/scale
I0620 22:47:16.492164 32183 net.cpp:406] conv4_1/dw/scale <- conv4_1/dw
I0620 22:47:16.492175 32183 net.cpp:367] conv4_1/dw/scale -> conv4_1/dw (in-place)
I0620 22:47:16.492235 32183 layer_factory.hpp:77] Creating layer conv4_1/dw/scale
I0620 22:47:16.492393 32183 net.cpp:122] Setting up conv4_1/dw/scale
I0620 22:47:16.492410 32183 net.cpp:129] Top shape: 10 256 28 28 (2007040)
I0620 22:47:16.492419 32183 net.cpp:137] Memory required for data: 559964280
I0620 22:47:16.492430 32183 layer_factory.hpp:77] Creating layer relu4_1/dw
I0620 22:47:16.492442 32183 net.cpp:84] Creating Layer relu4_1/dw
I0620 22:47:16.492451 32183 net.cpp:406] relu4_1/dw <- conv4_1/dw
I0620 22:47:16.492462 32183 net.cpp:367] relu4_1/dw -> conv4_1/dw (in-place)
I0620 22:47:16.492900 32183 net.cpp:122] Setting up relu4_1/dw
I0620 22:47:16.492923 32183 net.cpp:129] Top shape: 10 256 28 28 (2007040)
I0620 22:47:16.492931 32183 net.cpp:137] Memory required for data: 567992440
I0620 22:47:16.492939 32183 layer_factory.hpp:77] Creating layer conv4_1/sep
I0620 22:47:16.492954 32183 net.cpp:84] Creating Layer conv4_1/sep
I0620 22:47:16.492962 32183 net.cpp:406] conv4_1/sep <- conv4_1/dw
I0620 22:47:16.492975 32183 net.cpp:380] conv4_1/sep -> conv4_1/sep
I0620 22:47:16.494272 32183 net.cpp:122] Setting up conv4_1/sep
I0620 22:47:16.494293 32183 net.cpp:129] Top shape: 10 256 28 28 (2007040)
I0620 22:47:16.494302 32183 net.cpp:137] Memory required for data: 576020600
I0620 22:47:16.494328 32183 layer_factory.hpp:77] Creating layer conv4_1/sep/bn
I0620 22:47:16.494341 32183 net.cpp:84] Creating Layer conv4_1/sep/bn
I0620 22:47:16.494350 32183 net.cpp:406] conv4_1/sep/bn <- conv4_1/sep
I0620 22:47:16.494362 32183 net.cpp:367] conv4_1/sep/bn -> conv4_1/sep (in-place)
I0620 22:47:16.494623 32183 net.cpp:122] Setting up conv4_1/sep/bn
I0620 22:47:16.494642 32183 net.cpp:129] Top shape: 10 256 28 28 (2007040)
I0620 22:47:16.494652 32183 net.cpp:137] Memory required for data: 584048760
I0620 22:47:16.494665 32183 layer_factory.hpp:77] Creating layer conv4_1/sep/scale
I0620 22:47:16.494678 32183 net.cpp:84] Creating Layer conv4_1/sep/scale
I0620 22:47:16.494688 32183 net.cpp:406] conv4_1/sep/scale <- conv4_1/sep
I0620 22:47:16.494699 32183 net.cpp:367] conv4_1/sep/scale -> conv4_1/sep (in-place)
I0620 22:47:16.494774 32183 layer_factory.hpp:77] Creating layer conv4_1/sep/scale
I0620 22:47:16.494936 32183 net.cpp:122] Setting up conv4_1/sep/scale
I0620 22:47:16.494953 32183 net.cpp:129] Top shape: 10 256 28 28 (2007040)
I0620 22:47:16.494961 32183 net.cpp:137] Memory required for data: 592076920
I0620 22:47:16.494973 32183 layer_factory.hpp:77] Creating layer relu4_1/sep
I0620 22:47:16.494993 32183 net.cpp:84] Creating Layer relu4_1/sep
I0620 22:47:16.495003 32183 net.cpp:406] relu4_1/sep <- conv4_1/sep
I0620 22:47:16.495014 32183 net.cpp:367] relu4_1/sep -> conv4_1/sep (in-place)
I0620 22:47:16.495242 32183 net.cpp:122] Setting up relu4_1/sep
I0620 22:47:16.495261 32183 net.cpp:129] Top shape: 10 256 28 28 (2007040)
I0620 22:47:16.495270 32183 net.cpp:137] Memory required for data: 600105080
I0620 22:47:16.495277 32183 layer_factory.hpp:77] Creating layer conv4_2/dw
I0620 22:47:16.495292 32183 net.cpp:84] Creating Layer conv4_2/dw
I0620 22:47:16.495301 32183 net.cpp:406] conv4_2/dw <- conv4_1/sep
I0620 22:47:16.495314 32183 net.cpp:380] conv4_2/dw -> conv4_2/dw
I0620 22:47:16.495481 32183 net.cpp:122] Setting up conv4_2/dw
I0620 22:47:16.495498 32183 net.cpp:129] Top shape: 10 256 14 14 (501760)
I0620 22:47:16.495507 32183 net.cpp:137] Memory required for data: 602112120
I0620 22:47:16.496811 32183 layer_factory.hpp:77] Creating layer conv4_2/dw/bn
I0620 22:47:16.496845 32183 net.cpp:84] Creating Layer conv4_2/dw/bn
I0620 22:47:16.496865 32183 net.cpp:406] conv4_2/dw/bn <- conv4_2/dw
I0620 22:47:16.496881 32183 net.cpp:367] conv4_2/dw/bn -> conv4_2/dw (in-place)
I0620 22:47:16.497813 32183 net.cpp:122] Setting up conv4_2/dw/bn
I0620 22:47:16.497836 32183 net.cpp:129] Top shape: 10 256 14 14 (501760)
I0620 22:47:16.497846 32183 net.cpp:137] Memory required for data: 604119160
I0620 22:47:16.497862 32183 layer_factory.hpp:77] Creating layer conv4_2/dw/scale
I0620 22:47:16.497882 32183 net.cpp:84] Creating Layer conv4_2/dw/scale
I0620 22:47:16.497895 32183 net.cpp:406] conv4_2/dw/scale <- conv4_2/dw
I0620 22:47:16.497910 32183 net.cpp:367] conv4_2/dw/scale -> conv4_2/dw (in-place)
I0620 22:47:16.498008 32183 layer_factory.hpp:77] Creating layer conv4_2/dw/scale
I0620 22:47:16.498199 32183 net.cpp:122] Setting up conv4_2/dw/scale
I0620 22:47:16.498217 32183 net.cpp:129] Top shape: 10 256 14 14 (501760)
I0620 22:47:16.498226 32183 net.cpp:137] Memory required for data: 606126200
I0620 22:47:16.498241 32183 layer_factory.hpp:77] Creating layer relu4_2/dw
I0620 22:47:16.498258 32183 net.cpp:84] Creating Layer relu4_2/dw
I0620 22:47:16.498270 32183 net.cpp:406] relu4_2/dw <- conv4_2/dw
I0620 22:47:16.498282 32183 net.cpp:367] relu4_2/dw -> conv4_2/dw (in-place)
I0620 22:47:16.499574 32183 net.cpp:122] Setting up relu4_2/dw
I0620 22:47:16.499599 32183 net.cpp:129] Top shape: 10 256 14 14 (501760)
I0620 22:47:16.499609 32183 net.cpp:137] Memory required for data: 608133240
I0620 22:47:16.499621 32183 layer_factory.hpp:77] Creating layer conv4_2/sep
I0620 22:47:16.499642 32183 net.cpp:84] Creating Layer conv4_2/sep
I0620 22:47:16.499652 32183 net.cpp:406] conv4_2/sep <- conv4_2/dw
I0620 22:47:16.499670 32183 net.cpp:380] conv4_2/sep -> conv4_2/sep
I0620 22:47:16.502890 32183 net.cpp:122] Setting up conv4_2/sep
I0620 22:47:16.502919 32183 net.cpp:129] Top shape: 10 512 14 14 (1003520)
I0620 22:47:16.502928 32183 net.cpp:137] Memory required for data: 612147320
I0620 22:47:16.502941 32183 layer_factory.hpp:77] Creating layer conv4_2/sep/bn
I0620 22:47:16.502959 32183 net.cpp:84] Creating Layer conv4_2/sep/bn
I0620 22:47:16.502969 32183 net.cpp:406] conv4_2/sep/bn <- conv4_2/sep
I0620 22:47:16.502981 32183 net.cpp:367] conv4_2/sep/bn -> conv4_2/sep (in-place)
I0620 22:47:16.503293 32183 net.cpp:122] Setting up conv4_2/sep/bn
I0620 22:47:16.503310 32183 net.cpp:129] Top shape: 10 512 14 14 (1003520)
I0620 22:47:16.503319 32183 net.cpp:137] Memory required for data: 616161400
I0620 22:47:16.503332 32183 layer_factory.hpp:77] Creating layer conv4_2/sep/scale
I0620 22:47:16.503348 32183 net.cpp:84] Creating Layer conv4_2/sep/scale
I0620 22:47:16.503377 32183 net.cpp:406] conv4_2/sep/scale <- conv4_2/sep
I0620 22:47:16.503391 32183 net.cpp:367] conv4_2/sep/scale -> conv4_2/sep (in-place)
I0620 22:47:16.503456 32183 layer_factory.hpp:77] Creating layer conv4_2/sep/scale
I0620 22:47:16.503641 32183 net.cpp:122] Setting up conv4_2/sep/scale
I0620 22:47:16.503661 32183 net.cpp:129] Top shape: 10 512 14 14 (1003520)
I0620 22:47:16.503679 32183 net.cpp:137] Memory required for data: 620175480
I0620 22:47:16.503691 32183 layer_factory.hpp:77] Creating layer relu4_2/sep
I0620 22:47:16.503706 32183 net.cpp:84] Creating Layer relu4_2/sep
I0620 22:47:16.503715 32183 net.cpp:406] relu4_2/sep <- conv4_2/sep
I0620 22:47:16.503727 32183 net.cpp:367] relu4_2/sep -> conv4_2/sep (in-place)
I0620 22:47:16.503973 32183 net.cpp:122] Setting up relu4_2/sep
I0620 22:47:16.503991 32183 net.cpp:129] Top shape: 10 512 14 14 (1003520)
I0620 22:47:16.503999 32183 net.cpp:137] Memory required for data: 624189560
I0620 22:47:16.504007 32183 layer_factory.hpp:77] Creating layer conv5_1/dw
I0620 22:47:16.504027 32183 net.cpp:84] Creating Layer conv5_1/dw
I0620 22:47:16.504037 32183 net.cpp:406] conv5_1/dw <- conv4_2/sep
I0620 22:47:16.504050 32183 net.cpp:380] conv5_1/dw -> conv5_1/dw
I0620 22:47:16.504333 32183 net.cpp:122] Setting up conv5_1/dw
I0620 22:47:16.504350 32183 net.cpp:129] Top shape: 10 512 14 14 (1003520)
I0620 22:47:16.504359 32183 net.cpp:137] Memory required for data: 628203640
I0620 22:47:16.504369 32183 layer_factory.hpp:77] Creating layer conv5_1/dw/bn
I0620 22:47:16.504384 32183 net.cpp:84] Creating Layer conv5_1/dw/bn
I0620 22:47:16.504393 32183 net.cpp:406] conv5_1/dw/bn <- conv5_1/dw
I0620 22:47:16.504405 32183 net.cpp:367] conv5_1/dw/bn -> conv5_1/dw (in-place)
I0620 22:47:16.504691 32183 net.cpp:122] Setting up conv5_1/dw/bn
I0620 22:47:16.504709 32183 net.cpp:129] Top shape: 10 512 14 14 (1003520)
I0620 22:47:16.504717 32183 net.cpp:137] Memory required for data: 632217720
I0620 22:47:16.504731 32183 layer_factory.hpp:77] Creating layer conv5_1/dw/scale
I0620 22:47:16.504748 32183 net.cpp:84] Creating Layer conv5_1/dw/scale
I0620 22:47:16.504757 32183 net.cpp:406] conv5_1/dw/scale <- conv5_1/dw
I0620 22:47:16.504770 32183 net.cpp:367] conv5_1/dw/scale -> conv5_1/dw (in-place)
I0620 22:47:16.504832 32183 layer_factory.hpp:77] Creating layer conv5_1/dw/scale
I0620 22:47:16.505008 32183 net.cpp:122] Setting up conv5_1/dw/scale
I0620 22:47:16.505025 32183 net.cpp:129] Top shape: 10 512 14 14 (1003520)
I0620 22:47:16.505033 32183 net.cpp:137] Memory required for data: 636231800
I0620 22:47:16.505048 32183 layer_factory.hpp:77] Creating layer relu5_1/dw
I0620 22:47:16.505062 32183 net.cpp:84] Creating Layer relu5_1/dw
I0620 22:47:16.505071 32183 net.cpp:406] relu5_1/dw <- conv5_1/dw
I0620 22:47:16.505082 32183 net.cpp:367] relu5_1/dw -> conv5_1/dw (in-place)
I0620 22:47:16.505549 32183 net.cpp:122] Setting up relu5_1/dw
I0620 22:47:16.505571 32183 net.cpp:129] Top shape: 10 512 14 14 (1003520)
I0620 22:47:16.505580 32183 net.cpp:137] Memory required for data: 640245880
I0620 22:47:16.505589 32183 layer_factory.hpp:77] Creating layer conv5_1/sep
I0620 22:47:16.505606 32183 net.cpp:84] Creating Layer conv5_1/sep
I0620 22:47:16.505616 32183 net.cpp:406] conv5_1/sep <- conv5_1/dw
I0620 22:47:16.505630 32183 net.cpp:380] conv5_1/sep -> conv5_1/sep
I0620 22:47:16.511421 32183 net.cpp:122] Setting up conv5_1/sep
I0620 22:47:16.511468 32183 net.cpp:129] Top shape: 10 512 14 14 (1003520)
I0620 22:47:16.511477 32183 net.cpp:137] Memory required for data: 644259960
I0620 22:47:16.511492 32183 layer_factory.hpp:77] Creating layer conv5_1/sep/bn
I0620 22:47:16.511518 32183 net.cpp:84] Creating Layer conv5_1/sep/bn
I0620 22:47:16.511533 32183 net.cpp:406] conv5_1/sep/bn <- conv5_1/sep
I0620 22:47:16.511546 32183 net.cpp:367] conv5_1/sep/bn -> conv5_1/sep (in-place)
I0620 22:47:16.511838 32183 net.cpp:122] Setting up conv5_1/sep/bn
I0620 22:47:16.511855 32183 net.cpp:129] Top shape: 10 512 14 14 (1003520)
I0620 22:47:16.511864 32183 net.cpp:137] Memory required for data: 648274040
I0620 22:47:16.511900 32183 layer_factory.hpp:77] Creating layer conv5_1/sep/scale
I0620 22:47:16.511917 32183 net.cpp:84] Creating Layer conv5_1/sep/scale
I0620 22:47:16.511927 32183 net.cpp:406] conv5_1/sep/scale <- conv5_1/sep
I0620 22:47:16.511940 32183 net.cpp:367] conv5_1/sep/scale -> conv5_1/sep (in-place)
I0620 22:47:16.512006 32183 layer_factory.hpp:77] Creating layer conv5_1/sep/scale
I0620 22:47:16.512198 32183 net.cpp:122] Setting up conv5_1/sep/scale
I0620 22:47:16.512217 32183 net.cpp:129] Top shape: 10 512 14 14 (1003520)
I0620 22:47:16.512226 32183 net.cpp:137] Memory required for data: 652288120
I0620 22:47:16.512239 32183 layer_factory.hpp:77] Creating layer relu5_1/sep
I0620 22:47:16.512253 32183 net.cpp:84] Creating Layer relu5_1/sep
I0620 22:47:16.512262 32183 net.cpp:406] relu5_1/sep <- conv5_1/sep
I0620 22:47:16.512274 32183 net.cpp:367] relu5_1/sep -> conv5_1/sep (in-place)
I0620 22:47:16.512572 32183 net.cpp:122] Setting up relu5_1/sep
I0620 22:47:16.512594 32183 net.cpp:129] Top shape: 10 512 14 14 (1003520)
I0620 22:47:16.512603 32183 net.cpp:137] Memory required for data: 656302200
I0620 22:47:16.512611 32183 layer_factory.hpp:77] Creating layer conv5_2/dw
I0620 22:47:16.512630 32183 net.cpp:84] Creating Layer conv5_2/dw
I0620 22:47:16.512640 32183 net.cpp:406] conv5_2/dw <- conv5_1/sep
I0620 22:47:16.512655 32183 net.cpp:380] conv5_2/dw -> conv5_2/dw
I0620 22:47:16.512892 32183 net.cpp:122] Setting up conv5_2/dw
I0620 22:47:16.512910 32183 net.cpp:129] Top shape: 10 512 14 14 (1003520)
I0620 22:47:16.512919 32183 net.cpp:137] Memory required for data: 660316280
I0620 22:47:16.512929 32183 layer_factory.hpp:77] Creating layer conv5_2/dw/bn
I0620 22:47:16.512944 32183 net.cpp:84] Creating Layer conv5_2/dw/bn
I0620 22:47:16.512953 32183 net.cpp:406] conv5_2/dw/bn <- conv5_2/dw
I0620 22:47:16.512966 32183 net.cpp:367] conv5_2/dw/bn -> conv5_2/dw (in-place)
I0620 22:47:16.513242 32183 net.cpp:122] Setting up conv5_2/dw/bn
I0620 22:47:16.513259 32183 net.cpp:129] Top shape: 10 512 14 14 (1003520)
I0620 22:47:16.513267 32183 net.cpp:137] Memory required for data: 664330360
I0620 22:47:16.513281 32183 layer_factory.hpp:77] Creating layer conv5_2/dw/scale
I0620 22:47:16.513327 32183 net.cpp:84] Creating Layer conv5_2/dw/scale
I0620 22:47:16.513337 32183 net.cpp:406] conv5_2/dw/scale <- conv5_2/dw
I0620 22:47:16.513350 32183 net.cpp:367] conv5_2/dw/scale -> conv5_2/dw (in-place)
I0620 22:47:16.513411 32183 layer_factory.hpp:77] Creating layer conv5_2/dw/scale
I0620 22:47:16.513597 32183 net.cpp:122] Setting up conv5_2/dw/scale
I0620 22:47:16.513615 32183 net.cpp:129] Top shape: 10 512 14 14 (1003520)
I0620 22:47:16.513623 32183 net.cpp:137] Memory required for data: 668344440
I0620 22:47:16.513635 32183 layer_factory.hpp:77] Creating layer relu5_2/dw
I0620 22:47:16.513648 32183 net.cpp:84] Creating Layer relu5_2/dw
I0620 22:47:16.513658 32183 net.cpp:406] relu5_2/dw <- conv5_2/dw
I0620 22:47:16.513667 32183 net.cpp:367] relu5_2/dw -> conv5_2/dw (in-place)
I0620 22:47:16.514123 32183 net.cpp:122] Setting up relu5_2/dw
I0620 22:47:16.514144 32183 net.cpp:129] Top shape: 10 512 14 14 (1003520)
I0620 22:47:16.514153 32183 net.cpp:137] Memory required for data: 672358520
I0620 22:47:16.514161 32183 layer_factory.hpp:77] Creating layer conv5_2/sep
I0620 22:47:16.514179 32183 net.cpp:84] Creating Layer conv5_2/sep
I0620 22:47:16.514189 32183 net.cpp:406] conv5_2/sep <- conv5_2/dw
I0620 22:47:16.514204 32183 net.cpp:380] conv5_2/sep -> conv5_2/sep
I0620 22:47:16.520023 32183 net.cpp:122] Setting up conv5_2/sep
I0620 22:47:16.520074 32183 net.cpp:129] Top shape: 10 512 14 14 (1003520)
I0620 22:47:16.520083 32183 net.cpp:137] Memory required for data: 676372600
I0620 22:47:16.520098 32183 layer_factory.hpp:77] Creating layer conv5_2/sep/bn
I0620 22:47:16.520117 32183 net.cpp:84] Creating Layer conv5_2/sep/bn
I0620 22:47:16.520128 32183 net.cpp:406] conv5_2/sep/bn <- conv5_2/sep
I0620 22:47:16.520144 32183 net.cpp:367] conv5_2/sep/bn -> conv5_2/sep (in-place)
I0620 22:47:16.520475 32183 net.cpp:122] Setting up conv5_2/sep/bn
I0620 22:47:16.520493 32183 net.cpp:129] Top shape: 10 512 14 14 (1003520)
I0620 22:47:16.520501 32183 net.cpp:137] Memory required for data: 680386680
I0620 22:47:16.520525 32183 layer_factory.hpp:77] Creating layer conv5_2/sep/scale
I0620 22:47:16.520543 32183 net.cpp:84] Creating Layer conv5_2/sep/scale
I0620 22:47:16.520552 32183 net.cpp:406] conv5_2/sep/scale <- conv5_2/sep
I0620 22:47:16.520577 32183 net.cpp:367] conv5_2/sep/scale -> conv5_2/sep (in-place)
I0620 22:47:16.520650 32183 layer_factory.hpp:77] Creating layer conv5_2/sep/scale
I0620 22:47:16.520831 32183 net.cpp:122] Setting up conv5_2/sep/scale
I0620 22:47:16.520849 32183 net.cpp:129] Top shape: 10 512 14 14 (1003520)
I0620 22:47:16.520858 32183 net.cpp:137] Memory required for data: 684400760
I0620 22:47:16.520869 32183 layer_factory.hpp:77] Creating layer relu5_2/sep
I0620 22:47:16.520884 32183 net.cpp:84] Creating Layer relu5_2/sep
I0620 22:47:16.520895 32183 net.cpp:406] relu5_2/sep <- conv5_2/sep
I0620 22:47:16.520905 32183 net.cpp:367] relu5_2/sep -> conv5_2/sep (in-place)
I0620 22:47:16.521405 32183 net.cpp:122] Setting up relu5_2/sep
I0620 22:47:16.521431 32183 net.cpp:129] Top shape: 10 512 14 14 (1003520)
I0620 22:47:16.521440 32183 net.cpp:137] Memory required for data: 688414840
I0620 22:47:16.521450 32183 layer_factory.hpp:77] Creating layer conv5_3/dw
I0620 22:47:16.521466 32183 net.cpp:84] Creating Layer conv5_3/dw
I0620 22:47:16.521476 32183 net.cpp:406] conv5_3/dw <- conv5_2/sep
I0620 22:47:16.521491 32183 net.cpp:380] conv5_3/dw -> conv5_3/dw
I0620 22:47:16.521744 32183 net.cpp:122] Setting up conv5_3/dw
I0620 22:47:16.521764 32183 net.cpp:129] Top shape: 10 512 14 14 (1003520)
I0620 22:47:16.521773 32183 net.cpp:137] Memory required for data: 692428920
I0620 22:47:16.521783 32183 layer_factory.hpp:77] Creating layer conv5_3/dw/bn
I0620 22:47:16.521796 32183 net.cpp:84] Creating Layer conv5_3/dw/bn
I0620 22:47:16.521806 32183 net.cpp:406] conv5_3/dw/bn <- conv5_3/dw
I0620 22:47:16.521819 32183 net.cpp:367] conv5_3/dw/bn -> conv5_3/dw (in-place)
I0620 22:47:16.522109 32183 net.cpp:122] Setting up conv5_3/dw/bn
I0620 22:47:16.522127 32183 net.cpp:129] Top shape: 10 512 14 14 (1003520)
I0620 22:47:16.522135 32183 net.cpp:137] Memory required for data: 696443000
I0620 22:47:16.522151 32183 layer_factory.hpp:77] Creating layer conv5_3/dw/scale
I0620 22:47:16.522164 32183 net.cpp:84] Creating Layer conv5_3/dw/scale
I0620 22:47:16.522173 32183 net.cpp:406] conv5_3/dw/scale <- conv5_3/dw
I0620 22:47:16.522184 32183 net.cpp:367] conv5_3/dw/scale -> conv5_3/dw (in-place)
I0620 22:47:16.522249 32183 layer_factory.hpp:77] Creating layer conv5_3/dw/scale
I0620 22:47:16.522430 32183 net.cpp:122] Setting up conv5_3/dw/scale
I0620 22:47:16.522451 32183 net.cpp:129] Top shape: 10 512 14 14 (1003520)
I0620 22:47:16.522460 32183 net.cpp:137] Memory required for data: 700457080
I0620 22:47:16.522472 32183 layer_factory.hpp:77] Creating layer relu5_3/dw
I0620 22:47:16.522483 32183 net.cpp:84] Creating Layer relu5_3/dw
I0620 22:47:16.522492 32183 net.cpp:406] relu5_3/dw <- conv5_3/dw
I0620 22:47:16.522506 32183 net.cpp:367] relu5_3/dw -> conv5_3/dw (in-place)
I0620 22:47:16.522752 32183 net.cpp:122] Setting up relu5_3/dw
I0620 22:47:16.522771 32183 net.cpp:129] Top shape: 10 512 14 14 (1003520)
I0620 22:47:16.522780 32183 net.cpp:137] Memory required for data: 704471160
I0620 22:47:16.522790 32183 layer_factory.hpp:77] Creating layer conv5_3/sep
I0620 22:47:16.522811 32183 net.cpp:84] Creating Layer conv5_3/sep
I0620 22:47:16.522820 32183 net.cpp:406] conv5_3/sep <- conv5_3/dw
I0620 22:47:16.522836 32183 net.cpp:380] conv5_3/sep -> conv5_3/sep
I0620 22:47:16.528663 32183 net.cpp:122] Setting up conv5_3/sep
I0620 22:47:16.528709 32183 net.cpp:129] Top shape: 10 512 14 14 (1003520)
I0620 22:47:16.528718 32183 net.cpp:137] Memory required for data: 708485240
I0620 22:47:16.528733 32183 layer_factory.hpp:77] Creating layer conv5_3/sep/bn
I0620 22:47:16.528749 32183 net.cpp:84] Creating Layer conv5_3/sep/bn
I0620 22:47:16.528781 32183 net.cpp:406] conv5_3/sep/bn <- conv5_3/sep
I0620 22:47:16.528800 32183 net.cpp:367] conv5_3/sep/bn -> conv5_3/sep (in-place)
I0620 22:47:16.529100 32183 net.cpp:122] Setting up conv5_3/sep/bn
I0620 22:47:16.529119 32183 net.cpp:129] Top shape: 10 512 14 14 (1003520)
I0620 22:47:16.529126 32183 net.cpp:137] Memory required for data: 712499320
I0620 22:47:16.529140 32183 layer_factory.hpp:77] Creating layer conv5_3/sep/scale
I0620 22:47:16.529165 32183 net.cpp:84] Creating Layer conv5_3/sep/scale
I0620 22:47:16.529175 32183 net.cpp:406] conv5_3/sep/scale <- conv5_3/sep
I0620 22:47:16.529186 32183 net.cpp:367] conv5_3/sep/scale -> conv5_3/sep (in-place)
I0620 22:47:16.529256 32183 layer_factory.hpp:77] Creating layer conv5_3/sep/scale
I0620 22:47:16.529441 32183 net.cpp:122] Setting up conv5_3/sep/scale
I0620 22:47:16.529459 32183 net.cpp:129] Top shape: 10 512 14 14 (1003520)
I0620 22:47:16.529467 32183 net.cpp:137] Memory required for data: 716513400
I0620 22:47:16.529482 32183 layer_factory.hpp:77] Creating layer relu5_3/sep
I0620 22:47:16.529495 32183 net.cpp:84] Creating Layer relu5_3/sep
I0620 22:47:16.529507 32183 net.cpp:406] relu5_3/sep <- conv5_3/sep
I0620 22:47:16.529526 32183 net.cpp:367] relu5_3/sep -> conv5_3/sep (in-place)
I0620 22:47:16.530040 32183 net.cpp:122] Setting up relu5_3/sep
I0620 22:47:16.530061 32183 net.cpp:129] Top shape: 10 512 14 14 (1003520)
I0620 22:47:16.530071 32183 net.cpp:137] Memory required for data: 720527480
I0620 22:47:16.530078 32183 layer_factory.hpp:77] Creating layer conv5_4/dw
I0620 22:47:16.530098 32183 net.cpp:84] Creating Layer conv5_4/dw
I0620 22:47:16.530109 32183 net.cpp:406] conv5_4/dw <- conv5_3/sep
I0620 22:47:16.530122 32183 net.cpp:380] conv5_4/dw -> conv5_4/dw
I0620 22:47:16.530369 32183 net.cpp:122] Setting up conv5_4/dw
I0620 22:47:16.530387 32183 net.cpp:129] Top shape: 10 512 14 14 (1003520)
I0620 22:47:16.530395 32183 net.cpp:137] Memory required for data: 724541560
I0620 22:47:16.530406 32183 layer_factory.hpp:77] Creating layer conv5_4/dw/bn
I0620 22:47:16.530423 32183 net.cpp:84] Creating Layer conv5_4/dw/bn
I0620 22:47:16.530434 32183 net.cpp:406] conv5_4/dw/bn <- conv5_4/dw
I0620 22:47:16.530445 32183 net.cpp:367] conv5_4/dw/bn -> conv5_4/dw (in-place)
I0620 22:47:16.530750 32183 net.cpp:122] Setting up conv5_4/dw/bn
I0620 22:47:16.530768 32183 net.cpp:129] Top shape: 10 512 14 14 (1003520)
I0620 22:47:16.530776 32183 net.cpp:137] Memory required for data: 728555640
I0620 22:47:16.530792 32183 layer_factory.hpp:77] Creating layer conv5_4/dw/scale
I0620 22:47:16.530807 32183 net.cpp:84] Creating Layer conv5_4/dw/scale
I0620 22:47:16.530815 32183 net.cpp:406] conv5_4/dw/scale <- conv5_4/dw
I0620 22:47:16.530830 32183 net.cpp:367] conv5_4/dw/scale -> conv5_4/dw (in-place)
I0620 22:47:16.530892 32183 layer_factory.hpp:77] Creating layer conv5_4/dw/scale
I0620 22:47:16.531075 32183 net.cpp:122] Setting up conv5_4/dw/scale
I0620 22:47:16.531095 32183 net.cpp:129] Top shape: 10 512 14 14 (1003520)
I0620 22:47:16.531103 32183 net.cpp:137] Memory required for data: 732569720
I0620 22:47:16.531157 32183 layer_factory.hpp:77] Creating layer relu5_4/dw
I0620 22:47:16.531172 32183 net.cpp:84] Creating Layer relu5_4/dw
I0620 22:47:16.531182 32183 net.cpp:406] relu5_4/dw <- conv5_4/dw
I0620 22:47:16.531193 32183 net.cpp:367] relu5_4/dw -> conv5_4/dw (in-place)
I0620 22:47:16.531442 32183 net.cpp:122] Setting up relu5_4/dw
I0620 22:47:16.531461 32183 net.cpp:129] Top shape: 10 512 14 14 (1003520)
I0620 22:47:16.531469 32183 net.cpp:137] Memory required for data: 736583800
I0620 22:47:16.531478 32183 layer_factory.hpp:77] Creating layer conv5_4/sep
I0620 22:47:16.531496 32183 net.cpp:84] Creating Layer conv5_4/sep
I0620 22:47:16.531505 32183 net.cpp:406] conv5_4/sep <- conv5_4/dw
I0620 22:47:16.531527 32183 net.cpp:380] conv5_4/sep -> conv5_4/sep
I0620 22:47:16.537356 32183 net.cpp:122] Setting up conv5_4/sep
I0620 22:47:16.537400 32183 net.cpp:129] Top shape: 10 512 14 14 (1003520)
I0620 22:47:16.537410 32183 net.cpp:137] Memory required for data: 740597880
I0620 22:47:16.537448 32183 layer_factory.hpp:77] Creating layer conv5_4/sep/bn
I0620 22:47:16.537466 32183 net.cpp:84] Creating Layer conv5_4/sep/bn
I0620 22:47:16.537475 32183 net.cpp:406] conv5_4/sep/bn <- conv5_4/sep
I0620 22:47:16.537492 32183 net.cpp:367] conv5_4/sep/bn -> conv5_4/sep (in-place)
I0620 22:47:16.537803 32183 net.cpp:122] Setting up conv5_4/sep/bn
I0620 22:47:16.537823 32183 net.cpp:129] Top shape: 10 512 14 14 (1003520)
I0620 22:47:16.537842 32183 net.cpp:137] Memory required for data: 744611960
I0620 22:47:16.537858 32183 layer_factory.hpp:77] Creating layer conv5_4/sep/scale
I0620 22:47:16.537871 32183 net.cpp:84] Creating Layer conv5_4/sep/scale
I0620 22:47:16.537880 32183 net.cpp:406] conv5_4/sep/scale <- conv5_4/sep
I0620 22:47:16.537891 32183 net.cpp:367] conv5_4/sep/scale -> conv5_4/sep (in-place)
I0620 22:47:16.537961 32183 layer_factory.hpp:77] Creating layer conv5_4/sep/scale
I0620 22:47:16.538156 32183 net.cpp:122] Setting up conv5_4/sep/scale
I0620 22:47:16.538173 32183 net.cpp:129] Top shape: 10 512 14 14 (1003520)
I0620 22:47:16.538182 32183 net.cpp:137] Memory required for data: 748626040
I0620 22:47:16.538193 32183 layer_factory.hpp:77] Creating layer relu5_4/sep
I0620 22:47:16.538205 32183 net.cpp:84] Creating Layer relu5_4/sep
I0620 22:47:16.538214 32183 net.cpp:406] relu5_4/sep <- conv5_4/sep
I0620 22:47:16.538228 32183 net.cpp:367] relu5_4/sep -> conv5_4/sep (in-place)
I0620 22:47:16.538758 32183 net.cpp:122] Setting up relu5_4/sep
I0620 22:47:16.538780 32183 net.cpp:129] Top shape: 10 512 14 14 (1003520)
I0620 22:47:16.538789 32183 net.cpp:137] Memory required for data: 752640120
I0620 22:47:16.538797 32183 layer_factory.hpp:77] Creating layer conv5_5/dw
I0620 22:47:16.538817 32183 net.cpp:84] Creating Layer conv5_5/dw
I0620 22:47:16.538827 32183 net.cpp:406] conv5_5/dw <- conv5_4/sep
I0620 22:47:16.538841 32183 net.cpp:380] conv5_5/dw -> conv5_5/dw
I0620 22:47:16.539090 32183 net.cpp:122] Setting up conv5_5/dw
I0620 22:47:16.539108 32183 net.cpp:129] Top shape: 10 512 14 14 (1003520)
I0620 22:47:16.539116 32183 net.cpp:137] Memory required for data: 756654200
I0620 22:47:16.539127 32183 layer_factory.hpp:77] Creating layer conv5_5/dw/bn
I0620 22:47:16.539144 32183 net.cpp:84] Creating Layer conv5_5/dw/bn
I0620 22:47:16.539153 32183 net.cpp:406] conv5_5/dw/bn <- conv5_5/dw
I0620 22:47:16.539165 32183 net.cpp:367] conv5_5/dw/bn -> conv5_5/dw (in-place)
I0620 22:47:16.539448 32183 net.cpp:122] Setting up conv5_5/dw/bn
I0620 22:47:16.539465 32183 net.cpp:129] Top shape: 10 512 14 14 (1003520)
I0620 22:47:16.539474 32183 net.cpp:137] Memory required for data: 760668280
I0620 22:47:16.539486 32183 layer_factory.hpp:77] Creating layer conv5_5/dw/scale
I0620 22:47:16.539499 32183 net.cpp:84] Creating Layer conv5_5/dw/scale
I0620 22:47:16.539508 32183 net.cpp:406] conv5_5/dw/scale <- conv5_5/dw
I0620 22:47:16.539533 32183 net.cpp:367] conv5_5/dw/scale -> conv5_5/dw (in-place)
I0620 22:47:16.539597 32183 layer_factory.hpp:77] Creating layer conv5_5/dw/scale
I0620 22:47:16.539778 32183 net.cpp:122] Setting up conv5_5/dw/scale
I0620 22:47:16.539796 32183 net.cpp:129] Top shape: 10 512 14 14 (1003520)
I0620 22:47:16.539804 32183 net.cpp:137] Memory required for data: 764682360
I0620 22:47:16.539816 32183 layer_factory.hpp:77] Creating layer relu5_5/dw
I0620 22:47:16.539831 32183 net.cpp:84] Creating Layer relu5_5/dw
I0620 22:47:16.539841 32183 net.cpp:406] relu5_5/dw <- conv5_5/dw
I0620 22:47:16.539851 32183 net.cpp:367] relu5_5/dw -> conv5_5/dw (in-place)
I0620 22:47:16.540097 32183 net.cpp:122] Setting up relu5_5/dw
I0620 22:47:16.540117 32183 net.cpp:129] Top shape: 10 512 14 14 (1003520)
I0620 22:47:16.540128 32183 net.cpp:137] Memory required for data: 768696440
I0620 22:47:16.540138 32183 layer_factory.hpp:77] Creating layer conv5_5/sep
I0620 22:47:16.540151 32183 net.cpp:84] Creating Layer conv5_5/sep
I0620 22:47:16.540160 32183 net.cpp:406] conv5_5/sep <- conv5_5/dw
I0620 22:47:16.540176 32183 net.cpp:380] conv5_5/sep -> conv5_5/sep
I0620 22:47:16.546005 32183 net.cpp:122] Setting up conv5_5/sep
I0620 22:47:16.546072 32183 net.cpp:129] Top shape: 10 512 14 14 (1003520)
I0620 22:47:16.546082 32183 net.cpp:137] Memory required for data: 772710520
I0620 22:47:16.546095 32183 layer_factory.hpp:77] Creating layer conv5_5/sep/bn
I0620 22:47:16.546115 32183 net.cpp:84] Creating Layer conv5_5/sep/bn
I0620 22:47:16.546126 32183 net.cpp:406] conv5_5/sep/bn <- conv5_5/sep
I0620 22:47:16.546154 32183 net.cpp:367] conv5_5/sep/bn -> conv5_5/sep (in-place)
I0620 22:47:16.546465 32183 net.cpp:122] Setting up conv5_5/sep/bn
I0620 22:47:16.546483 32183 net.cpp:129] Top shape: 10 512 14 14 (1003520)
I0620 22:47:16.546492 32183 net.cpp:137] Memory required for data: 776724600
I0620 22:47:16.546509 32183 layer_factory.hpp:77] Creating layer conv5_5/sep/scale
I0620 22:47:16.546532 32183 net.cpp:84] Creating Layer conv5_5/sep/scale
I0620 22:47:16.546542 32183 net.cpp:406] conv5_5/sep/scale <- conv5_5/sep
I0620 22:47:16.546557 32183 net.cpp:367] conv5_5/sep/scale -> conv5_5/sep (in-place)
I0620 22:47:16.546625 32183 layer_factory.hpp:77] Creating layer conv5_5/sep/scale
I0620 22:47:16.546808 32183 net.cpp:122] Setting up conv5_5/sep/scale
I0620 22:47:16.546828 32183 net.cpp:129] Top shape: 10 512 14 14 (1003520)
I0620 22:47:16.546836 32183 net.cpp:137] Memory required for data: 780738680
I0620 22:47:16.546850 32183 layer_factory.hpp:77] Creating layer relu5_5/sep
I0620 22:47:16.546862 32183 net.cpp:84] Creating Layer relu5_5/sep
I0620 22:47:16.546871 32183 net.cpp:406] relu5_5/sep <- conv5_5/sep
I0620 22:47:16.546882 32183 net.cpp:367] relu5_5/sep -> conv5_5/sep (in-place)
I0620 22:47:16.547407 32183 net.cpp:122] Setting up relu5_5/sep
I0620 22:47:16.547428 32183 net.cpp:129] Top shape: 10 512 14 14 (1003520)
I0620 22:47:16.547437 32183 net.cpp:137] Memory required for data: 784752760
I0620 22:47:16.547446 32183 layer_factory.hpp:77] Creating layer conv5_6/dw
I0620 22:47:16.547466 32183 net.cpp:84] Creating Layer conv5_6/dw
I0620 22:47:16.547477 32183 net.cpp:406] conv5_6/dw <- conv5_5/sep
I0620 22:47:16.547493 32183 net.cpp:380] conv5_6/dw -> conv5_6/dw
I0620 22:47:16.547751 32183 net.cpp:122] Setting up conv5_6/dw
I0620 22:47:16.547771 32183 net.cpp:129] Top shape: 10 512 7 7 (250880)
I0620 22:47:16.547780 32183 net.cpp:137] Memory required for data: 785756280
I0620 22:47:16.547791 32183 layer_factory.hpp:77] Creating layer conv5_6/dw/bn
I0620 22:47:16.547807 32183 net.cpp:84] Creating Layer conv5_6/dw/bn
I0620 22:47:16.547817 32183 net.cpp:406] conv5_6/dw/bn <- conv5_6/dw
I0620 22:47:16.547828 32183 net.cpp:367] conv5_6/dw/bn -> conv5_6/dw (in-place)
I0620 22:47:16.548238 32183 net.cpp:122] Setting up conv5_6/dw/bn
I0620 22:47:16.548256 32183 net.cpp:129] Top shape: 10 512 7 7 (250880)
I0620 22:47:16.548264 32183 net.cpp:137] Memory required for data: 786759800
I0620 22:47:16.548277 32183 layer_factory.hpp:77] Creating layer conv5_6/dw/scale
I0620 22:47:16.548293 32183 net.cpp:84] Creating Layer conv5_6/dw/scale
I0620 22:47:16.548302 32183 net.cpp:406] conv5_6/dw/scale <- conv5_6/dw
I0620 22:47:16.548321 32183 net.cpp:367] conv5_6/dw/scale -> conv5_6/dw (in-place)
I0620 22:47:16.548384 32183 layer_factory.hpp:77] Creating layer conv5_6/dw/scale
I0620 22:47:16.548584 32183 net.cpp:122] Setting up conv5_6/dw/scale
I0620 22:47:16.548604 32183 net.cpp:129] Top shape: 10 512 7 7 (250880)
I0620 22:47:16.548611 32183 net.cpp:137] Memory required for data: 787763320
I0620 22:47:16.548624 32183 layer_factory.hpp:77] Creating layer relu5_6/dw
I0620 22:47:16.548636 32183 net.cpp:84] Creating Layer relu5_6/dw
I0620 22:47:16.548645 32183 net.cpp:406] relu5_6/dw <- conv5_6/dw
I0620 22:47:16.548656 32183 net.cpp:367] relu5_6/dw -> conv5_6/dw (in-place)
I0620 22:47:16.548908 32183 net.cpp:122] Setting up relu5_6/dw
I0620 22:47:16.548928 32183 net.cpp:129] Top shape: 10 512 7 7 (250880)
I0620 22:47:16.548936 32183 net.cpp:137] Memory required for data: 788766840
I0620 22:47:16.548944 32183 layer_factory.hpp:77] Creating layer conv5_6/sep
I0620 22:47:16.548964 32183 net.cpp:84] Creating Layer conv5_6/sep
I0620 22:47:16.548987 32183 net.cpp:406] conv5_6/sep <- conv5_6/dw
I0620 22:47:16.549005 32183 net.cpp:380] conv5_6/sep -> conv5_6/sep
I0620 22:47:16.560878 32183 net.cpp:122] Setting up conv5_6/sep
I0620 22:47:16.560938 32183 net.cpp:129] Top shape: 10 1024 7 7 (501760)
I0620 22:47:16.560948 32183 net.cpp:137] Memory required for data: 790773880
I0620 22:47:16.560968 32183 layer_factory.hpp:77] Creating layer conv5_6/sep/bn
I0620 22:47:16.561009 32183 net.cpp:84] Creating Layer conv5_6/sep/bn
I0620 22:47:16.561024 32183 net.cpp:406] conv5_6/sep/bn <- conv5_6/sep
I0620 22:47:16.561043 32183 net.cpp:367] conv5_6/sep/bn -> conv5_6/sep (in-place)
I0620 22:47:16.561393 32183 net.cpp:122] Setting up conv5_6/sep/bn
I0620 22:47:16.561414 32183 net.cpp:129] Top shape: 10 1024 7 7 (501760)
I0620 22:47:16.561424 32183 net.cpp:137] Memory required for data: 792780920
I0620 22:47:16.561439 32183 layer_factory.hpp:77] Creating layer conv5_6/sep/scale
I0620 22:47:16.561491 32183 net.cpp:84] Creating Layer conv5_6/sep/scale
I0620 22:47:16.561502 32183 net.cpp:406] conv5_6/sep/scale <- conv5_6/sep
I0620 22:47:16.561520 32183 net.cpp:367] conv5_6/sep/scale -> conv5_6/sep (in-place)
I0620 22:47:16.561662 32183 layer_factory.hpp:77] Creating layer conv5_6/sep/scale
I0620 22:47:16.561864 32183 net.cpp:122] Setting up conv5_6/sep/scale
I0620 22:47:16.561882 32183 net.cpp:129] Top shape: 10 1024 7 7 (501760)
I0620 22:47:16.561892 32183 net.cpp:137] Memory required for data: 794787960
I0620 22:47:16.561904 32183 layer_factory.hpp:77] Creating layer relu5_6/sep
I0620 22:47:16.561918 32183 net.cpp:84] Creating Layer relu5_6/sep
I0620 22:47:16.561926 32183 net.cpp:406] relu5_6/sep <- conv5_6/sep
I0620 22:47:16.561941 32183 net.cpp:367] relu5_6/sep -> conv5_6/sep (in-place)
I0620 22:47:16.562572 32183 net.cpp:122] Setting up relu5_6/sep
I0620 22:47:16.562595 32183 net.cpp:129] Top shape: 10 1024 7 7 (501760)
I0620 22:47:16.562604 32183 net.cpp:137] Memory required for data: 796795000
I0620 22:47:16.562613 32183 layer_factory.hpp:77] Creating layer conv6/dw
I0620 22:47:16.562633 32183 net.cpp:84] Creating Layer conv6/dw
I0620 22:47:16.562644 32183 net.cpp:406] conv6/dw <- conv5_6/sep
I0620 22:47:16.562656 32183 net.cpp:380] conv6/dw -> conv6/dw
I0620 22:47:16.562975 32183 net.cpp:122] Setting up conv6/dw
I0620 22:47:16.562994 32183 net.cpp:129] Top shape: 10 1024 7 7 (501760)
I0620 22:47:16.563002 32183 net.cpp:137] Memory required for data: 798802040
I0620 22:47:16.563014 32183 layer_factory.hpp:77] Creating layer conv6/dw/bn
I0620 22:47:16.563032 32183 net.cpp:84] Creating Layer conv6/dw/bn
I0620 22:47:16.563043 32183 net.cpp:406] conv6/dw/bn <- conv6/dw
I0620 22:47:16.563057 32183 net.cpp:367] conv6/dw/bn -> conv6/dw (in-place)
I0620 22:47:16.563357 32183 net.cpp:122] Setting up conv6/dw/bn
I0620 22:47:16.563374 32183 net.cpp:129] Top shape: 10 1024 7 7 (501760)
I0620 22:47:16.563383 32183 net.cpp:137] Memory required for data: 800809080
I0620 22:47:16.563411 32183 layer_factory.hpp:77] Creating layer conv6/dw/scale
I0620 22:47:16.563438 32183 net.cpp:84] Creating Layer conv6/dw/scale
I0620 22:47:16.563448 32183 net.cpp:406] conv6/dw/scale <- conv6/dw
I0620 22:47:16.563460 32183 net.cpp:367] conv6/dw/scale -> conv6/dw (in-place)
I0620 22:47:16.563539 32183 layer_factory.hpp:77] Creating layer conv6/dw/scale
I0620 22:47:16.563733 32183 net.cpp:122] Setting up conv6/dw/scale
I0620 22:47:16.563751 32183 net.cpp:129] Top shape: 10 1024 7 7 (501760)
I0620 22:47:16.563760 32183 net.cpp:137] Memory required for data: 802816120
I0620 22:47:16.563771 32183 layer_factory.hpp:77] Creating layer relu6/dw
I0620 22:47:16.563794 32183 net.cpp:84] Creating Layer relu6/dw
I0620 22:47:16.563805 32183 net.cpp:406] relu6/dw <- conv6/dw
I0620 22:47:16.563818 32183 net.cpp:367] relu6/dw -> conv6/dw (in-place)
I0620 22:47:16.564062 32183 net.cpp:122] Setting up relu6/dw
I0620 22:47:16.564081 32183 net.cpp:129] Top shape: 10 1024 7 7 (501760)
I0620 22:47:16.564090 32183 net.cpp:137] Memory required for data: 804823160
I0620 22:47:16.564098 32183 layer_factory.hpp:77] Creating layer conv6/sep
I0620 22:47:16.564139 32183 net.cpp:84] Creating Layer conv6/sep
I0620 22:47:16.564151 32183 net.cpp:406] conv6/sep <- conv6/dw
I0620 22:47:16.564165 32183 net.cpp:380] conv6/sep -> conv6/sep
I0620 22:47:16.586156 32183 net.cpp:122] Setting up conv6/sep
I0620 22:47:16.586217 32183 net.cpp:129] Top shape: 10 1024 7 7 (501760)
I0620 22:47:16.586227 32183 net.cpp:137] Memory required for data: 806830200
I0620 22:47:16.586258 32183 layer_factory.hpp:77] Creating layer conv6/sep/bn
I0620 22:47:16.586288 32183 net.cpp:84] Creating Layer conv6/sep/bn
I0620 22:47:16.586302 32183 net.cpp:406] conv6/sep/bn <- conv6/sep
I0620 22:47:16.586316 32183 net.cpp:367] conv6/sep/bn -> conv6/sep (in-place)
I0620 22:47:16.586670 32183 net.cpp:122] Setting up conv6/sep/bn
I0620 22:47:16.586690 32183 net.cpp:129] Top shape: 10 1024 7 7 (501760)
I0620 22:47:16.586699 32183 net.cpp:137] Memory required for data: 808837240
I0620 22:47:16.586733 32183 layer_factory.hpp:77] Creating layer conv6/sep/scale
I0620 22:47:16.586756 32183 net.cpp:84] Creating Layer conv6/sep/scale
I0620 22:47:16.586767 32183 net.cpp:406] conv6/sep/scale <- conv6/sep
I0620 22:47:16.586778 32183 net.cpp:367] conv6/sep/scale -> conv6/sep (in-place)
I0620 22:47:16.586860 32183 layer_factory.hpp:77] Creating layer conv6/sep/scale
I0620 22:47:16.587057 32183 net.cpp:122] Setting up conv6/sep/scale
I0620 22:47:16.587075 32183 net.cpp:129] Top shape: 10 1024 7 7 (501760)
I0620 22:47:16.587083 32183 net.cpp:137] Memory required for data: 810844280
I0620 22:47:16.587095 32183 layer_factory.hpp:77] Creating layer relu6/sep
I0620 22:47:16.587121 32183 net.cpp:84] Creating Layer relu6/sep
I0620 22:47:16.587131 32183 net.cpp:406] relu6/sep <- conv6/sep
I0620 22:47:16.587146 32183 net.cpp:367] relu6/sep -> conv6/sep (in-place)
I0620 22:47:16.587950 32183 net.cpp:122] Setting up relu6/sep
I0620 22:47:16.587973 32183 net.cpp:129] Top shape: 10 1024 7 7 (501760)
I0620 22:47:16.587982 32183 net.cpp:137] Memory required for data: 812851320
I0620 22:47:16.587990 32183 layer_factory.hpp:77] Creating layer pool6
I0620 22:47:16.588006 32183 net.cpp:84] Creating Layer pool6
I0620 22:47:16.588014 32183 net.cpp:406] pool6 <- conv6/sep
I0620 22:47:16.588030 32183 net.cpp:380] pool6 -> pool6
I0620 22:47:16.588352 32183 net.cpp:122] Setting up pool6
I0620 22:47:16.588372 32183 net.cpp:129] Top shape: 10 1024 1 1 (10240)
I0620 22:47:16.588382 32183 net.cpp:137] Memory required for data: 812892280
I0620 22:47:16.588390 32183 layer_factory.hpp:77] Creating layer fc7_oxford
I0620 22:47:16.588410 32183 net.cpp:84] Creating Layer fc7_oxford
I0620 22:47:16.588421 32183 net.cpp:406] fc7_oxford <- pool6
I0620 22:47:16.588436 32183 net.cpp:380] fc7_oxford -> fc7
I0620 22:47:16.591285 32183 net.cpp:122] Setting up fc7_oxford
I0620 22:47:16.591313 32183 net.cpp:129] Top shape: 10 102 1 1 (1020)
I0620 22:47:16.591323 32183 net.cpp:137] Memory required for data: 812896360
I0620 22:47:16.591338 32183 layer_factory.hpp:77] Creating layer fc7_fc7_oxford_0_split
I0620 22:47:16.591358 32183 net.cpp:84] Creating Layer fc7_fc7_oxford_0_split
I0620 22:47:16.591368 32183 net.cpp:406] fc7_fc7_oxford_0_split <- fc7
I0620 22:47:16.591382 32183 net.cpp:380] fc7_fc7_oxford_0_split -> fc7_fc7_oxford_0_split_0
I0620 22:47:16.591395 32183 net.cpp:380] fc7_fc7_oxford_0_split -> fc7_fc7_oxford_0_split_1
I0620 22:47:16.591466 32183 net.cpp:122] Setting up fc7_fc7_oxford_0_split
I0620 22:47:16.591483 32183 net.cpp:129] Top shape: 10 102 1 1 (1020)
I0620 22:47:16.591493 32183 net.cpp:129] Top shape: 10 102 1 1 (1020)
I0620 22:47:16.591501 32183 net.cpp:137] Memory required for data: 812904520
I0620 22:47:16.591509 32183 layer_factory.hpp:77] Creating layer accuracy
I0620 22:47:16.591547 32183 net.cpp:84] Creating Layer accuracy
I0620 22:47:16.591559 32183 net.cpp:406] accuracy <- fc7_fc7_oxford_0_split_0
I0620 22:47:16.591570 32183 net.cpp:406] accuracy <- label_data_1_split_0
I0620 22:47:16.591585 32183 net.cpp:380] accuracy -> accuracy
…
